Final_models/mfeat-factors/tabtrans/hyperparameter_selection/100/experiment_1_128_2_4/checkpoints/params.pt (torch, 932454 bytes, 41 tensors)

numerical_encoder.weights f4 [216, 128]
000000 de 2b a9 3c 23 c9 79 3d 8e 03 07 bf e2 a0 2e bf
       0.0206508 0.060982835 -0.527398 -0.6821424
000010 92 0b 65 3f e0 bd 02 3f 3e fa ac 3f 66 08 e5 3e
       0.8947078 0.51070976 1.3513868 0.4473297
000020 b0 d2 a3 be 94 a8 df bf 6e 60 d8 be 4c 24 f8 be
       -0.3199668 -1.7473321 -0.4226107 -0.48465192
000030 4c 51 94 3f 63 64 78 3f c4 86 ab 3e 7c a3 2d bf
       1.158731 0.9702818 0.33501256 -0.6782758
000040 bb 78 60 3f 03 c0 a4 3e dd 56 03 3f 8d de d9 be
       0.8768422 0.32177743 0.5130442 -0.42552605
000050 85 82 ea 3e 23 8d fa 3d 50 ce 6c bf e2 5a 03 3f
       0.45802703 0.12233951 -0.9250231 0.5131055
000060 d7 d2 1d be 4e d2 51 c0 32 75 4b 3f 49 4a 36 bf
       -0.1541246 -3.278461 0.794757 -0.712071
000070 5e ea d1 be c3 4e a9 3f a5 8f a5 bf 25 e2 0d bf
       -0.4099912 1.3227161 -1.2934462 -0.55423194
000080 74 ce 0b 3f 49 5d 1b 3e ce db 19 3f 01 65 80 3f
       0.546119 0.15172304 0.6010102 1.0030824
000090 4a 3e 87 bf b5 5c 91 bf c8 6e b9 3e 6e c4 b4 3e
       -1.0565884 -1.1356417 0.36217332 0.35306114
0000a0 c7 94 95 bf 7d 31 9b bf 15 01 ac 3f 9b 37 b1 bf
       -1.1686028 -1.2124478 1.343783 -1.3845094
0000b0 61 d9 d4 3f 70 79 b5 3d a3 9d c1 3f 4f b1 ef bf
       1.6628839 0.08861053 1.5126232 -1.8725985
0000c0 f1 8c fa be ae 13 8d 3f 94 ef 8b bf 87 1c 13 bd
       -0.48935655 1.1021631 -1.0932488 -0.035915878
0000d0 88 6f be bf 5f 91 59 bf fe 01 82 3d 27 10 9f 3d
       -1.4877787 -0.84987444 0.06348036 0.07766753
0000e0 4b a3 e3 be b2 16 5e 3f e2 73 db bf d4 a2 f9 3e
       -0.4446052 0.8675338 -1.714474 0.4875704
0000f0 b9 80 68 be 1a ca 56 bd 49 db f0 bf 7c a8 1a bf
       -0.22705354 -0.052438833 -1.881692 -0.60413337
000100 05 08 d3 3e 2b b6 86 3f b6 c4 b6 be 6c 30 e3 bd
       0.41217056 1.0524343 -0.35696954 -0.1109322
000110 86 06 34 3f 26 8a a2 be 71 7e c2 be e4 ad 1f 3e
       0.70322454 -0.31746024 -0.37987092 0.15593678
000120 75 0a 98 bf e8 49 87 3f 7b 18 b6 3f 17 37 a9 be
       -1.1878191 1.0569429 1.4226221 -0.33049843
000130 d8 56 bc 3e 4d fe 62 bf 6f 1b df bf 98 4b 8d 3f
       0.36785007 -0.8866928 -1.7430247 1.1038694
000140 98 87 dc 3f c2 2e db bf 41 5e cb 3f d3 03 a7 bf
       1.722888 -1.7123644 1.5888139 -1.3048042
000150 f4 b1 8f 3f 6c 14 9f 3f 96 d1 58 3e 8f ce c1 bf
       1.1226182 1.2428107 0.211737 -1.5141162
000160 03 1c 65 bf 27 1b e2 3e c8 48 23 bf 63 e1 a2 bf
       -0.8949587 0.4416134 -0.6378293 -1.2725033
000170 76 4d 83 3f 17 78 7c 3f a0 41 f3 3f b6 1d c5 3f
       1.0258014 0.9862074 1.9004402 1.5399692
000180 a1 6d 8f bf 42 dd fc 3f 41 9a be be 52 af a4 be
       -1.1205331 1.9755023 -0.3722706 -0.3216501
000190 1f 38 d4 be 4f 19 48 3e 3f 13 fc 3e f9 da 74 3f
       -0.41449067 0.19540904 0.49233434 0.95646626
0001a0 7c 8b d1 be 5c ed 0b be 8e 6f 78 bf 7b 96 03 40
       -0.4092673 -0.13664764 -0.9704522 2.0560596
0001b0 6f 30 4a 3f f3 29 8d 3f fc 28 54 bf f3 8e 1e bf
       0.78980154 1.1028427 -0.8287504 -0.61936873
0001c0 66 3b c0 bb 27 59 da 3e dc ab 9a be 30 a2 75 3e
       -0.005866456 0.42646143 -0.30209243 0.23987651
0001d0 2b b9 e1 3e f0 fa 32 3f ac 59 93 bf 66 93 69 3f
       0.44086584 0.6991415 -1.1511741 0.9124054
0001e0 68 7a ac bf 1e 36 4d 3f 86 b3 7a be 7f c8 9f 3d
       -1.3474855 0.801607 -0.24482545 0.078019135
0001f0 fc cb c0 be 22 ec b9 3f 4e db d9 be a8 d3 a2 3f
       -0.37655628 1.4525187 -0.4255013 1.2720842
000200 89 2c 00 3f 28 84 43 3f 50 37 c7 bd 30 d8 9a bd
       0.50067955 0.7637353 -0.09727347 -0.07560766
000210 f3 79 e9 be c1 a8 d5 3e d7 34 42 3f c5 0f 91 3e
       -0.45600852 0.41730312 0.7586188 0.28332344
000220 07 7d 9c bf 52 b8 d2 bf c8 b3 d8 bf 39 4a 91 3f
       -1.2225655 -1.64625 -1.6929865 1.1350776
000230 d3 7d 27 be f7 03 09 3f 0c 9d a9 3f 60 1c f8 bf
       -0.16356592 0.53521675 1.3251052 -1.9383659
000240 24 43 16 3e 34 75 26 c0 fa b9 62 3f 66 3f 24 bf
       0.1467405 -2.6009035 0.8856503 -0.6415924
000250 e1 da 85 be 14 df d0 bf 33 6a b4 3f 8c 9c c8 be
       -0.26143554 -1.6318078 1.409491 -0.39181936
000260 68 5c 13 bd 9b 27 d2 3f 5a c9 85 3f bc ae a9 3c
       -0.035976797 1.6418337 1.0452073 0.020713203
000270 9e 0d 19 3f 82 2e 6d 3f fc 62 9d 3e 06 9f b3 bd
       0.59786403 0.9264909 0.30739582 -0.08770566
000280 29 df 7b 3d fa 57 9b bf e2 59 96 bf 50 61 1f be
       0.06149212 -1.2136223 -1.174618 -0.15564466
000290 a3 5c ae bf c9 31 92 3f b6 bc 6b 3f 3a d0 84 bf
       -1.362202 1.1421443 0.92084825 -1.0376046
0002a0 4d ef 70 bf 48 8f a7 be 51 c1 3f 3f 30 dc 80 3f
       -0.94115144 -0.32726502 0.7490435 1.0067196
0002b0 58 f3 3f bd 9f 50 61 3f 8d 37 81 bf d6 b2 96 3c
       -0.04686293 0.88013643 -1.0095078 0.018395822
0002c0 8b 3a 8c 3f b2 17 56 bd 5f 22 1e bf 26 42 bf 3f
       1.0955366 -0.05226869 -0.61771196 1.4942062
0002d0 74 83 9e 3e 14 4e 77 3e 4b 2c 5e bf de 4d a0 be
       0.30959666 0.24150878 -0.86786336 -0.31309408
0002e0 f4 5d b2 bf a4 72 a7 bd 19 42 9c bf 3d fc eb 3e
       -1.3934922 -0.08176163 -1.2207671 0.4609088
0002f0 06 74 2e 3f 54 11 d1 be d3 a9 df 3e f8 66 9d bf
       0.6814579 -0.40833533 0.43684253 -1.2297049
000300 01 7c c8 be 99 cf 97 3f e4 68 cd 3f 1b e0 2f c0
       -0.39157107 1.1860229 1.6047635 -2.7480533
000310 98 6a 73 3f 93 32 18 3f 92 56 2a bf f3 73 68 3f
       0.95084524 0.5945217 -0.66538346 0.90801924
000320 33 81 17 c0 c1 86 ed be 41 65 f5 3f 46 a2 e7 3e
       -2.3672607 -0.46391872 1.9171525 0.45240992
000330 db 6e 99 3f ad 99 2f 3f 43 78 9d bf 4a b5 92 be
       1.1986955 0.68593866 -1.2302326 -0.28653938
000340 a0 89 79 3f d8 fc 03 3f 01 d8 b0 3c 21 c9 73 3f
       0.97475624 0.51557684 0.021587374 0.95228773
000350 d7 4c f6 be 5a f2 ff bf f7 70 c5 be 93 f6 f8 bf
       -0.481055 -1.9995835 -0.38562748 -1.9450248
000360 dd ac e3 3e a2 34 cb 3e c4 56 9c be d9 67 a9 3e
       0.44467822 0.39688593 -0.30534947 0.33087042
000370 88 86 b1 be 16 a5 d8 bf 40 70 20 bf 7a ad bd 3c
       -0.34672952 -1.692538 -0.6267128 0.02315401
000380 ab cc 98 be 19 12 9d 3f 43 51 4b 3f 1f 36 48 bf
       -0.2984365 1.2271148 0.7942087 -0.7820758
000390 ad 89 22 3f fa ca 09 c0 41 14 31 3f a3 06 74 be
       0.63491327 -2.1530137 0.6917153 -0.23830657
0003a0 c3 32 d4 be 0f da 46 be 6d 2c 66 be 54 fe 7d bf
       -0.41444978 -0.1941912 -0.22477885 -0.992162
0003b0 b5 69 56 3e 4d 2f 18 bf 77 e7 ee be cf a7 da be
       0.20938762 -0.59447175 -0.4666097 -0.42706153
0003c0 e5 5e 55 be e5 9a c3 bc 51 4d c6 3e b2 60 30 3f
       -0.2083698 -0.02387757 0.38730863 0.68897545
0003d0 9b c8 e9 bd 8e d6 81 be 04 7a e3 bf f0 e9 07 3e
       -0.114152156 -0.25359005 -1.7771611 0.13272834
0003e0 89 5d 02 3f 09 6d 8b 3f 92 92 81 3e d1 49 21 3d
       0.50923973 1.089265 0.25307137 0.039377037
0003f0 88 24 9c bf 2c 5c ab bd 94 a0 cf bf 53 57 16 bf
       -1.2198648 -0.0836719 -1.622088 -0.58726996

numerical_encoder.biases f4 [216, 128]
000000 bb 1f 97 be 69 29 a5 bf c2 ac 4c 3f dc 73 3a 3f
       -0.29516396 -1.2903262 0.7995111 0.7283304
000010 ff 90 57 c0 cc 31 74 bf 04 1e 29 40 f7 84 b2 3f
       -3.3682249 -0.95388484 2.642457 1.3946828
000020 38 7d 3d 3f a3 61 1c 3f c4 b4 c2 be 69 54 58 bd
       0.74019194 0.6108648 -0.38028538 -0.052814875
000030 94 df 89 bf 40 fd df be 4f 9f 23 bf f8 d3 23 3d
       -1.0771356 -0.43747902 -0.6391496 0.03999707
000040 85 5f 13 3e b7 a1 59 bf 55 e9 83 3f 19 82 90 bc
       0.14391907 -0.8501238 1.0305582 -0.01764016
000050 75 6b 9f be ff a2 5f 3f bc bf 7d 3f eb 1f ae 3f
       -0.3113667 0.8735809 0.9912069 1.360349
000060 54 f7 e3 3d c0 9b a4 3f 59 e9 8d bd 3d a2 b0 3f
       0.111311585 1.2860031 -0.06929273 1.3799511
000070 5e fb 30 3f 67 03 23 c0 87 8b fe 3e 71 b0 26 3f
       0.69133556 -2.5470827 0.49715826 0.6511298
000080 9c 16 a3 3f a2 a2 78 bf 6a e7 5a bf 52 df 5a 3f
       1.2741275 -0.9712316 -0.8550936 0.8549701
000090 a9 60 b3 3f 0d fe e4 bd ea d3 e7 be 2b aa c1 3e
       1.4013873 -0.11181269 -0.45278865 0.3782514
0000a0 80 12 02 3f 5a 0a f1 3f ba c2 73 3e 7a fe cc bf
       0.5080948 1.8831284 0.23804751 -1.601516
0000b0 d5 ba 02 bf 46 78 9a be 63 94 51 3e 02 72 e2 be
       -0.51066333 -0.30169886 0.20466761 -0.44227606
0000c0 11 41 b4 bf 40 94 81 be 52 f6 4a 3e 9f c8 a3 3d
       -1.4082357 -0.25308418 0.19820526 0.0799725
0000d0 88 cb ee be 20 28 ec 3e b2 a3 a2 3f 05 67 91 be
       -0.46639657 0.46124363 1.2706206 -0.2839891
0000e0 d8 f8 94 bf 04 6a e0 3d 50 e1 eb 3f a3 bb d6 bf
       -1.1638441 0.10957721 1.8428135 -1.6776012
0000f0 74 f9 83 3f 8f 72 cc 3e e5 a7 53 3f 1d 06 ec be
       1.0310502 0.3993115 0.8267806 -0.46098414
000100 ca 1d b3 bb 3f 79 34 c0 96 c1 a0 3f 94 d5 1d 3d
       -0.0054661976 -2.8199003 1.2559078 0.038533762
000110 c9 2d aa 3e 00 eb 89 3f 5e c3 2f 3e a2 09 4d bf
       0.33238056 1.0774841 0.1716437 -0.80092824
000120 e8 58 9f 3e ad 5f 39 c0 bb bb b8 3e 63 1c 09 40
       0.31122518 -2.8964646 0.36080727 2.1423576
000130 a4 5c 99 bd 39 03 c6 be 02 42 a8 be 05 b6 a5 bc
       -0.07488373 -0.38674334 -0.3286286 -0.020228395
000140 dd 45 d1 be a2 2f 9d bf 37 dd 8b 3e da 08 07 c0
       -0.40873614 -1.2280161 0.2731721 -2.1099153
000150 45 f9 bc 3f b6 8e ba be bf 26 63 be 2d e7 c1 3e
       1.4763571 -0.36437005 -0.22182749 0.37871686
000160 8e 1d 04 bf 16 af 91 3e 91 34 97 bf 63 16 76 3f
       -0.51607597 0.28453892 -1.1812917 0.9612791
000170 8d a6 35 bf b8 1f 36 bf 7d d6 ef 3f c6 9b e3 bd
       -0.7095726 -0.7114215 1.8737332 -0.11113696
000180 f6 94 6d be 18 d3 83 bf d7 27 96 bf 2f fa ce bf
       -0.23201355 -1.0298796 -1.1730908 -1.61701
000190 de ab b4 3f 8d 57 f2 3e 33 4d 20 3f 1e 00 d6 bf
       1.411495 0.4733242 0.62617797 -1.6718786
0001a0 a8 c1 70 bf 2e f1 00 3f 67 83 8f 3f a4 8f 8e bf
       -0.94045496 0.5036801 1.1211976 -1.1137586
0001b0 63 9a 08 bf c7 a8 eb 3f 09 21 97 3f 98 45 2a 3e
       -0.53360575 1.8410882 1.1806957 0.1662811
0001c0 42 8d ca bf 89 97 9b bf a1 ed 9f 3e 01 97 82 3f
       -1.5824358 -1.215562 0.31235984 1.0202333
0001d0 33 83 a3 be 11 74 db bd 85 dc a6 be 92 fd 34 bf
       -0.31936035 -0.10715497 -0.32590118 -0.7069942
0001e0 ef 1e b9 bf 08 96 5f bf 34 c1 2c be f3 08 ec be
       -1.4462565 -0.87338305 -0.16870576 -0.46100578
0001f0 ff 9a 18 40 32 95 25 3f 72 14 aa 3f 7a 99 e4 be
       2.3844602 0.6468078 1.328749 -0.44648343
000200 0b bc 86 bf 03 b9 92 3f 16 65 e2 be fe 11 62 3f
       -1.0526136 1.1462711 -0.44217747 0.88308704
000210 8b 56 21 3f 2a 6f 29 3f 20 fb 0d 3f 0a f5 5f be
       0.6302268 0.6618525 0.5546131 -0.21870819
000220 5e b3 11 c0 f4 b8 61 bf a5 bb 81 be e0 54 ab bf
       -2.2765727 -0.8817284 -0.25338474 -1.3385277
000230 1a cb 0d c0 9e cc 88 3f 3f f3 3a 3f d8 19 f2 3e
       -2.2155213 1.0687444 0.73027414 0.47285342
000240 e1 0c 63 3f 44 9d 25 3d 62 17 1c 3e 17 a3 c9 bf
       0.88691527 0.040433183 0.15243295 -1.5752896
000250 2a 7d 22 3e 53 d7 09 c0 d8 71 ee be 16 c2 0a 3f
       0.15868059 -2.1537673 -0.4657123 0.542024
000260 6c e7 a3 3f c2 01 dc 3d 1b a0 a7 bf ee 66 1d bf
       1.2804999 0.10742523 -1.3095735 -0.61485183
000270 30 39 99 bf 34 93 9b bf 2d 2f 48 be dd 2d 23 bf
       -1.1970577 -1.2154298 -0.19549246 -0.63741857
000280 6c fb 2d 3e c2 f4 19 3e 1c 6f 3c bf e9 ba 2e 3d
       0.16990441 0.15034774 -0.7360704 0.04265872
000290 13 78 3a bf 58 73 eb 3d bd b5 d7 3d 10 5a ea be
       -0.7283947 0.114966094 0.10532711 -0.45771837
0002a0 48 3a 9d be 4e 0f e9 bc 09 89 db 3f 06 c0 44 3d
       -0.30708528 -0.02844968 1.7151195 0.04803469
0002b0 1d 8e 76 bf 94 9c f8 be bf 03 2f bf 2f 4e a4 be
       -0.963106 -0.4855696 -0.6836509 -0.320909
0002c0 bc b7 11 3f d4 f9 96 be 67 44 70 bf c6 1b 5d bf
       0.5692098 -0.2948748 -0.93854374 -0.86370504
0002d0 95 6d 9f bf 46 3b 8f be 88 a9 70 3e a0 c4 7c 3f
       -1.2455317 -0.2797491 0.23502171 0.98737526
0002e0 97 44 1f be 52 da 19 3f ff 7f cb bf 07 f6 c1 bd
       -0.15553509 0.60098755 -1.5898436 -0.09470754
0002f0 f5 e1 3e bb a4 71 31 bf a5 a9 51 bf f3 69 08 3f
       -0.002912638 -0.69314027 -0.8189948 0.53286666
000300 2e 4c 83 3e b1 62 93 be 04 72 89 3f 0e 37 0c bf
       0.25644058 -0.28786233 1.073792 -0.54771507
000310 3b 97 a3 3f 72 d6 65 bf c8 6e 2f bf 60 47 61 bf
       1.2780527 -0.8978034 -0.68528414 -0.87999535
000320 d2 e3 2f 3f 1c 54 ad bf d2 b1 01 bf c7 3b b0 3e
       0.68707 -1.3541293 -0.5066196 0.34420606
000330 68 53 80 bf 49 09 c4 bf dd c2 15 c0 13 a0 85 3f
       -1.0025454 -1.5315334 -2.3400185 1.0439476
000340 e6 26 2e 3e ac be ac bf 2e a4 78 3c f4 c4 50 bf
       0.17007026 -1.3495688 0.015175862 -0.81550527
000350 9a a0 c6 3e 0a 55 be be 9a a0 94 3e 33 88 b5 bf
       0.38794404 -0.37174255 0.2902878 -1.418219
000360 ea 52 f3 3c 84 1a 3f 3e da c7 59 3f bc fc 12 3f
       0.029702622 0.18662459 0.85070574 0.5741689
000370 4a 39 10 be 2b b2 e5 be 28 15 a0 bf af 56 61 3e
       -0.14084354 -0.44862494 -1.2506456 0.22005723
000380 f7 60 21 bf eb 58 aa be 16 90 9f bf 57 09 97 be
       -0.6303858 -0.33270964 -1.2465847 -0.29499313
000390 dd 2f 8c bf ad 9b e9 3f 7a 4e ff be 52 52 84 bf
       -1.0952107 1.8250633 -0.4986456 -1.0337622
0003a0 9d 3a b3 be b8 12 fb 3e 89 93 74 3f 72 b2 7b bd
       -0.35005656 0.4903772 0.9553762 -0.061449476
0003b0 7a 61 f8 be 66 a5 1c bf 55 a8 9d 3e c2 31 a8 be
       -0.4851187 -0.6118988 0.3079249 -0.32850462
0003c0 9c 31 4e bf a8 48 53 be 8e a6 00 c0 4b 45 89 bf
       -0.8054445 -0.20633185 -2.0101657 -1.0724272
0003d0 51 bb c8 3f 67 5d 35 bf 23 fc 5a bf 77 31 0f 3c
       1.5682164 -0.70845646 -0.8554098 0.008739821
0003e0 1e 7c 06 bf f5 e9 17 bf 41 91 83 3e dd e4 78 bf
       -0.5253314 -0.59341365 0.25696757 -0.9722422
0003f0 be d0 1f 3f c4 08 09 be e7 dc 31 3f b0 b0 d4 bf
       0.6242789 -0.1338225 0.69477695 -1.6616421

transformer_encoder.layers.0.pre_norm_1.weight f4 [128]
000000 2e a4 85 3f 6d cc 83 3f 63 aa 87 3f fe 9d 89 3f
       1.0440729 1.0296761 1.0598873 1.075134
000010 12 2e 84 3f d4 af 85 3f b0 29 86 3f 9d bf 89 3f
       1.032656 1.0444283 1.0481472 1.0761601
000020 9c 85 87 3f 04 6b 85 3f 7a 93 85 3f 4e ce 84 3f
       1.0587649 1.0423284 1.0435631 1.0375459
000030 4c b0 84 3f a9 51 84 3f 45 ad 86 3f fc cb 82 3f
       1.0366302 1.0337421 1.0521628 1.0218501
000040 88 54 85 3f 50 ac 84 3f 3f 1a 84 3f 0d 3c 85 3f
       1.0416422 1.0365086 1.032051 1.0408951
000050 84 73 85 3f 36 86 84 3f 30 28 84 3f 73 d1 87 3f
       1.0425878 1.0353458 1.0324764 1.0610794
000060 e1 0d 85 3f 71 45 84 3f 33 e0 83 3f 26 3a 84 3f
       1.039486 1.0333692 1.0302795 1.0330245
000070 db 4e 86 3f 2c 05 85 3f 4d ee 83 3f e4 91 87 3f
       1.0492815 1.0392203 1.0307099 1.0591397
000080 da 25 87 3f 68 64 84 3f d5 75 84 3f 6e a5 84 3f
       1.0558426 1.0343142 1.034846 1.0362985
000090 19 c7 85 3f 34 cc 87 3f de 39 86 3f e1 11 85 3f
       1.0451385 1.0609193 1.048641 1.0396081
0000a0 89 31 85 3f 83 23 87 3f 89 97 83 3f 4a 6b 87 3f
       1.0405742 1.0557712 1.028062 1.0579617
0000b0 54 1b 84 3f 2d 2e 87 3f 20 2a 85 3f 7e 8b 83 3f
       1.032084 1.0560967 1.040348 1.0276945
0000c0 ba 74 85 3f f6 92 82 3f 5e dc 85 3f 78 40 86 3f
       1.0426247 1.0201099 1.0457876 1.0488424
0000d0 bd 2e 83 3f fc aa 88 3f b1 9d 83 3f 57 f2 87 3f
       1.0248638 1.067718 1.0282499 1.0620831
0000e0 4d cb 83 3f 55 fb 81 3f f5 e4 86 3f c3 43 87 3f
       1.0296417 1.0154825 1.0538622 1.0567554
0000f0 47 c6 84 3f da 31 86 3f db 67 86 3f cc be 84 3f
       1.037301 1.0483963 1.0500444 1.0370727
000100 f5 a4 85 3f c6 f0 83 3f 5b fc 84 3f 08 6d 86 3f
       1.0440966 1.0307853 1.0389513 1.0502024
000110 2f 61 85 3f 3b dd 85 3f cb 9b 88 3f f0 7a 85 3f
       1.0420283 1.0458139 1.0672544 1.0428143
000120 7f 0b 84 3f ac 73 86 3f 38 ce 84 3f 03 11 85 3f
       1.0316008 1.050405 1.0375433 1.0395817
000130 9b 2a 84 3f f3 f0 84 3f d5 a9 87 3f 2f 09 83 3f
       1.0325502 1.0386032 1.0598704 1.0237178
000140 da 45 87 3f 8e fb 84 3f 3a 08 84 3f 99 09 86 3f
       1.0568192 1.0389268 1.031501 1.0471679
000150 b1 0c 86 3f 01 e1 84 3f 6f e5 87 3f 2b 6b 86 3f
       1.0472623 1.0381166 1.0616893 1.0501455
000160 6a 07 87 3f 5c 88 83 3f 1f 2f 86 3f 65 c5 85 3f
       1.0549138 1.0275989 1.048313 1.0450865
000170 c8 f8 85 3f a7 39 85 3f 96 73 83 3f b6 72 87 3f
       1.0466547 1.0408219 1.0269649 1.0581882
000180 86 6b 85 3f ad ab 85 3f 49 6a 85 3f b7 26 87 3f
       1.0423439 1.0443016 1.0423061 1.055869
000190 33 3c 85 3f e7 b1 83 3f f7 f0 87 3f 2b ce 83 3f
       1.0408996 1.0288666 1.0620412 1.0297292
0001a0 27 35 8b 3f 95 89 82 3f 36 53 85 3f 6b aa 84 3f
       1.0875596 1.0198237 1.0416019 1.0364507
0001b0 df 2b 84 3f 32 48 84 3f b5 8c 86 3f 7a 07 84 3f
       1.0325888 1.0334532 1.051169 1.0314782
0001c0 3c 08 85 3f 9a bd 85 3f 93 36 84 3f bc 65 85 3f
       1.0393138 1.0448487 1.0329155 1.0421672
0001d0 a0 cb 84 3f 4c f1 82 3f ce 95 84 3f 43 f1 85 3f
       1.0374641 1.0229888 1.0358217 1.0464252
0001e0 6c 25 85 3f 11 7e 84 3f ee f8 82 3f 6b cf 84 3f
       1.0402045 1.0350972 1.0232217 1.0375799
0001f0 c9 cf 85 3f 45 36 87 3f 55 71 85 3f 32 fb 83 3f
       1.0454036 1.0563437 1.0425211 1.0311034

transformer_encoder.layers.0.pre_norm_1.bias f4 [128]
000000 71 b1 5f bc 07 84 54 3c 72 ec c0 bc 26 0c 02 3d
       -0.013653145 0.012970931 -0.023550246 0.031749867
000010 0f 07 99 bc 8f 47 86 39 97 3d 66 3c 4a a1 13 3c
       -0.018680124 0.00025611787 0.01405277 0.009010622
000020 40 d4 74 bc 4e fe 34 bd ae 2f 11 3c 21 3a 40 3c
       -0.0149431825 -0.044187836 0.008861465 0.011732609
000030 e2 08 97 bc 9a 3a b9 bc d7 0d 9c 3c 07 e3 82 3d
       -0.018436853 -0.022610951 0.019049568 0.06390958
000040 a6 90 a3 bc 80 24 9f bb 6a 0e ff bc e3 f1 cd bc
       -0.019966435 -0.004856646 -0.031134803 -0.025139755
000050 35 0f df bc 95 f8 a5 39 b6 1a e1 3c 5c ec 3d bc
       -0.027228931 0.0003165646 0.027478557 -0.011591997
000060 d3 8b e2 3b e2 fe b5 bc 71 0f e4 3b f2 22 ae 3c
       0.006913641 -0.022216264 0.0069598486 0.021256898
000070 62 03 45 bb 2f b0 aa 3c c3 a4 ad 3b 37 3b 09 3a
       -0.003006183 0.020835964 0.005299182 0.0005234959
000080 b0 00 8b 3c c7 73 be bc 8a 42 ba 3c c8 0d f5 bb
       0.016968101 -0.023248566 0.022736806 -0.0074784495
000090 c6 49 da 3c fb 13 05 bc 32 e2 af bc d8 d5 18 bc
       0.026646506 -0.0081224395 -0.021470163 -0.009328328
0000a0 1e 6b 44 3d 56 36 4e 3c 45 5b df 3b 5b 93 d9 3c
       0.047953717 0.012586197 0.0068163 0.026559522
0000b0 b9 d0 ba 3c 64 e1 46 3d a4 95 21 bc a6 2b 14 bd
       0.022804605 0.048554793 -0.009862337 -0.03617444
0000c0 03 5d b3 bc ef 01 3a 3c 13 f3 ed 3c 9a ba 4f 3c
       -0.021894937 0.011353 0.02904657 0.012678767
0000d0 38 d2 09 bc 9b fa f5 bb 2d 2b 3d 3c 7b fd db 3c
       -0.008411936 -0.007506681 0.011545938 0.026854267
0000e0 1d 0e 7c 39 b3 7a 77 bb c0 7b 79 bc b8 c6 87 ba
       0.0002403785 -0.0037762343 -0.015227258 -0.0010358905
0000f0 89 85 bc bc 97 d8 bd 3c 4e 4a b0 bc 3d cc b8 bb
       -0.023012893 0.023174567 -0.021519806 -0.0056395815
000100 ca 32 3a 3c a1 0d db 3a 33 08 e7 bc c9 7c 25 bc
       0.011364648 0.0016712436 -0.028202152 -0.010100552
000110 f5 dd 16 3d f6 d7 a9 bc 3b cd 3e bc 59 54 ca ba
       0.03683277 -0.020732861 -0.01164561 -0.0015436515
000120 89 bf ee 3c 78 df 04 bd 3e fb af bc b2 ae 85 3c
       0.029144065 -0.03243968 -0.021482106 0.016318653
000130 e4 24 ad 38 0f 13 a8 3c 1e c7 8c 3a 6b 5d f6 bb
       8.256154e-05 0.0205169 0.0010740494 -0.0075184605
000140 fe 08 89 3c e4 e9 ea bc c3 af 2b bd 88 9b 72 bc
       0.01672792 -0.02867598 -0.041915666 -0.014807589
000150 3b 58 5a 3c 61 b6 70 3a 5e eb e8 3c 05 9e ed 3c
       0.0133267 0.000918245 0.028432544 0.029006014
000160 0f fe 22 bb 47 e0 ba 3b 54 5d 3d bc 47 28 97 bc
       -0.002487067 0.0057030055 -0.011557896 -0.018451823
000170 09 92 2c bc 51 88 94 3b 61 6f 4a bd 23 46 1a bb
       -0.010532864 0.0045328517 -0.049422625 -0.002354034
000180 49 23 22 bc 59 bb 61 bc fd 1c f1 bb 81 11 44 bc
       -0.009896108 -0.013777577 -0.007358192 -0.011967064
000190 52 94 32 b9 14 05 83 3b a2 e7 92 39 07 c0 52 3d
       -0.00017030656 0.003998408 0.0002801987 0.051452663
0001a0 f5 fc 15 3d f0 6d b9 ba b7 51 7c 3c bd d8 53 bc
       0.03661819 -0.0014147144 0.015400342 -0.012930092
0001b0 d3 b6 1d 3d d5 83 b6 bb ca 9b bc 3b bf f3 c1 bc
       0.038504433 -0.005569915 0.005755876 -0.023675798
0001c0 01 96 01 3d 4d ab 73 3c 57 9b 0d bc 06 33 d7 bc
       0.031637195 0.014872384 -0.008642993 -0.026269447
0001d0 c4 ba ea 3b 31 5b 0d bc ec 66 03 3b 26 28 9e bc
       0.0071633775 -0.008627699 0.002005036 -0.019306254
0001e0 f7 f8 01 3d fa ad ea bc d4 b2 25 3a 52 a9 d1 3c
       0.031731572 -0.028647412 0.0006320898 0.025593434
0001f0 15 29 d6 bc 52 12 f9 3c f9 9e b5 bb 2b 1d bb 3c
       -0.026142636 0.030404244 -0.0055426327 0.022841057

transformer_encoder.layers.0.pre_norm_2.weight f4 [128]
000000 42 65 80 3f 97 80 80 3f 46 fa 82 3f e5 f0 81 3f
       1.0030901 1.0039243 1.0232627 1.015164
000010 91 0a 84 3f 76 78 81 3f 54 50 80 3f 84 59 83 3f
       1.0315725 1.0114887 1.0024514 1.0261693
000020 59 c1 81 3f c8 34 83 3f 30 1a 7e 3f 06 f2 7f 3f
       1.013713 1.0250483 0.9925871 0.99978673
000030 c7 32 82 3f 89 6a 80 3f d7 c3 80 3f e4 4e 7f 3f
       1.0171746 1.0032512 1.0059766 0.9972975
000040 fa bd 80 3f 10 c7 82 3f 07 22 80 3f 52 29 82 3f
       1.0057976 1.0216999 1.0010384 1.016886
000050 11 3e 80 3f 73 bc 82 3f 93 67 81 3f 9d 58 83 3f
       1.0018941 1.021376 1.0109733 1.0261418
000060 4c 63 80 3f f8 02 86 3f 07 12 81 3f d2 56 81 3f
       1.0030303 1.0469656 1.0083627 1.010462
000070 9c 27 7e 3f 4d b1 81 3f 56 e0 7c 3f 9b 7f 82 3f
       0.9927919 1.0132233 0.9877981 1.0195192
000080 5f 08 82 3f 48 f9 81 3f f9 33 81 3f 15 9e 81 3f
       1.0158805 1.01542 1.0093986 1.0126368
000090 78 0d 81 3f 65 70 80 3f 71 50 82 3f 24 f1 80 3f
       1.0082235 1.00343 1.0180799 1.007359
0000a0 f1 8c 80 3f f6 cc 82 3f 0c e5 7f 3f 6a b0 80 3f
       1.0043012 1.0218799 0.9995887 1.0053837
0000b0 71 34 82 3f 02 78 82 3f 4a 32 82 3f af 3a 80 3f
       1.0172254 1.0192873 1.0171597 1.0017909
0000c0 a7 34 7e 3f 70 c8 80 3f 44 f8 86 3f c9 84 81 3f
       0.9929909 1.0061169 1.0544515 1.0118648
0000d0 40 1f 84 3f 2d cc 85 3f 1e e9 81 3f 76 cf 80 3f
       1.0322037 1.0452935 1.0149267 1.0063312
0000e0 7f 4c 81 3f ca d3 81 3f b5 69 82 3f cd 5c 82 3f
       1.010147 1.0142758 1.0188509 1.018457
0000f0 2d 65 80 3f 69 f3 80 3f d9 a8 7f 3f 78 0e 80 3f
       1.0030876 1.0074283 0.99867016 1.0004416
000100 1a 9b 7f 3f 7f d1 80 3f 3c b8 85 3f ec 17 84 3f
       0.9984604 1.0063933 1.0446849 1.03198
000110 3e 4f 7f 3f 5f 97 81 3f 7a fd 7f 3f 0c da 82 3f
       0.9973029 1.012432 0.9999615 1.0222793
000120 e2 74 81 3f c4 31 83 3f 26 85 7e 3f c8 6a 80 3f
       1.0113795 1.0249562 0.9942192 1.0032587
000130 92 db 82 3f 73 70 81 3f 4e bf 81 3f e2 b0 81 3f
       1.0223258 1.0112442 1.0136507 1.0132105
000140 d6 81 82 3f c8 77 81 3f 07 15 83 3f 47 ff 7e 3f
       1.0195873 1.0114679 1.0240792 0.9960827
000150 10 cc 81 3f 8a a6 7a 3f 6e bf 80 3f 59 db 80 3f
       1.01404 0.9791037 1.005842 1.006694
000160 0e 19 7f 3f 5b ac 81 3f 55 c8 82 3f b7 4b 83 3f
       0.99647605 1.0130724 1.0217386 1.0257481
000170 13 5c 81 3f 49 0e 80 3f 90 12 83 3f 8e 68 80 3f
       1.0106224 1.000436 1.024004 1.0031908
000180 cd c3 79 3f 9f 2c 81 3f 64 9c 80 3f 52 f6 83 3f
       0.97564393 1.0091742 1.0047727 1.0309546
000190 e9 91 82 3f e6 6b 80 3f a4 31 82 3f 5d 52 82 3f
       1.0200778 1.0032928 1.0171399 1.0181385
0001a0 a5 36 81 3f 9b 08 82 3f b9 db 82 3f b2 2e 81 3f
       1.0094801 1.0158876 1.0223304 1.0092375
0001b0 01 f3 82 3f 44 93 82 3f 10 0f 80 3f c0 43 80 3f
       1.0230409 1.0201192 1.0004597 1.0020676
0001c0 ee 06 83 3f fc ee 7e 3f 8f 6b 83 3f e3 60 80 3f
       1.023649 0.9958341 1.0267199 1.0029567
0001d0 52 d9 82 3f 97 94 82 3f 8b 60 82 3f 94 15 81 3f
       1.0222571 1.0201596 1.0185713 1.008471
0001e0 9b 56 7c 3f bb 10 80 3f e2 d2 80 3f 1d 2c 83 3f
       0.9856965 1.0005106 1.0064356 1.0247837
0001f0 6e e4 7f 3f 8a 5b 82 3f c9 a6 81 3f 7c 35 81 3f
       0.9995793 1.0184186 1.0129024 1.0094447

transformer_encoder.layers.0.pre_norm_2.bias f4 [128]
000000 d9 2a 31 3c 9e 0f 6f 3b 2c 00 46 bc 6e 5a 30 bc
       0.010813438 0.0036477814 -0.012085002 -0.010763748
000010 c8 73 22 bc 63 c9 e1 3b 7a 9b fc b9 76 fc cd bb
       -0.0099153 0.0068904622 -0.00048181025 -0.006286199
000020 f6 5c 91 3c 3e 96 c8 bb 37 fd 9c bb 90 f2 a5 3b
       0.017744523 -0.006121426 -0.0047909277 0.005064316
000030 b7 86 db bb 2d 4a d0 bc 0c 56 8b bc 74 1a 40 ba
       -0.006699409 -0.025425995 -0.017008804 -0.00073281606
000040 80 79 cc 3c f6 bf 6e bc c7 53 ef bb 38 e9 b7 39
       0.02496028 -0.014572134 -0.007303688 0.00035078241
000050 b1 0f bd bb 2e f7 c4 bc 9e 85 85 ba 2a 58 29 3b
       -0.005769693 -0.024043646 -0.0010186916 0.0025839903
000060 b8 0a 6b 3a 6b 12 63 3c 25 a0 cf 3a a4 b9 ec bb
       0.0008966136 0.013859372 0.0015840573 -0.0072242785
000070 76 65 97 3c a2 c9 8d 3c 09 2f 67 bc 47 c6 fc bc
       0.018480998 0.01730806 -0.014110335 -0.030856265
000080 fb 54 2d bb 3c f7 a3 3c 6f 58 84 3b 5d 6c f5 b8
       -0.0026448357 0.020015351 0.0040388624 -0.000117026946
000090 d9 e7 ab bb 6b 87 7c bb 0a 4a 16 3d 62 7b d7 3c
       -0.0052461443 -0.0038532864 0.036691703 0.02630395
0000a0 2f 14 bc 3c ac 84 8b 3c 34 3e 18 3c 88 83 2b bc
       0.022958843 0.017031036 0.009292174 -0.010468371
0000b0 cf d2 6e 3c 0d 1c fa bb a4 5e b4 3b a1 4b 93 bb
       0.014576628 -0.0076327384 0.005504446 -0.0044950997
0000c0 a6 15 bb 3b 84 c2 32 bb 2e 11 11 bc b2 44 8f 3b
       0.005709368 -0.0027276585 -0.008854194 0.004372203
0000d0 49 8e 54 bc a8 08 f4 3a 70 6f d8 bc 72 6c b6 3a
       -0.012973377 0.0018618302 -0.026420325 0.0013917817
0000e0 72 e6 15 bd c5 dd 8e 3c f5 fb 83 bc 92 8a 31 bc
       -0.036596723 0.017439732 -0.016111353 -0.01083626
0000f0 f2 d7 8f 3b cf 25 3f bc a9 f6 fe 3c f7 bb 8f 3c
       0.0043897564 -0.011666729 0.031123476 0.017545683
000100 f4 4a 85 bc f5 dc ff bb ee 9d 95 3b 58 b6 d1 3b
       -0.016271092 -0.0078083226 0.004565946 0.006399911
000110 72 1e 5f 3b a5 b0 c3 bb 30 2a 5a bb 20 32 27 3c
       0.0034045246 -0.0059719854 -0.0033289306 0.010204822
000120 36 b8 78 3c 69 f7 f5 ba f0 35 00 3c c3 ea 53 3c
       0.015180638 -0.001876575 0.00782536 0.0129343895
000130 98 d8 d9 39 12 68 e9 3a 88 6e 8c 3c 20 60 b1 bb
       0.0004155084 0.0017807505 0.01714255 -0.0054130703
000140 2e ec ab bb 07 3d 03 3b 56 8a df bb b4 e8 14 3b
       -0.0052466607 0.0020025389 -0.006821911 0.002272171
000150 ed c1 b0 3c 63 8e a1 3c e2 00 01 bc c8 ca 26 bc
       0.021576846 0.019721216 -0.007873746 -0.010180183
000160 3b a3 19 3b b3 c6 37 bc 38 13 6f 3c 83 84 29 bc
       0.002344324 -0.011216807 0.014591984 -0.010346535
000170 20 6b a6 ba 34 f0 a7 3a bd 98 09 3c a2 df cf bc
       -0.0012696721 0.0012812675 0.008398232 -0.025375191
000180 cc 97 3d ba 09 b2 a1 3c 5e 54 86 3c 7f fa ad bc
       -0.00072323973 0.019738214 0.016397651 -0.02123761
000190 03 59 0d bc f5 86 46 3c bb d0 71 3a b2 89 39 bc
       -0.008627179 0.012117137 0.00092245237 -0.011324333
0001a0 a8 4d 00 bc a4 f4 f4 bc ed 40 d9 bb ac db be 3c
       -0.007831015 -0.02990181 -0.006630054 0.023298107
0001b0 bd b9 df 3c 6f 78 31 bc d1 d3 5b 3c ac af 61 3b
       0.027310247 -0.010831936 0.0134172 0.0034436984
0001c0 07 7b 0b 3c 55 15 68 ba 5d 31 43 bc 52 99 d3 bb
       0.008513219 -0.00088532764 -0.011913625 -0.006457486
0001d0 bb 59 18 bc 49 bb 25 3c df 50 26 3c d0 6e 09 bb
       -0.009298737 0.010115453 0.010151117 -0.002097059
0001e0 2d ca c6 ba a4 5f 2b 3c cb ac 55 bc 2d 89 db ba
       -0.0015166454 0.010459814 -0.013041685 -0.0016749256
0001f0 7b a9 79 3b 32 eb 15 3c 83 7a 4c bc 22 52 4f 3c
       0.0038095403 0.009150313 -0.012480381 0.012653859

transformer_encoder.layers.0.self_attn.in_proj_container.query_proj.weight f4 [128, 128]
000000 2d d6 99 3d aa fc 1c bc 24 cf cb 3d 3c e7 2f bd
       0.07511554 -0.009581724 0.09951618 -0.04294513
000010 78 3e a6 bd bf 61 cf bc fb fd dc bc 22 65 6b 3d
       -0.08117384 -0.025315164 -0.026976576 0.057469495
000020 3b 27 8f bd 0a fa a4 3d 39 8b c1 bb 18 25 14 3d
       -0.069899045 0.08055504 -0.005906489 0.036168188
000030 9c 7b 74 bc c4 fe 02 be 9e f0 09 bd 99 b2 ba bd
       -0.014922049 -0.12792498 -0.033676736 -0.09116096
000040 43 2f 53 3d 74 43 2a 3d d7 5c c1 3d be 39 ed bc
       0.051558744 0.041568235 0.09441536 -0.028958198
000050 9a 37 b2 3c 02 ff 6e bd 62 d8 4c bd 4c 0a 6f bc
       0.021755029 -0.058348663 -0.050011046 -0.014589857
000060 d9 dc d3 bc dd e6 ed 3d 05 db 5c 3d 95 0e 5e 3c
       -0.025862144 0.11616299 0.05391981 0.013553281
000070 f4 b9 a9 3c 0e 67 08 bd 72 f8 7f 3b d9 b1 a0 bd
       0.020718552 -0.033301406 0.0039057997 -0.07846422
000080 c9 67 e5 bc 67 72 94 3d c8 fe 1f bb 53 fb 63 bd
       -0.02800359 0.07248383 -0.0024413336 -0.055659603
000090 a4 94 20 3b db 2a 83 bd e4 82 e1 bc 5a 1d 8f bc
       0.002450266 -0.064046584 -0.027528234 -0.01747005
0000a0 ec 51 a7 3c ab 2b 5f bd 68 d2 b3 3c 33 8d ac bb
       0.020424806 -0.054485004 0.021950915 -0.0052658557
0000b0 a0 cb 8b bd b6 0a 80 bc dc 68 55 bd 2d 44 89 3d
       -0.06825948 -0.015630107 -0.052101955 0.067024566
0000c0 e0 4e 83 3d e5 94 40 3d 0c 9e ae 3c b0 cc fe bb
       0.064115286 0.047016997 0.021315597 -0.0077758655
0000d0 b8 83 68 bd f3 ae ee bd 34 84 59 bd ed da b1 bc
       -0.05676624 -0.11654463 -0.053104594 -0.021710837
0000e0 c5 99 7f 3d 18 da d6 3b c9 22 1d bd 25 75 e8 3d
       0.062402505 0.0065567605 -0.03836325 0.113504685
0000f0 80 bf 0e bd 1c b1 95 bd e1 b3 b1 3d d4 2a 2d 3d
       -0.034850597 -0.073091716 0.08676887 0.042277172
000100 26 21 13 bd 0e d4 9e 3d 74 02 b6 3c fb 89 e6 bc
       -0.035920285 0.0775529 0.022217967 -0.028141966
000110 2e 57 b3 3d cc 6c 0f 3d 01 0b b2 bd 44 28 93 bc
       0.087568626 0.035015866 -0.08693505 -0.017963536
000120 de b7 49 3d bf 75 b3 3b 80 bf 97 3d f6 1f 0d bb
       0.049247615 0.005476683 0.074095726 -0.0021533943
000130 29 2e 9e bd c0 b8 17 bd 46 94 e0 bc ee 25 57 bd
       -0.07723648 -0.037041426 -0.027414452 -0.052526407
000140 f7 33 3e 3d fe 6d 59 3d ea 8a 43 bd ab c1 5b bc
       0.046436276 0.053083412 -0.0477399 -0.013412873
000150 bf 27 2f 3c 4e a2 c9 bc da 6e b1 bd fd 76 33 3d
       0.010690629 -0.024613526 -0.086637214 0.043814648
000160 26 88 0a 3d 81 78 8d 3b 51 98 29 bd 38 36 68 3d
       0.033821248 0.0043173437 -0.041405026 0.056692332
000170 23 6d 3c bc 56 c5 4e bd df f8 53 3d d4 b7 1f bd
       -0.01150063 -0.050481163 0.051751014 -0.03899367
000180 ab 03 9b 3c 30 d1 94 3b 45 ea ee 3d eb 25 e6 3d
       0.018922647 0.0045415387 0.11665777 0.11237701
000190 be 36 35 3d c3 cf 93 3d a2 de a1 3d 8d 26 62 3b
       0.04424166 0.07217362 0.07903792 0.0034507841
0001a0 9c c7 8c 3d 2b ed 54 3d 41 8b 9d 3c 0b dc 9b 3d
       0.0687401 0.051983994 0.01923144 0.07610329
0001b0 eb 7f 83 bd 5f 39 6f 3d 80 4c f9 3d 00 62 d8 3d
       -0.06420883 0.058404323 0.12172794 0.10565567
0001c0 93 3c ee 3c 1f b4 ab bd 96 d2 5e 3d db 2b 57 3d
       0.029081618 -0.08383965 0.05440005 0.05253206
0001d0 18 4b 8c bd ad 76 6e 3d d7 da fa 3c 52 4b 73 3c
       -0.068502605 0.058218647 0.03062193 0.014849501
0001e0 fa 46 c8 bd 9c dc 8a bc 47 de 75 3d 78 4f 85 3c
       -0.09779163 -0.016950898 0.060026433 0.016273245
0001f0 a0 a4 45 bd b3 08 1b bd 63 bf 5b bc 4d 2a 03 bd
       -0.0482527 -0.037850093 -0.013412329 -0.032022763
000200 ab ec 32 3d 72 de 97 3d 8d 60 8e 3d da 0f 32 3d
       0.043682735 0.07415475 0.06952009 0.04347215
000210 5c be d6 bb 61 c5 67 3d b7 64 85 3d 92 da d6 3d
       -0.0065534543 0.05658472 0.065133505 0.10490908
000220 e1 b4 84 3d 16 17 ae 3d 3c 62 88 bd f4 d2 8b bd
       0.064798124 0.08500497 -0.06659362 -0.068273455
000230 fc f3 5f bd 2c 67 84 3c df 20 75 bc 4b 81 85 3c
       -0.05467604 0.016162477 -0.01496145 0.016297003
000240 22 ef 8f 3c 66 ef d5 3d b3 e7 65 3d 29 d4 d2 bd
       0.017570082 0.10446052 0.05612917 -0.102943726
000250 ec 6c 60 bc a0 30 4f bd d6 40 68 3d 9f f7 99 3d
       -0.013697844 -0.05058348 0.056702457 0.07517933
000260 bb 38 48 bd c6 8f 8f 3c 0d 46 90 bd d2 91 05 3c
       -0.048882227 0.017524611 -0.07044611 0.008152442
000270 66 f1 c0 bd 34 06 e5 bc 04 85 d2 bd 9a 2c af bd
       -0.09421043 -0.02795706 -0.10279277 -0.08553429
000280 ac a6 9e 3c 2a c6 8d 3d 10 b0 7e 3d 8a 54 b6 3d
       0.019366585 0.069225624 0.062179625 0.08902843
000290 b1 70 c0 bd 61 01 0e bd a1 cd 2e bd 5f 52 c7 3d
       -0.09396494 -0.034669284 -0.04267657 0.09732508
0002a0 1d c6 ba bd 8f 4b 5d b9 5a 33 9a 3d 30 d3 80 bd
       -0.09119818 -0.0002110435 0.07529326 -0.06290281
0002b0 fd 82 bc bc da 69 6d 3d a6 1a bb bb 3f b7 c8 3d
       -0.023011679 0.057962276 -0.005709964 0.098005764
0002c0 b7 89 8a 3c 71 57 51 3b d2 96 1e bc 14 54 6f bc
       0.01691137 0.0031942988 -0.009679513 -0.014607448
0002d0 fe e9 39 3d 84 10 27 bd b2 b6 9b bd 27 b9 55 3d
       0.045389168 -0.040787235 -0.07603206 0.05217853
0002e0 13 4c 56 3d 28 80 57 3d d1 29 8e 3d 81 36 81 bc
       0.052318644 0.052612454 0.069415696 -0.01577306
0002f0 3e 01 1e 3c 8a cb b1 3c 30 a2 d5 3d 28 fc 15 3d
       0.009643851 0.0217035 0.104313254 0.036617428
000300 2e b3 52 bc 3a 5f 2f 3d eb b1 23 bd 42 9b f3 bc
       -0.012860103 0.042815425 -0.039964598 -0.029737119
000310 28 f8 51 bd 06 43 1a bd ba eb 40 bc 1c 4d 90 3d
       -0.05126205 -0.037661575 -0.011774952 0.070459574
000320 57 5f 01 bc 44 0a ce 3d 4c a8 a7 3d 06 26 09 3d
       -0.007896266 0.10060552 0.08186397 0.033483528
000330 21 a5 0e 3d aa 63 5b bd 03 88 bf 3d f0 bd 03 bd
       0.034825448 -0.053561844 0.09352114 -0.03216356
000340 1e f2 80 bc b3 cb c5 3d f8 67 cd 3d 1a 1b f2 3b
       -0.01574045 0.09657993 0.10029596 0.0073884847
000350 b9 71 b1 3d 19 ec 8a bd c9 a2 1a bd 9e dd 1e bd
       0.08664269 -0.06783313 -0.0377529 -0.03878557
000360 7d 4f 03 3a af 61 2a 3d a7 2c 01 bc a6 19 7d bc
       0.0005009098 0.041597065 -0.007884181 -0.01544801
000370 06 f7 41 3d f5 11 d1 3d 9a b1 ca bc 71 f7 4f bd
       0.04735472 0.10208503 -0.02474289 -0.050773088
000380 e7 da 9c 3d 89 e7 c2 3d d5 05 8f 3d c1 69 d8 3d
       0.0765894 0.09516818 0.06983534 0.10567046
000390 43 43 1b bd 64 39 03 3c 51 52 05 be e9 8b 0b 3c
       -0.037905943 0.008009288 -0.13019682 0.008517244
0003a0 cc 47 7d ba f4 60 2a bd 56 d6 24 bd a4 81 a8 bb
       -0.00096618827 -0.041596368 -0.04024347 -0.0051424075
0003b0 c0 15 3d bd ac 5a e5 3d f1 0d 6e bd 27 d9 ad 3d
       -0.04616332 0.11198935 -0.058118764 0.08488684
0003c0 2f 7f cc bc 33 2d d8 bd a2 2c a4 3d 9b a7 cb 3d
       -0.02496299 -0.10555496 0.080163255 0.099440776
0003d0 26 45 2c 3d 79 90 5e 3d 6c de 0c bc 53 4f 63 bd
       0.042058133 0.054337 -0.008597951 -0.05549557
0003e0 49 a4 49 3d a4 1a 53 bc 90 5f 58 3d 0b cc 3f bc
       0.04922894 -0.01288477 0.05282551 -0.0117063625
0003f0 19 5d d7 3c b5 ad f2 3c 28 47 5e 3d a2 4b 90 bd
       0.02628951 0.029623846 0.05426708 -0.07045676

transformer_encoder.layers.0.self_attn.in_proj_container.query_proj.bias f4 [128]
000000 a9 f4 20 bd 10 b1 81 bd 35 8e 8d 3c 02 e3 d6 bd
       -0.039295826 -0.063326 0.017279724 -0.10492517
000010 3b 21 d1 3d f8 68 7a bd d3 85 ed 3c c6 eb cc 3d
       0.10211416 -0.061135262 0.028994476 0.10005908
000020 28 6d cc bd 80 8b d5 3d c5 be 50 bc 7a 0d b8 3c
       -0.099817574 0.10426998 -0.0127407955 0.022467364
000030 55 f7 b7 bc ed 80 a8 3d cd 8b 2a 3d ac 2f f4 3b
       -0.022456804 0.08227716 0.04163723 0.007451972
000040 2a b5 ef ba 0a ba 28 3c 11 e3 a9 bd 98 a6 dc 3d
       -0.0018288244 0.010298261 -0.082952626 0.10773963
000050 fc d2 1f bd 98 32 52 3d 79 4b 2a bc b4 ab 23 bd
       -0.03901957 0.05131778 -0.010393971 -0.03995867
000060 a9 4b cc bd f1 5b c9 3d ba 82 b7 bd 58 90 08 bd
       -0.099753685 0.098319896 -0.08960481 -0.033340782
000070 43 a0 b7 bb 02 a9 09 3d d9 2d ba bc c6 fa 58 3c
       -0.0056038215 0.033608444 -0.02272694 0.013243383
000080 0b 2e 6a bd e0 2b 46 3c 39 d5 bc bd a7 f5 19 3d
       -0.057172816 0.012095422 -0.092203565 0.037587788
000090 c6 d8 81 bc be 26 82 bd de 6d 24 bd 61 35 5e bc
       -0.015850436 -0.06355046 -0.04014384 -0.013562531
0000a0 f6 de 79 bd 71 d1 b0 3d 23 03 34 bd 17 4c f5 3d
       -0.061003648 0.08633698 -0.043948304 0.119774036
0000b0 2b 0c 1d 3c dc 5f 28 3d dc 23 eb 3b 31 e0 78 3d
       0.009585421 0.041107044 0.0071759056 0.06076068
0000c0 1a 99 c6 bb 38 84 5d 3d 47 f2 0a 3d de 36 cd 3d
       -0.0060607316 0.05408117 0.03392246 0.10020231
0000d0 ad 6e 03 bc 26 7a 9b 3d 47 b6 f1 bd a1 f6 37 bd
       -0.008021993 0.07591657 -0.11802345 -0.044912938
0000e0 37 17 88 3d d1 4b 5f bd 43 c9 6d bd a3 74 81 bd
       0.06645053 -0.054515664 -0.058053266 -0.06321075
0000f0 02 d9 3b 3c 05 1c 65 3d 32 f6 08 3d b9 d9 bd 3d
       0.011465313 0.055934925 0.033437915 0.09270043
000100 45 83 b2 b9 5c cc aa bd 55 13 51 bc 51 d0 b5 3d
       -0.0003404861 -0.0833976 -0.012760957 0.08877624
000110 69 3d 77 3c 24 66 2f 3d e0 ed 3e bc 89 30 7c 3d
       0.015090325 0.04282202 -0.0116533935 0.061569724
000120 ea 00 98 bd 13 f5 5d bd 36 37 ee 3d f4 50 89 bd
       -0.07422049 -0.0541888 0.116316244 -0.06704894
000130 23 64 23 bd 42 21 54 bc 54 c5 b7 bd 3e 1d 31 3d
       -0.03989042 -0.012947382 -0.08973184 0.04324078
000140 76 27 ae 3d 73 4d 37 3d f6 93 7c 3d c6 2d b6 bd
       0.0850362 0.044751596 0.061664544 -0.08895449
000150 d7 36 bb 3a f0 8a 6f bd 99 12 7f bc af 2c 26 3d
       0.0014283311 -0.05848211 -0.015568399 0.040569957
000160 59 0b ce 3d 61 97 2d bd 15 e0 4e bd cf 4d 6a 3d
       0.10060758 -0.042380694 -0.05050667 0.05720311
000170 3d 25 b1 bb 77 d2 42 3d cb 06 84 3d 34 4d a0 bd
       -0.0054060505 0.047563996 0.06446608 -0.07827225
000180 0f e8 92 3c 16 a4 1e 3c 4c 2a 47 3d b7 d9 fe bd
       0.01793292 0.009682676 0.04862432 -0.124438696
000190 85 a7 b6 3c 37 9f 37 3d a3 ef 14 3d ce a4 27 3d
       0.022296676 0.044829573 0.036361348 0.040928654
0001a0 e7 d7 17 bd 2d ab d8 bc 81 ac b3 3d 75 d1 c6 bb
       -0.037071135 -0.02644881 0.08773137 -0.0060674497
0001b0 3b 40 b6 bb d0 0f 84 bd 1c 28 d9 3d d7 34 86 3d
       -0.005561856 -0.064483285 0.106033534 0.06553047
0001c0 78 60 c2 bd fa 26 97 bc 1b 6b f7 bb 19 90 a6 3c
       -0.09491056 -0.018451203 -0.0075506098 0.020332383
0001d0 e9 84 2a 3d 12 24 16 3d ea a7 a1 bc 9f 78 29 bd
       0.04163066 0.036655493 -0.019733388 -0.0413748
0001e0 82 48 43 bc 0c 24 02 3d ee b2 5f 3d 89 06 95 3d
       -0.011919143 0.03177266 0.054614 0.07276637
0001f0 66 30 fa 39 f2 f4 8c bb 3c d9 eb 3c 67 01 63 bb
       0.00047719775 -0.0043016607 0.028790109 -0.0034638287

transformer_encoder.layers.0.self_attn.in_proj_container.key_proj.weight f4 [128, 128]
000000 ab 78 e7 3c 73 c0 50 bd 03 97 8a bc 95 31 a9 bd
       0.028255781 -0.050964784 -0.016917711 -0.0826141
000010 31 72 b3 3d d1 33 a0 3c 26 99 76 3d 7c 9b 8f 3b
       0.08762015 0.019555958 0.060204647 0.004382549
000020 ed a9 d4 3d f2 f3 74 bd c9 60 4c bd 02 a1 8e bd
       0.10383973 -0.059802957 -0.04989699 -0.069643036
000030 0f 0f c9 bd 53 bc 63 3d a7 21 f4 3c ff c3 96 3d
       -0.09817325 0.05559952 0.029801203 0.07361602
000040 73 19 45 3d b6 a8 4b 3d 51 73 5d bb 0a 60 83 b9
       0.048119973 0.049721442 -0.0033790658 -0.00025057822
000050 1f ec 83 bd 99 dc 1e bd 74 60 93 3c ff c2 b1 bc
       -0.06441521 -0.038784597 0.017990328 -0.021699427
000060 9a b1 d0 bc 59 75 ac bc 51 1e 46 3d 7e c6 bf 3d
       -0.025475312 -0.02105205 0.048368756 0.09364031
000070 a1 28 d1 3c 69 98 7c bd 1b 2d a5 3d 0f 92 af 3d
       0.025532069 -0.061668787 0.08065244 0.0857278
000080 95 10 de bd 5e 0e 69 3c 2d cf 51 bd c4 b5 06 3c
       -0.108430065 0.014224617 -0.05122297 0.008222047
000090 51 74 36 bc 01 e0 a8 3c 7d f1 9f bc 64 12 a6 3c
       -0.01113613 0.020614626 -0.01952433 0.020272441
0000a0 a9 d1 80 bd ae 64 b3 3d ec 99 0f bb 92 64 a4 3d
       -0.062899895 0.087594375 -0.0021911813 0.08026995
0000b0 5c 65 11 bd 54 3b 67 3d 80 12 0a bd b2 94 a5 bb
       -0.035497054 0.056453064 -0.03370905 -0.0050531263
0000c0 b5 cb 0a bd 8c 28 3b 3d 2a 19 b0 bd c7 61 dc 3c
       -0.033885676 0.045692965 -0.0859855 0.026902093
0000d0 d2 8f 0e 3d 2c 28 68 3d 15 e5 ab bd b4 5a 00 3d
       0.034805126 0.056678936 -0.08393303 0.0313365
0000e0 9b f3 b4 bd 26 24 1f 3d a3 54 5d 3d c0 ee 66 3d
       -0.088355266 0.038852833 0.054035794 0.056380033
0000f0 ab 86 c8 bd e2 81 7d 3d a7 71 98 3c 19 ca f9 3a
       -0.09791311 0.061891444 0.018608881 0.0019057422
000100 52 e0 f4 3c 04 f9 b5 3c 9d ad 94 bd 7e 94 9d bd
       0.02989212 0.022213466 -0.072596766 -0.07694338
000110 e9 d5 7d 3d 26 02 27 bd 9b ac 74 bd 6e c9 a0 bd
       0.06197158 -0.040773533 -0.059734922 -0.0785092
000120 aa 66 36 bc 86 42 a3 3d 6d f1 c0 3d 79 b8 49 bd
       -0.011132875 0.07971673 0.09421048 -0.049248192
000130 90 8e a6 3c a3 00 23 bc ab e4 1c bc 37 48 d3 3c
       0.020331651 -0.009948882 -0.009576003 0.02579127
000140 91 71 56 3d 3b f8 43 bd 8f 5a 6c 3d 14 52 13 3d
       0.0523544 -0.047844153 0.05770355 0.035966948
000150 c8 43 e8 3c 14 e1 43 3d ef ad 83 bd 7d 46 74 bd
       0.028352633 0.047822073 -0.064296596 -0.059637535
000160 4b 6d 78 3d cd 23 23 3c fb d5 bb 3d f8 10 d8 3b
       0.060651105 0.009957266 0.09171673 0.0065938197
000170 90 7f a9 3b 62 ce 5a bd e8 64 c0 3b cd a5 17 3c
       0.0051726773 -0.05341948 0.005871404 0.009255839
000180 12 14 53 bd 62 c6 ff bc ed 8e 8c bb 59 b5 b1 3c
       -0.051532812 -0.031222526 -0.004289499 0.021692919
000190 02 a1 d6 3c a6 22 74 bd bf e6 b2 3d 71 95 b1 3d
       0.026199821 -0.059603356 0.087354176 0.08671082
0001a0 1b 14 b2 3d 68 a1 7e 3b 41 5b be 3c 3e 7a 59 3d
       0.08695241 0.003885353 0.023236873 0.053095095
0001b0 b3 b7 ad 3d 80 a6 c1 bc dd d7 77 bd 23 e6 df bc
       0.084823035 -0.023638964 -0.060508598 -0.027331417
0001c0 47 cd a6 3c e2 8e 92 bd 31 90 a8 bd a4 6a 73 3d
       0.020361556 -0.07156159 -0.08230627 0.059427872
0001d0 f7 a0 29 bb ef f6 7d bb 4d 3d c5 3b 13 52 5e 3d
       -0.0025883296 -0.003875192 0.0060192705 0.05427749
0001e0 d7 25 7f 3d a1 11 9c bd ff 4a a4 bd 04 ee c6 bd
       0.062291946 -0.0762055 -0.08022117 -0.09713367
0001f0 73 67 8a 3d f4 c9 81 bd 59 de 0f 3d d1 55 88 bd
       0.067580126 -0.063373476 0.035124157 -0.06656993
000200 7f 44 8a 3d c7 91 58 3c f5 94 3e bd 28 f9 a5 3d
       0.06751346 0.01321835 -0.046528775 0.081041634
000210 d4 8a cb 3c 9c 29 8b 3c db 1f b0 3c 4f bf 48 bd
       0.024846472 0.016987614 0.021499565 -0.04901057
000220 69 a3 11 bc d0 e9 3a 3c e6 81 50 bd 8a 12 a0 3c
       -0.008889058 0.011408284 -0.05090513 0.01954009
000230 29 c7 54 bd 73 28 11 bd fa c3 32 bd 27 b6 68 3d
       -0.051947746 -0.035438966 -0.04364393 0.05681434
000240 a2 ee 56 3c 81 05 20 bd 53 b0 7b 3d 36 40 0d bd
       0.013118418 -0.03906775 0.061447453 -0.034485064
000250 ec f9 ae bd 79 ca 0c bd 8f 61 c7 3a a9 b1 b0 3d
       -0.085437626 -0.03437278 0.001521157 0.08627636
000260 35 a0 38 bd 5d 64 46 3c 9b 71 7f bd 21 a5 01 3c
       -0.04507466 0.012108889 -0.062364202 0.007912905
000270 c1 21 86 ba 30 3f 2c 3d 7b ad 12 3c f4 55 64 bd
       -0.0010233448 0.042052448 0.008952494 -0.055746034
000280 71 4a bb bd 3b 44 2d bd 60 1d 2b bd 96 24 ab bc
       -0.09145058 -0.042301398 -0.04177606 -0.020891469
000290 0f 8a 25 3d 85 20 38 3d 3d d0 e4 3c 33 2f a1 bd
       0.040414866 0.044952888 0.027931327 -0.07870331
0002a0 fe d1 0f bd bd 7d 3a 3d 77 98 ca 3d 47 71 27 3d
       -0.035112374 0.04553007 0.098923616 0.040879514
0002b0 63 a3 87 bd 1a 7a d3 bb ba 52 00 3d 92 d3 7b 3d
       -0.066229604 -0.0064537646 0.031328894 0.061481066
0002c0 a2 fb 0a 3d ab ed a1 bd e4 56 9b bd 6d 2d 67 bd
       0.033931382 -0.0790666 -0.075849324 -0.056439806
0002d0 9f cd 61 bd 04 a8 a5 3b 74 57 25 bc 06 f9 7b bd
       -0.055127736 0.0050554294 -0.010091651 -0.061516784
0002e0 be d6 23 bd d5 19 d5 bc a3 15 f7 bc 27 a3 04 bd
       -0.039999716 -0.026013294 -0.030161684 -0.032382157
0002f0 cb fe de bc 6f 6e 73 3d e3 b5 c1 3d 76 9b bf 3d
       -0.027221104 0.05943149 0.0945852 0.09355824
000300 ae fd ad 3d 54 93 69 3d bb 56 62 bb 88 1b 35 bd
       0.08495651 0.05702527 -0.0034536559 -0.04421571
000310 95 81 16 3d 29 46 c3 3c 71 df 8a 3d 48 84 a9 bc
       0.036744673 0.023837166 0.06780899 -0.02069296
000320 d5 71 99 bd 28 ab 4c bd ec 87 93 bd 0e 5c 2e 3d
       -0.07492415 -0.049967915 -0.072036594 0.04256826
000330 2a aa bf 3d 8b 5d 98 3d ac 00 a1 3d e8 a0 bc 3c
       0.09358628 0.07439717 0.07861456 0.023025945
000340 c4 62 f7 3c 4e e9 95 3c 28 10 81 3b 56 77 c7 3c
       0.030198462 0.018299725 0.0039386936 0.024348896
000350 55 56 42 bd 5f 29 2d 3b 05 4e c5 3d d9 6f bc bd
       -0.047445614 0.0026422364 0.09634022 -0.09201021
000360 3e 14 73 bd fe 81 50 bc 51 4d 33 3d 4a da 14 bc
       -0.059345476 -0.012726305 0.043774907 -0.009085247
000370 22 a7 40 bd 20 0c 80 bd b0 1e 81 3d cc 08 94 3d
       -0.04703439 -0.06252313 0.06304681 0.0722824
000380 28 83 10 bc 5c 76 66 3d bf 9d 36 3d f3 1f 60 bd
       -0.008820333 0.05626522 0.044584032 -0.05471797
000390 72 92 f3 3c 9a b8 d2 bd 97 2e 86 bd 9b b3 83 bd
       0.029732917 -0.10289116 -0.06551855 -0.064307414
0003a0 9f 81 7d 3c c6 74 84 bd 99 8b 87 bd f9 28 cc 3d
       0.015472799 -0.06467585 -0.06618423 0.099687524
0003b0 3a 2f 41 bd bd 27 b2 3c 56 67 43 bb 0f 53 bc bd
       -0.04716418 0.021747464 -0.0029816232 -0.0919553
0003c0 96 1b 47 3d ce 99 0f ba 92 27 0e 3b 81 f0 be bd
       0.048610292 -0.0005477936 0.0021691066 -0.09323216
0003d0 70 41 76 3d c9 6e e9 bc e6 77 31 bd a8 d5 62 3d
       0.060121 -0.02849521 -0.043327235 0.05537954
0003e0 2d af 97 bd 0f 4f 83 3d 9d e6 42 3d 58 59 41 3c
       -0.07406459 0.064115636 0.04758321 0.011801086
0003f0 df 2b 89 bd 77 0b 41 3d 0e db 87 3d ee a2 4c bd
       -0.06697821 0.047130074 0.06633578 -0.04996007

transformer_encoder.layers.0.self_attn.in_proj_container.key_proj.bias f4 [128]
000000 82 9b 66 3c c3 0e aa 3c 14 e9 90 3d 12 da a9 bd
       0.014075162 0.020758992 0.07075706 -0.08293547
000010 b7 3a 93 bc 8c 99 09 bd a6 de 97 bd 9a 1f 0a bd
       -0.017972333 -0.0335937 -0.07415514 -0.033721544
000020 38 36 b1 bd e9 2a 75 bd 78 43 f9 bc 87 93 4b bd
       -0.086529195 -0.059855375 -0.03042768 -0.04970124
000030 c1 40 32 bd 39 60 db bb c7 8c 85 bd ab 32 58 3d
       -0.043518785 -0.0066948202 -0.06520992 0.052782696
000040 32 ab 49 3c 61 b2 a2 bd 84 81 65 bc fe 78 b7 3d
       0.012308883 -0.07944179 -0.01400793 0.08958624
000050 b2 29 7d 3d aa f7 89 bd ca c0 cb bb eb bd a2 3d
       0.061807342 -0.06736691 -0.0062180506 0.0794638
000060 41 c0 31 3d 9e cf 91 bd cf 1d aa 3d 8b f0 61 bc
       0.04339624 -0.07119678 0.08306467 -0.01379026
000070 af e1 3f bc ca 14 b9 bc 06 45 36 3d 05 06 1b bc
       -0.011711522 -0.02259292 0.04449942 -0.009461884
000080 fe a3 bf 3c f2 31 ba bc af ab f4 bc cf 6a 88 bd
       0.023393627 -0.022728894 -0.029867021 -0.06660997
000090 3f c3 01 bd 4f c9 1c bd e5 31 3b 3c 8f 65 91 bd
       -0.03168034 -0.03827792 0.01142547 -0.07099449
0000a0 a2 bc 66 bb f5 8a 51 bc 0d 19 a1 3d f7 62 19 3d
       -0.0035207649 -0.012789478 0.07866106 0.037447896
0000b0 22 b9 38 3d 4d 7a bc bb ae 4c a2 bd 5c 9f 55 bd
       0.04509843 -0.005751884 -0.07924782 -0.05215393
0000c0 ef 61 8d ba 1d 44 59 bd 64 b7 e6 3c 55 54 4e 3d
       -0.0010786633 -0.053043474 0.02816362 0.050373394
0000d0 09 0c 04 bb c1 f3 67 3d 76 a8 39 3d 7c a8 24 3d
       -0.0020148775 0.056628946 0.045326672 0.04019974
0000e0 99 f5 98 3d c7 a5 f3 3c 10 0f b6 bc 5a 18 3e 3d
       0.07468719 0.029742135 -0.02222398 0.046409942
0000f0 38 55 25 3d 1d ca 2a 3d 9a e7 df bc c7 00 05 bc
       0.040364474 0.041696656 -0.027332116 -0.008117861
000100 b7 bd 38 3d 04 18 8a 3d 44 8b 95 bd f7 4e 02 3c
       0.0451028 0.06742862 -0.073019534 0.007953397
000110 78 8d 11 bc ef a8 1c 3d 6b 41 ae 3d f0 71 ac 3d
       -0.008883826 0.038247045 0.08508571 0.08420169
000120 16 82 e6 ba b2 a8 ab 3d c5 40 ac bd 3c ef 20 bd
       -0.0017586376 0.083817855 -0.08410791 -0.03929065
000130 bb 29 8e bd 39 68 a0 3d e4 bd 19 3d 41 59 6a bd
       -0.06941553 0.07832379 0.03753461 -0.057214025
000140 95 43 94 bd 4b f8 97 3d a5 85 99 bd e6 45 28 3c
       -0.07239453 0.07420405 -0.07496194 0.010270571
000150 0c d1 8c 3d d3 a9 23 3d 0f 13 a0 bd ad 02 15 bc
       0.0687581 0.03995688 -0.07816135 -0.009094876
000160 8d ef 6d 3d 84 f9 25 3c 25 d4 2a bd 33 50 50 3d
       0.05808978 0.01013029 -0.041706223 0.050857734
000170 fe 9b 52 3d 49 4b 36 bd 6c ac 42 bd a9 7f 31 bc
       0.051418297 -0.04450539 -0.047527716 -0.010833659
000180 10 3e 44 3d c6 19 b2 bb d5 92 9b 3d 29 ce bb 3d
       0.04791075 -0.0054352013 0.07596365 0.09170181
000190 25 ff a3 3d 3a 12 70 3d e7 2d 2e 3c d2 2a a4 bd
       0.08007649 0.058611132 0.010631061 -0.0801598
0001a0 b9 00 52 3d c6 db 9b bd 26 38 c3 bc 73 fe ac bd
       0.05127022 -0.07610278 -0.023830485 -0.0844697
0001b0 c2 75 6b 3c 90 eb 82 3d d6 ec 97 bd ca 44 86 3d
       0.014371337 0.06392586 -0.0741822 0.06556089
0001c0 86 39 c8 bc 6d e3 bb 3d 38 8b 84 3c 0f 2f a4 bc
       -0.024441492 0.091742374 0.016179666 -0.02004197
0001d0 f5 10 5c bd 83 68 20 bd fe e6 7c 3c 65 0b fa 3b
       -0.05372711 -0.03916217 0.015435932 0.007630753
0001e0 09 f8 8a bd 7c 60 67 3d bb e2 fb bc 10 68 ff 3a
       -0.0678559 0.0564885 -0.030747762 0.0019485969
0001f0 8b 0a 9c 3d 19 d1 f7 bc 36 d6 80 3d 6d 47 15 3d
       0.076191984 -0.030251073 0.062908575 0.03644507
