data_models/mfeat-factors_128/experiment_1/checkpoints/params.pt (torch, 932966 bytes, 41 tensors)

numerical_encoder.weights f4 [216, 128]
000000 34 31 84 3f 4b 88 4c bd 0b c3 0b 3f 68 35 9d be
       1.0327516 -0.049934667 0.54594487 -0.30704808
000010 75 6f 1c be 41 b9 35 bf 2f a0 c0 be 4f cd b0 bf
       -0.15276892 -0.709858 -0.3762221 -1.3812655
000020 f2 3f 8b 3e 10 95 93 3d 0a 24 ca be ad 08 61 3e
       0.27197224 0.07206166 -0.3948062 0.21975966
000030 ff 28 1b 40 e8 7a c7 be d0 df 63 3f 81 da b3 bf
       2.4243772 -0.38960958 0.89013386 -1.4051057
000040 29 f4 f4 bf d3 bc 3a bf d4 65 59 be 6d 01 55 3f
       -1.9137012 -0.7294437 -0.2123025 0.832053
000050 d5 aa 52 be f3 8c 66 bf 46 c7 2e 3f 49 2d 89 be
       -0.2057298 -0.9005882 0.6827282 -0.26792362
000060 72 f6 63 bf c0 54 1e bf a9 86 85 bf 8f f9 9a 3e
       -0.8904792 -0.6184807 -1.043172 0.30268523
000070 84 2d 1f 3f ee 40 36 bf 89 c1 ee 3e a2 d8 27 3c
       0.62178826 -0.71192825 0.4663203 0.01024452
000080 cb ce 7c 3f 2d 72 c4 3f 80 41 6c bf 18 20 5f 3f
       0.9875304 1.5347344 -0.92287445 0.87158346
000090 c6 93 24 be 58 53 5a 3d a5 d5 ae 3f d7 5c a3 3f
       -0.16071996 0.05330214 1.3658949 1.2762707
0000a0 c2 c0 e1 3c c5 e5 da bf 6c 82 29 3f 9c 74 1d bf
       0.027557734 -1.710137 0.66214633 -0.61506057
0000b0 da 64 45 3f ae 4c d0 bf 17 ac f6 3e 11 13 1a bf
       0.7710701 -1.6273401 0.4817817 -0.60185343
0000c0 67 a2 fa be cc 14 55 3e fc 24 c1 bf a1 20 2f 3d
       -0.48952028 0.20808715 -1.5089412 0.042755727
0000d0 3f 97 fc bf ab d0 b0 bf 46 eb 8d 3f 4c 30 ca be
       -1.9733657 -1.381368 1.1087425 -0.39489973
0000e0 20 62 8b bf 52 83 1c 3f c1 a4 1e 3f 03 ca 8c bf
       -1.088932 0.6113788 0.61970145 -1.0999149
0000f0 9c 78 7f bf 38 4c 15 3f b0 5e 55 3f da 02 d6 be
       -0.9979341 0.58319426 0.83347607 -0.4179905
000100 8e 41 33 3e 9a d0 86 3f 53 e1 b6 bf e0 2d 12 be
       0.17505476 1.053241 -1.4287513 -0.14275312
000110 bb fa 3c bf 2b 60 97 be 03 1a 6d bf a9 5d a1 be
       -0.73820084 -0.29565558 -0.92617816 -0.3151677
000120 f5 61 dd bd 1a 4b 14 3f 55 b5 79 3f ca 41 38 bf
       -0.108096994 0.57927096 0.97542316 -0.71975386
000130 43 1e 5b bc 95 2a 1e be f8 c4 c1 bf f4 5d 48 bf
       -0.013373914 -0.15445931 -1.5138235 -0.7826836
000140 9d 24 18 bc 60 b5 ff be 79 21 ed 3e e3 77 15 40
       -0.009286073 -0.49943066 0.463146 2.3354423
000150 c0 e9 f7 3e f0 02 9f be 7b 96 7c 3e de 5a 59 3f
       0.48420525 -0.3105693 0.24666779 0.8490428
000160 39 2a d2 bf e9 a4 c2 3e 78 19 97 bf 19 f3 d1 bf
       -1.6419135 0.3801644 -1.1804647 -1.6402313
000170 78 40 4d bf d4 2a fe bf 81 35 26 be 72 fc 32 bf
       -0.80176497 -1.985682 -0.16231348 -0.6991645
000180 c6 51 3d be ed 4e 6b bf e6 79 a1 3f 99 ae 27 bf
       -0.18488225 -0.91917306 1.2615325 -0.6550079
000190 f1 97 7b bc c9 20 6d bf 65 52 f6 3d ab d4 d1 bc
       -0.01535605 -0.9262815 0.12027434 -0.025614103
0001a0 1b 14 11 40 b4 11 84 bf 7f 43 a5 bd 65 c0 fd 3f
       2.2668521 -1.0317903 -0.080695145 1.9824339
0001b0 8b 8b 8c 3f 33 6e 75 3f 35 84 b6 bf 35 85 50 3f
       1.0980085 0.95871276 -1.4259096 0.8145326
0001c0 d6 9f 29 bf 62 85 01 bf 4e 52 94 bf 23 c2 35 bf
       -0.66259515 -0.5059415 -1.1587617 -0.70999354
0001d0 d9 52 55 3e 28 c1 04 3f bc 18 0c be f4 29 a1 3c
       0.20832385 0.51857233 -0.1368131 0.019673325
0001e0 3f 2e 43 be fb ff be be 54 ec 0f bf dd e4 a6 3e
       -0.1906061 -0.37304673 -0.56219983 0.32596484
0001f0 fa 60 47 bf d6 3d 15 be f5 f2 dc be 34 14 d6 bd
       -0.7788235 -0.1457437 -0.43154112 -0.10453072
000200 ef d8 40 bf 12 49 38 3e 17 08 bc 3f 6e 3c 0b be
       -0.75331014 0.17996624 1.4689969 -0.13597271
000210 b0 1a 01 3f fd 03 ba 3e f0 83 31 bf 8a 29 d8 3f
       0.50431347 0.36331168 -0.69341946 1.6887677
000220 f7 95 44 3f 8f cb 8a bf bf f0 ea 3e 8b 07 24 3f
       0.7679133 -1.0843371 0.458868 0.6407401
000230 20 68 69 3e 61 f8 59 3f 8c 83 b4 bf 66 de 6e be
       0.22793627 0.8514462 -1.4102645 -0.23327026
000240 56 6c a5 3f 5f 2f 6a 3f 5a 8b c8 3e 35 c7 c5 3f
       1.2923687 0.9147853 0.39168817 1.5451418
000250 54 96 ec 3f 64 84 81 bf ba 03 c5 bf 66 54 e3 bf
       1.8483377 -1.0118527 -1.5391762 -1.7760131
000260 c9 0e e2 3f d6 1c 83 be f1 40 8f be aa 14 e7 3f
       1.7660762 -0.25607938 -0.27979234 1.8053181
000270 33 4a dc bf 63 13 eb 3f e0 7f f4 3e 7b 06 ca 3f
       -1.7210144 1.8365291 0.4775381 1.5783228
000280 8a eb b5 3f 97 42 09 bf e2 8f 02 c0 66 ed 02 3f
       1.4212506 -0.53617233 -2.040032 0.5114349
000290 16 a9 aa bf 5c 65 3d 3f e7 35 30 3f 3f af cf bf
       -1.3332851 0.7398279 0.6883225 -1.6225356
0002a0 51 c0 cf 3f a2 34 87 3f fb 1a 20 bf 40 d6 aa bf
       1.6230565 1.0562937 -0.6254117 -1.3346634
0002b0 c9 6f 14 3f 02 05 89 3f c5 0d bc 3f f5 f8 14 3f
       0.5798307 1.0704653 1.4691702 0.5819238
0002c0 46 bf 63 bf 01 fe 19 bf c9 1a 61 be d2 66 a2 3f
       -0.88963735 -0.60153204 -0.21982874 1.2687628
0002d0 2c 8d 6f bf 15 d3 cd 3f d3 a1 b6 bf 39 7e b7 3e
       -0.93574786 1.6080042 -1.4268135 0.35838488
0002e0 fe d2 4e 3e 82 74 0e be a3 f0 7c 3f 73 5b 7a be
       0.20197675 -0.13911632 0.9880468 -0.24448948
0002f0 f5 db 34 3f 6f 4e c4 be e2 59 82 3f 01 c6 96 bf
       0.7064813 -0.3834109 1.018368 -1.1779176
000300 60 28 d4 3f 4f c5 fc be 0b 09 cd 3f 2d a6 8e bf
       1.6574821 -0.49369285 1.6018385 -1.1144463
000310 15 10 74 bf a7 cf 82 3f 8b eb 2e 40 57 6f 9c bf
       -0.9533704 1.021962 2.7331264 -1.2221478
000320 59 63 82 3e 54 4e 76 3f 01 d4 75 bf 78 5a 13 bf
       0.2546642 0.9621327 -0.9602662 -0.5755992
000330 81 ef 60 3f fc a0 72 bf 20 80 0b bf fc 48 c5 bf
       0.87865454 -0.9477689 -0.5449238 -1.5412898
000340 70 e7 c7 bf 49 b0 1d bf 2a 33 a9 bf 85 17 b4 bf
       -1.5617504 -0.61597115 -1.3218739 -1.4069678
000350 9b 1f e9 3d 96 10 0a 40 b3 4b 37 bf 17 86 2c bf
       0.113829814 2.1572623 -0.7159988 -0.67392105
000360 5c ee 8e bf 14 31 02 bf 6a 3a 91 3f 6c 8f 0d bf
       -1.1166492 -0.5085614 1.1345952 -0.5529697
000370 a6 0f 89 3f 83 6a bf be a0 3e 39 3f 97 b9 0d 3e
       1.07079 -0.3738595 0.72361183 0.13840328
000380 e8 83 73 3f 4d 50 4c 3f 08 6d 93 be 3a bb 0b 3f
       0.9512315 0.7981003 -0.28794122 0.5458256
000390 47 d9 cc be b3 b1 72 3e 44 ea 19 3f 99 46 86 be
       -0.4000952 0.237006 0.60123086 -0.26225737
0003a0 16 24 0f bf 67 dd c4 bf c8 1e 24 bf 20 c8 d5 3e
       -0.5591444 -1.5380067 -0.6410947 0.41754246
0003b0 b3 09 bc bf e6 23 eb 3d fa dc 25 bf f2 57 20 3f
       -1.469046 0.114814565 -0.6479031 0.62634194
0003c0 9c f7 c0 3f 87 e3 64 3f 44 46 35 bf b0 c0 95 3f
       1.5075564 0.8940968 -0.7081034 1.1699429
0003d0 11 93 c3 bd f2 60 4d 3e db 7b 89 3d db 4a b1 be
       -0.09549535 0.20056513 0.06713077 -0.34627423
0003e0 e3 44 70 3e 46 fc 39 3f 8f 01 f6 3e 60 d7 58 3f
       0.23463778 0.72650564 0.48048064 0.84703636
0003f0 78 53 dd bf b8 b9 1d be 01 ac ab bd 78 cc 4d 3f
       -1.7291098 -0.15402877 -0.083824165 0.8039012

numerical_encoder.biases f4 [216, 128]
000000 33 7d d7 3f 85 92 fc 3e f2 3e a5 bf 9e 73 12 c0
       1.6835083 0.49330536 -1.2909834 -2.2883067
000010 dd e1 1a 3f ef 15 09 bf 1a c9 52 bf 93 1b 3b 3c
       0.6050089 -0.53549093 -0.82338107 0.011420148
000020 82 c8 c1 be 91 da af 3e 97 c4 0d 40 0c 34 f9 3d
       -0.37848288 0.3434644 2.215124 0.1216813
000030 b8 05 80 bf d1 aa a8 3f 54 63 fb bf 42 ca 91 bf
       -1.0001745 1.3177129 -1.9639688 -1.1389849
000040 4f 2a fd be 8a 8f 21 3f 62 fa 60 3e 50 08 38 3e
       -0.4944634 0.6310965 0.21970513 0.17971921
000050 21 63 69 bf 61 7b 5c bd 50 8a 36 be 08 88 db bf
       -0.91166884 -0.0538286 -0.178262 -1.7150888
000060 d0 6e 27 3f bd 4a 8a 3a 28 d6 cc 3e ea 80 b4 3e
       0.6540346 0.0010550838 0.40007138 0.35254604
000070 ad 68 8b bf 74 1d 71 3e 56 57 eb be bd f0 a8 3f
       -1.089132 0.23546392 -0.4596507 1.3198467
000080 b1 9a 2b bf b9 aa d8 3f ff 22 36 bf 8d 7d 85 3f
       -0.67032915 1.69271 -0.7114715 1.042894
000090 c0 8e e3 bd 76 d8 62 bf ce d0 f0 3e 4c 36 51 c0
       -0.11111212 -0.88611543 0.47034305 -3.268939
0000a0 51 c6 b0 3f ce bc 98 3e 68 ad 73 bf 4c 66 0c 3f
       1.3810521 0.29831547 -0.9518647 0.5484359
0000b0 01 91 3c bf 0d 82 94 3f d4 63 a9 3f f7 1b a1 3f
       -0.7365876 1.1602188 1.323359 1.2586659
0000c0 cf 5d 65 bd 43 da ce 3f 05 48 e9 bc bf 49 e0 3f
       -0.055997666 1.6160358 -0.028476724 1.7522506
0000d0 c6 78 3a 3f 63 79 b3 3d 24 66 ad 3e 32 42 e2 3e
       0.72840536 0.08763387 0.3386699 0.44191128
0000e0 7a 9b 60 3f 58 fc 82 bf 06 2f 36 3f ae 84 62 3f
       0.8773724 -1.0233259 0.711655 0.88483703
0000f0 78 bc 08 3e a9 4d d9 3f fb 52 89 bf 02 f0 00 bf
       0.13353145 1.6976825 -1.0728449 -0.5036622
000100 96 6a b8 be 5c 7e 57 3f 5b 58 06 bf 97 1b 02 3f
       -0.3601882 0.84177184 -0.5247857 0.5082335
000110 18 e1 d5 be d3 38 fd bf 55 92 a1 3e a1 53 c8 bf
       -0.41773295 -1.9782966 0.31556955 -1.5650522
000120 8a be ba bf a7 96 34 3f 24 66 55 3f 60 9a 07 bf
       -1.4589398 0.7054238 0.8335898 -0.5296993
000130 99 ea c7 3e 0e fa 83 bf 23 fc fb 3a 4e 28 0a 40
       0.3904617 -1.0310686 0.0019224923 2.15871
000140 cd e9 6e 3e 1a e4 d6 3f 1d 50 ef bf ba 15 3f bf
       0.23331375 1.6788361 -1.8696324 -0.7464253
000150 cb 1e 00 bf 56 dc fa 3e d3 d4 f8 bf a9 0f a4 bd
       -0.50046986 0.48996228 -1.9439949 -0.080107994
000160 29 d8 19 3e c8 14 e1 3f 01 c1 89 3f 5c 07 b4 bd
       0.15023865 1.7584467 1.0762025 -0.08790466
000170 c1 d6 ad be d2 03 d2 3f 05 31 b4 be e6 8d d9 3f
       -0.33952907 1.6407416 -0.3519365 1.6996429
000180 e4 a5 63 3e 62 6e c4 bd 49 b9 cd bf ed db 19 bf
       0.22231251 -0.09591366 -1.607217 -0.60101205
000190 ad ce 28 bf d6 15 85 bd 68 82 c0 3e 26 25 57 3f
       -0.6594036 -0.064983055 0.37599492 0.8404106
0001a0 a1 16 4b be 4c e0 b6 3d 8c 2f 4a bf 0c c3 34 40
       -0.19832851 0.089295 -0.789788 2.8244047
0001b0 b5 2e c2 bf 6f 20 f2 bf 4e 89 d0 3f 38 59 ee 3f
       -1.5170504 -1.8916148 1.6291902 1.8620977
0001c0 09 dc 0a bf 9a c9 e5 3e 8d 02 58 bf f7 28 8b be
       -0.54241997 0.44880372 -0.8437889 -0.2717969
0001d0 ac 3f aa be ba fa 74 bf 80 19 d8 bf 5b e1 20 bf
       -0.33251703 -0.9569508 -1.6882782 -0.62843865
0001e0 35 bd 2c 40 39 e3 05 3d cc 11 41 3f 54 18 c9 be
       2.6990483 0.0326874 0.7541778 -0.39276373
0001f0 86 7b 3c bf db f8 06 c0 b7 96 1c c0 66 b7 b7 3f
       -0.7362598 -2.108939 -2.446699 1.4352844
000200 ca d1 6e bf a1 96 08 c0 85 f2 f7 bd da 31 95 3f
       -0.9328886 -2.1341937 -0.12106804 1.1655838
000210 67 80 8a 3f 89 94 c8 3e ab b6 10 be f2 7e d8 bd
       1.0820435 0.39175823 -0.14132182 -0.10571088
000220 80 31 aa 3f fa e7 04 3f e0 c9 c5 3e 6d d4 31 be
       1.3296356 0.5191647 0.3863058 -0.1736619
000230 b1 54 de bf bf 0f ae be 42 0f 52 3f 96 73 80 bf
       -1.7369596 -0.33996388 0.8205453 -1.0035274
000240 01 8f cc bf 96 04 a5 bf 24 02 c1 3f de c9 da be
       -1.5981141 -1.2892025 1.5078778 -0.42732137
000250 1c ba 4a bf 6e 9a 80 3f db 1b 9c 3e c4 1e 57 bf
       -0.7919023 1.0047128 0.30490002 -0.8403132
000260 23 3a bf bf 53 69 db 3d d0 0b bd be 49 7b 22 3e
       -1.4939617 0.107134484 -0.36923075 0.15867342
000270 1a 17 d9 3f 15 f4 43 bf 81 d1 9c 3d b6 d8 e3 3f
       1.6960175 -0.76544315 0.07657147 1.780051
000280 7d 78 d6 3f 02 a3 9c bf 84 d8 af bf 2a 64 1c 3e
       1.675552 -1.2237246 -1.373795 0.15272585
000290 03 f4 4f 3f af 7b 3f be 53 84 09 3f 4e f5 b3 bf
       0.8123171 -0.18699525 0.53717536 -1.4059236
0002a0 4f fd 0e 3f 46 68 b2 3f 34 08 e8 be b3 01 5c bf
       0.5585527 1.3938072 -0.45318758 -0.8594009
0002b0 01 4c cf bf a1 08 cd 3f 81 d9 5b bf 24 23 b7 3d
       -1.619507 1.6018258 -0.8587876 0.089422494
0002c0 1a 94 4e 3e 88 07 f8 be cd 90 b1 bf 76 10 a3 be
       0.20173684 -0.48443246 -1.3872315 -0.31848496
0002d0 5e 44 b0 bf db 07 57 bd 57 ca df be 81 eb 33 bf
       -1.3770864 -0.052497726 -0.4370906 -0.70281225
0002e0 56 57 12 3f 3b 1d ad 3e 5d 11 29 3f 25 49 2c 3f
       0.57164514 0.33811364 0.6604212 0.6729911
0002f0 69 f9 7e 3e df 7c b4 be 1d e4 04 40 44 02 7a be
       0.2489983 -0.3525152 2.076423 -0.24414927
000300 9f 76 2c 3f 8b 54 58 bf f5 60 03 3d 74 50 9c 3f
       0.673685 -0.84504 0.032074887 1.2212052
000310 44 32 8c 3e 94 d3 35 be b8 d3 3f bf 7b 32 ad bf
       0.273821 -0.17756492 -0.7493243 -1.353103
000320 c1 84 4a be 3e c7 e8 bf 8c d3 b5 3e 34 8c 63 3f
       -0.19777204 -1.8185804 0.3551296 0.8888581
000330 0f bb 8c bf 5c 49 cc bf 6e 7d f2 3f 58 b6 e7 3e
       -1.0994586 -1.5959888 1.8944528 0.45256305
000340 be 60 32 3f 2a be 92 3f 31 dd 2e 40 36 17 97 bf
       0.69678867 1.1464283 2.7322505 -1.1803958
000350 c3 1f ad 3d 8c 0d 17 c0 78 76 39 3f ef ca a6 bf
       0.08453324 -2.3602018 0.72446394 -1.303068
000360 39 62 07 c0 44 7a 2a bf 42 23 47 3e 14 7e d8 bf
       -2.11537 -0.6659281 0.19447044 -1.6913476
000370 ba c5 9c 3e 75 bb a9 be 6b 8a 8e 3f 32 83 f3 be
       0.30619603 -0.3315083 1.1135992 -0.47561032
000380 2a ab 39 3c 65 08 b5 3e 16 9e 15 3b 7f 7e 4c bf
       0.011332313 0.35357967 0.0022829822 -0.7988052
000390 96 0e b1 bd de cb ee 3e 4a 31 56 3e d4 46 84 3e
       -0.0864536 0.46639913 0.2091724 0.25835288
0003a0 61 1a 87 3f 26 5c 3c bf 5e d6 d0 be e1 ea a7 be
       1.0554925 -0.7357811 -0.4078855 -0.32796386
0003b0 b6 25 12 bf 03 3b 8c bf a3 b4 4d be 87 1b 15 bf
       -0.5708879 -1.0955509 -0.20088439 -0.5824513
0003c0 bd c4 bc 3e 5c e4 36 bf 7a 85 02 bd a5 67 d3 3e
       0.3686885 -0.714422 -0.031865574 0.41290012
0003d0 db 26 26 be c0 26 bd bd b1 61 60 3f f1 b1 0c c0
       -0.1622576 -0.092359066 0.87649065 -2.1983607
0003e0 ac ed 4a 40 9a 4e a1 bf 4c a5 15 be fb 5f d8 be
       3.1707563 -1.2602112 -0.14613837 -0.42260727
0003f0 72 25 56 bf 7b 88 a7 bf 60 2d 04 bf c5 2d 0e 3f
       -0.83650887 -1.3088526 -0.51631737 0.5553859

transformer_encoder.layers.0.pre_norm_1.weight f4 [128]
000000 e4 e3 7f 3f e9 0d 80 3f 73 0b 80 3f a2 05 80 3f
       0.9995711 1.0004245 1.0003494 1.0001719
000010 99 0c 80 3f f6 0f 80 3f af f7 7f 3f 00 10 80 3f
       1.0003844 1.0004871 0.9998731 1.0004883
000020 1b eb 7f 3f 5f 07 80 3f 3d fb 7f 3f cc 06 80 3f
       0.9996812 1.000225 0.99992734 1.0002074
000030 e4 0c 80 3f ae 0d 80 3f a9 eb 7f 3f 47 f5 7f 3f
       1.0003934 1.0004175 0.99968964 0.9998364
000040 7e 06 80 3f 8d 0b 80 3f 2d 10 80 3f 97 0e 80 3f
       1.0001981 1.0003525 1.0004936 1.0004452
000050 8a 00 80 3f c3 f4 7f 3f 8f ef 7f 3f cd f7 7f 3f
       1.0000165 0.9998285 0.9997491 0.9998749
000060 64 03 80 3f 60 e7 7f 3f 08 0c 80 3f 80 0c 80 3f
       1.0001035 0.99962425 1.0003672 1.0003815
000070 75 00 80 3f 63 ea 7f 3f 82 0f 80 3f 97 0b 80 3f
       1.000014 0.9996702 1.0004733 1.0003537
000080 a8 ef 7f 3f 4e f7 7f 3f 1d 01 80 3f 43 e0 7f 3f
       0.9997506 0.9998673 1.000034 0.9995157
000090 39 fd 7f 3f 5d eb 7f 3f ee ec 7f 3f 18 03 80 3f
       0.9999576 0.9996851 0.999709 1.0000944
0000a0 40 0e 80 3f 25 e1 7f 3f ba 0c 80 3f d2 05 80 3f
       1.0004349 0.9995292 1.0003884 1.0001776
0000b0 a4 df 7f 3f fd e6 7f 3f fc e3 7f 3f c3 ef 7f 3f
       0.99950624 0.99961835 0.9995725 0.9997522
0000c0 42 fe 7f 3f 49 ff 7f 3f c9 05 80 3f a6 0b 80 3f
       0.9999734 0.9999891 1.0001765 1.0003555
0000d0 5b f0 7f 3f ff e7 7f 3f df 0b 80 3f d2 0c 80 3f
       0.9997613 0.9996337 1.0003623 1.0003912
0000e0 2c 09 80 3f 1a e4 7f 3f 05 f9 7f 3f f3 df 7f 3f
       1.0002799 0.9995743 0.9998935 0.99951094
0000f0 a5 f3 7f 3f 64 e6 7f 3f 90 e0 7f 3f 78 0f 80 3f
       0.9998115 0.99960923 0.9995203 1.0004721
000100 b5 0f 80 3f 92 07 80 3f 11 ec 7f 3f 87 e1 7f 3f
       1.0004793 1.000231 0.99969584 0.999535
000110 d3 01 80 3f 62 05 80 3f 6f e5 7f 3f 0e 0e 80 3f
       1.0000557 1.0001643 0.9995946 1.0004289
000120 6b 0e 80 3f 63 0b 80 3f b3 09 80 3f 50 f8 7f 3f
       1.00044 1.0003475 1.000296 0.9998827
000130 66 ed 7f 3f fb e3 7f 3f 48 f8 7f 3f 28 e4 7f 3f
       0.99971616 0.99957246 0.9998822 0.99957514
000140 60 ee 7f 3f 0c eb 7f 3f 5d 04 80 3f 12 10 80 3f
       0.99973106 0.9996803 1.0001332 1.0004904
000150 07 f7 7f 3f 9d ea 7f 3f b5 e4 7f 3f fd ec 7f 3f
       0.9998631 0.99967366 0.99958354 0.9997099
000160 6b e4 7f 3f 3a 0e 80 3f 5c e2 7f 3f 68 f0 7f 3f
       0.99957913 1.0004342 0.9995477 0.99976206
000170 c8 0e 80 3f 99 01 80 3f 78 08 80 3f 11 e1 7f 3f
       1.0004511 1.0000488 1.0002584 0.999528
000180 6b ed 7f 3f b3 ea 7f 3f 26 f5 7f 3f c2 0b 80 3f
       0.99971646 0.999675 0.9998344 1.0003588
000190 5f 00 80 3f e7 0e 80 3f 12 e0 7f 3f bc e0 7f 3f
       1.0000113 1.0004548 0.9995128 0.9995229
0001a0 18 0f 80 3f d7 0d 80 3f 88 06 80 3f 21 e1 7f 3f
       1.0004606 1.0004224 1.0001993 0.99952894
0001b0 d1 04 80 3f 7a 07 80 3f 89 e4 7f 3f e5 ea 7f 3f
       1.000147 1.0002282 0.9995809 0.99967796
0001c0 2b f6 7f 3f 5a e5 7f 3f 3f f3 7f 3f cf 0e 80 3f
       0.99985 0.9995934 0.9998054 1.0004519
0001d0 96 04 80 3f 4f e0 7f 3f 21 10 80 3f 56 eb 7f 3f
       1.00014 0.9995164 1.0004922 0.9996847
0001e0 71 ec 7f 3f 20 e3 7f 3f 98 df 7f 3f 4d 10 80 3f
       0.99970156 0.9995594 0.9995055 1.0004975
0001f0 92 e4 7f 3f 01 0f 80 3f 8b 0e 80 3f aa e1 7f 3f
       0.99958146 1.0004579 1.0004438 0.9995371

transformer_encoder.layers.0.pre_norm_1.bias f4 [128]
000000 e8 08 c8 b9 09 b3 e0 b9 74 80 a5 39 4f d9 c1 39
       -0.00038153608 -0.00042858 0.00031566957 0.00036973736
000010 8f 64 f0 39 47 bd e7 b9 ff 91 7b 38 19 71 fe 39
       0.0004585129 -0.00044200776 5.9979033e-05 0.0004853092
000020 a6 08 c1 b9 a9 43 fe 39 63 c6 e6 38 e4 27 e4 39
       -0.00036818272 0.00048497066 0.00011004207 0.0004351727
000030 4d de 72 39 67 0f c3 39 32 5a f7 39 4d fc 00 3a
       0.00023161732 0.00037204774 0.00047178712 0.0004920408
000040 3d 51 f7 b9 2d d2 fc b9 02 bf ff 39 02 08 01 ba
       -0.00047172038 -0.0004822178 0.00048779702 -0.0004922153
000050 92 e3 e1 39 b9 e4 4c b9 28 0d a4 38 24 fd f8 39
       0.00043084897 -0.00019540162 7.82258e-05 0.0004749085
000060 30 65 de 39 db 4c e0 39 f2 be b8 39 37 73 3d b9
       0.0004241853 0.0004278187 0.0003523748 -0.00018067365
000070 7c 41 e9 39 c9 94 ff 39 3e 43 70 39 c8 ed a6 39
       0.00044490013 0.00048748244 0.00022913233 0.00031839148
000080 be 94 01 ba 77 ae f9 39 06 ea f6 b9 f1 60 ff b9
       -0.0004943124 0.00047622967 -0.00047095137 -0.00048709617
000090 8e 6f 67 b9 26 14 19 b9 ea 60 af 39 42 29 8d b9
       -0.00022071434 -0.00014598723 0.00033450808 -0.00026924355
0000a0 4e 13 cc b9 3f 36 fd 39 a6 2f ff 39 62 de fb b9
       -0.00038924295 0.00048296337 0.0004867289 -0.0004804014
0000b0 0d c1 fe 39 65 73 d5 b9 c9 20 f4 b9 f6 29 e7 b9
       0.0004859049 -0.00040712502 -0.00046563733 -0.00044091017
0000c0 7f f5 a4 39 f1 55 bc 39 c9 16 fa 38 39 d7 c7 39
       0.00031463426 0.00035922186 0.00011925173 0.0003811659
0000d0 e8 9b 8d 39 9a df 44 39 75 07 d0 39 73 1e fd 39
       0.00027009775 0.00018775315 0.00039678407 0.00048278607
0000e0 f6 61 e1 b9 25 2f a9 b8 62 1e 2c 39 d0 57 ce 39
       -0.0004298833 -8.067329e-05 0.00016414517 0.00039356807
0000f0 a9 33 98 b9 d0 71 9e b9 e8 f7 fd 39 7f 91 01 ba
       -0.0002903019 -0.00030220905 0.00048440625 -0.000494264
000100 36 32 f9 b9 98 0e fa b9 63 8f dc 39 35 c8 fe b9
       -0.0004753039 -0.0004769459 0.000420685 -0.0004859582
000110 3c 3d a1 38 2b cb 0b 39 f0 0c cc 39 6b 67 16 b9
       7.688484e-05 0.00013331759 0.0003891955 -0.00014343641
000120 03 75 11 39 0a 12 65 39 9b b1 42 39 2b df 01 ba
       0.00013871868 0.00021845862 0.00018567445 -0.0004954214
000130 d0 35 ff 39 9c 65 de 39 98 2b f1 b9 14 f5 eb 39
       0.00048677484 0.00042418845 -0.00045999582 0.0004500529
000140 23 60 01 ba 49 05 a1 b9 5a a2 53 b9 43 c7 b7 38
       -0.0004935285 -0.0003071225 -0.00020183009 8.7632354e-05
000150 c4 6b 26 39 27 51 ec 39 a1 a1 f1 b9 f1 49 41 39
       0.0001587114 0.0004507389 -0.00046087525 0.0001843346
000160 72 f2 76 39 92 86 33 b9 6a 90 f9 39 fb f0 d0 39
       0.00023550706 -0.00017120902 0.00047600578 0.00039852396
000170 57 29 e6 39 27 a1 7e b8 f2 77 65 b8 cd fe d4 b9
       0.0004389982 -6.0708404e-05 -5.4709562e-05 -0.00040625632
000180 04 a2 b5 b9 7d c6 69 38 d0 cb 73 b9 57 f1 5a 38
       -0.0003464372 5.5736386e-05 -0.00023250212 5.2200015e-05
000190 cc 4f 4f 39 7c 0e 91 b6 59 b9 f7 b9 62 4f cc b9
       0.00019770785 -4.323023e-06 -0.00047249606 -0.00038969057
0001a0 3d 40 d0 39 5d bd 64 b9 fe 80 fc 39 d6 1a ce b9
       0.00039720713 -0.00021814318 0.00048161292 -0.00039311376
0001b0 ac fc b9 b9 fa df 01 b9 da ab f8 b9 6d 0d a2 b9
       -0.00035474205 -0.00012385836 -0.00047430285 -0.0003090905
0001c0 02 43 67 37 d7 b1 c6 b9 13 71 bf 39 92 54 ef 39
       1.3784274e-05 -0.00037898004 0.00036514606 0.00045648642
0001d0 a0 77 14 b9 fc a3 ff b9 1a 9b fe 39 44 53 d6 b9
       -0.00014158944 -0.00048759568 0.00048562215 -0.00040879298
0001e0 d6 7f ca b8 cf 82 1c 39 5c 3c 00 ba fe f8 f9 39
       -9.655922e-05 0.0001492605 -0.0004891807 0.00047678495
0001f0 57 05 c9 39 51 98 ee b9 96 8d ea b9 c4 a3 00 ba
       0.00038341686 -0.00045508382 -0.00044737448 -0.00049072155

transformer_encoder.layers.0.pre_norm_2.weight f4 [128]
000000 36 f9 7f 3f 37 09 80 3f 37 e7 7f 3f 64 0f 80 3f
       0.9998964 1.0002812 0.9996218 1.0004697
000010 74 ec 7f 3f c8 e2 7f 3f 3e 0b 80 3f 54 0f 80 3f
       0.99970174 0.99955416 1.0003431 1.0004678
000020 8e 06 80 3f 27 e9 7f 3f 6a 0f 80 3f c0 e8 7f 3f
       1.0002 0.9996514 1.0004704 0.99964523
000030 80 0f 80 3f b0 e1 7f 3f 25 e3 7f 3f 07 e2 7f 3f
       1.000473 0.99953747 0.9995597 0.99954265
000040 c8 e0 7f 3f b2 e2 7f 3f b8 0f 80 3f 46 e1 7f 3f
       0.99952364 0.99955285 1.0004797 0.99953115
000050 a6 e1 7f 3f e4 0c 80 3f 5b 06 80 3f 3e 0f 80 3f
       0.9995369 1.0003934 1.000194 1.0004652
000060 25 f8 7f 3f 23 07 80 3f b8 0e 80 3f 31 10 80 3f
       0.99988014 1.0002178 1.0004492 1.0004941
000070 81 05 80 3f 09 ee 7f 3f d3 0a 80 3f 51 0c 80 3f
       1.000168 0.9997259 1.0003303 1.0003759
000080 03 10 80 3f 62 e3 7f 3f b8 05 80 3f 12 0f 80 3f
       1.0004886 0.99956334 1.0001745 1.0004599
000090 53 e2 7f 3f e6 e0 7f 3f 4d e1 7f 3f ab 0f 80 3f
       0.9995472 0.9995254 0.99953157 1.0004781
0000a0 fd 0e 80 3f 59 0f 80 3f 90 0f 80 3f c7 0e 80 3f
       1.0004574 1.0004684 1.0004749 1.000451
0000b0 00 fe 7f 3f e6 0f 80 3f 12 00 80 3f 86 0e 80 3f
       0.9999695 1.0004852 1.0000021 1.0004432
0000c0 fb 0e 80 3f 4d e1 7f 3f 7c 0e 80 3f f4 04 80 3f
       1.0004572 0.99953157 1.000442 1.0001512
0000d0 4e 10 80 3f 4c 08 80 3f 68 f1 7f 3f 9b 0a 80 3f
       1.0004976 1.0002532 0.9997773 1.0003237
0000e0 97 f6 7f 3f 06 05 80 3f 75 e5 7f 3f 50 df 7f 3f
       0.9998564 1.0001533 0.999595 0.9995012
0000f0 29 0f 80 3f fa 0f 80 3f af e5 7f 3f d6 01 80 3f
       1.0004627 1.0004876 0.99959844 1.000056
000100 8f e2 7f 3f 13 10 80 3f d1 f5 7f 3f 7f e1 7f 3f
       0.99955076 1.0004905 0.9998446 0.99953455
000110 bc 0d 80 3f cb fb 7f 3f 30 f7 7f 3f 0f 05 80 3f
       1.0004191 0.9999358 0.99986553 1.0001544
000120 30 df 7f 3f 75 e4 7f 3f 5d fb 7f 3f ae e9 7f 3f
       0.9994993 0.9995797 0.99992925 0.9996594
000130 8e ec 7f 3f 9e 0c 80 3f f9 e3 7f 3f 53 06 80 3f
       0.9997033 1.000385 0.99957234 1.000193
000140 02 e6 7f 3f 04 e1 7f 3f a0 df 7f 3f d3 0e 80 3f
       0.9996034 0.9995272 0.999506 1.0004524
000150 6f 08 80 3f a4 e4 7f 3f 0f 0f 80 3f 5e 07 80 3f
       1.0002574 0.9995825 1.0004596 1.0002248
000160 47 e9 7f 3f 6f 0e 80 3f 19 f0 7f 3f 8c 0f 80 3f
       0.9996533 1.0004405 0.99975735 1.0004745
000170 32 10 80 3f 61 06 80 3f b7 0e 80 3f fa df 7f 3f
       1.0004942 1.0001947 1.0004491 0.99951136
000180 36 e8 7f 3f 16 02 80 3f 02 e6 7f 3f 3d e1 7f 3f
       0.999637 1.0000637 0.9996034 0.9995306
000190 ed e5 7f 3f aa e3 7f 3f e7 e1 7f 3f ba e4 7f 3f
       0.99960214 0.9995676 0.99954075 0.99958384
0001a0 ce e0 7f 3f ea f5 7f 3f 8f 0f 80 3f 2d 0b 80 3f
       0.999524 0.9998461 1.0004748 1.000341
0001b0 34 0d 80 3f 19 10 80 3f 79 e7 7f 3f 9c 0f 80 3f
       1.0004029 1.0004913 0.99962574 1.0004764
0001c0 1b 09 80 3f 9c df 7f 3f 45 0d 80 3f ff e2 7f 3f
       1.0002779 0.99950576 1.000405 0.99955744
0001d0 29 01 80 3f 8d 03 80 3f 37 07 80 3f c9 f2 7f 3f
       1.0000354 1.0001084 1.0002202 0.99979836
0001e0 4e e0 7f 3f d8 f2 7f 3f 62 e2 7f 3f fb e4 7f 3f
       0.99951637 0.99979925 0.9995481 0.9995877
0001f0 e6 e7 7f 3f 1f e5 7f 3f fe f1 7f 3f b1 e9 7f 3f
       0.99963224 0.99958986 0.99978626 0.9996596

transformer_encoder.layers.0.pre_norm_2.bias f4 [128]
000000 cb 8f e3 b8 1b 09 80 b9 62 18 c5 39 f6 7a f6 39
       -0.00010850987 -0.00024420847 0.00037592935 0.0004701239
000010 6d 8a 9c b9 58 0d eb 39 0f fb be b9 0f 38 f6 39
       -0.00029857774 0.00044832635 -0.00036426677 0.00046962543
000020 54 2d 54 39 4c fc b7 39 36 6a f6 b9 1c 0e b9 39
       0.00020234782 0.00035092456 -0.0004699991 0.00035296462
000030 94 83 fe b9 49 ad f3 39 02 75 e7 39 8f 39 f0 b9
       -0.0004854469 0.0004647768 0.0004414693 -0.00045819252
000040 ae 5d f9 b9 3f 99 ea b9 a7 4d fc b9 18 8a f6 b9
       -0.00047562778 -0.00044746135 -0.0004812304 -0.00047023664
000050 97 47 f2 b9 3a 9c ce 39 59 75 4e b9 2a f8 f0 b9
       -0.00046211176 0.0003940778 -0.00019689406 -0.00045961264
000060 b1 fc 20 39 8b 30 68 39 86 a2 ea b9 42 50 01 ba
       0.00015352924 0.00022143328 -0.00044753047 -0.0004932919
000070 50 43 cc b9 70 42 9a b9 d0 27 b1 39 a9 36 bc b9
       -0.00038960064 -0.0002942267 0.00033789733 -0.0003589888
000080 8b 09 00 ba 2f 08 e4 39 09 e9 4d b9 92 de f2 b9
       -0.00048842345 0.00043493646 -0.00019637136 -0.00046323665
000090 12 a6 f0 b9 f3 7d f8 39 ef 4c f5 39 ec eb fa 39
       -0.000459001 0.00047396086 0.00046787361 0.0004785949
0000a0 00 17 f0 b9 7d 25 f0 39 a2 cb f8 39 7a f2 ea b9
       -0.00045793504 0.00045804298 0.00047453964 -0.00044812617
0000b0 48 0e 0a b5 bb 83 fe 39 76 35 ed 36 0c af e6 39
       -5.142979e-07 0.00048544802 7.069374e-06 0.0004399944
0000c0 f0 28 f1 b9 77 b1 f5 b9 19 ea fb b9 a3 e7 1f 39
       -0.00045997603 -0.00046862263 -0.00048048867 0.00015249713
0000d0 9c 6e 02 ba b3 4c 87 b9 03 42 6c 39 7d 80 ab 39
       -0.00049755885 -0.00025806352 0.00022531305 0.00032711393
0000e0 84 f1 14 39 ec 42 13 39 c6 e9 d1 b9 29 e1 02 3a
       0.00014204351 0.00014043943 -0.0004003776 0.0004992658
0000f0 79 da f2 39 6b 61 00 ba c5 b2 d1 39 fd 62 87 38
       0.00046320612 -0.0004897329 0.0003999678 6.45574e-05
000100 d8 73 ec 39 cb c5 00 ba e1 99 21 39 fc d4 f3 b9
       0.00045099738 -0.0004912286 0.00015411481 -0.00046507258
000110 ae db e8 39 1e 47 a0 38 00 d2 05 b9 d3 57 21 39
       0.00044414162 7.642641e-05 -0.000127621 0.00015386874
000120 96 5c 03 3a c3 53 da 39 bc 28 9d b8 0a a5 b1 39
       0.000501105 0.00041642608 -7.493931e-05 0.00033883034
000130 da be 9a 39 1f 32 c2 b9 64 0c e1 b9 ff 77 24 39
       0.00029515364 -0.00037039907 -0.00042924576 0.00015684961
000140 e2 07 d0 39 80 61 f8 39 55 8a 01 3a e1 4a ed 39
       0.00039678725 0.0004737489 0.00049415726 0.00045259952
000150 62 61 82 39 56 3c db 39 52 e5 f0 39 82 f3 6e 39
       0.00024868088 0.0004181589 0.00045947224 0.00022788162
000160 34 f7 b4 39 c6 c7 e7 b9 54 ad 7d 39 cc 74 f9 39
       0.00034516456 -0.00044208596 0.0002419253 0.0004758
000170 3a 8d 01 3a ad 66 4d 39 2d 4e e9 b9 31 1c 00 3a
       0.0004942004 0.00019588573 -0.0004449947 0.00048870133
000180 db 04 be b9 20 23 8f b8 51 ba db b9 51 62 f6 b9
       -0.00036243242 -6.825314e-05 -0.00041909752 -0.00046994028
000190 ab 01 d1 39 e3 83 e2 39 a5 95 ef b9 5c e4 da 39
       0.0003986483 0.00043204342 -0.00045697126 0.0004175034
0001a0 3d 48 f9 b9 a5 78 33 39 83 60 f9 39 32 61 b3 b9
       -0.00047546803 0.00017115714 0.00047564888 -0.00034213957
0001b0 95 e3 d3 b9 44 b1 00 3a c9 75 c5 b9 d5 df f9 39
       -0.00040414618 0.0004909227 -0.00037662525 0.0004765975
0001c0 b3 37 c8 39 42 93 01 3a c8 e3 c1 39 b6 8f e3 39
       0.00038188472 0.00049429026 0.0003698154 0.00043403887
0001d0 e3 46 50 38 54 fe ee b8 d8 c8 6e 39 5b 44 58 b9
       4.9657083e-05 -0.00011396097 0.00022772269 -0.0002062483
0001e0 a6 b7 fd 39 cb ae 4e b9 60 6f ec 39 8f 42 d8 b9
       0.0004839275 -0.00019710806 0.0004509641 -0.0004124832
0001f0 31 36 c2 b9 99 3d ec 39 fb c6 61 39 55 b1 b1 b9
       -0.0003704294 0.00045059322 0.00021531798 -0.00033892193

transformer_encoder.layers.0.self_attn.in_proj_container.query_proj.weight f4 [128, 128]
000000 b1 fc 50 3d 3e 0f 59 3d ca 7c c7 3c 06 cb 82 3d
       0.051022235 0.05299305 0.024351496 0.0638638
000010 73 95 1e 3d e8 9c 9e bc e7 ff 04 b9 64 73 03 3d
       0.038716745 -0.019361928 -0.00012683832 0.032092467
000020 9b 81 46 bd a7 b0 bd 3c 90 83 9e 3d ea 7e 7f 3c
       -0.048463445 0.023155523 0.07739937 0.0155942235
000030 62 a2 52 3d 05 bd 95 3d 52 0e c8 3c f0 4e af 3d
       0.05142439 0.07311443 0.024420891 0.08559978
000040 a3 e7 48 3d 8f f0 74 bd 3a f1 79 bd dd 6f a3 bc
       0.04904903 -0.059799727 -0.061021067 -0.019950802
000050 40 52 44 bd b1 07 b1 3d 9a 47 0e bc c8 bc a4 3d
       -0.047930002 0.08644045 -0.008684063 0.0804382
000060 84 cf c5 3c 89 ef 9f 3d 15 f1 9a bd 08 51 7c 3d
       0.024146803 0.078093596 -0.07565514 0.061600715
000070 32 97 8b bd c9 9a 9d bc 2d 3b dc 3a e8 ae 01 3d
       -0.068159476 -0.019238846 0.0016802304 0.031660944
000080 ed 86 f5 3b f2 b5 13 3d 5f 34 fa 3b aa 6c 88 3d
       0.007492891 0.03606219 0.0076356377 0.06661351
000090 1c b3 87 bd ce 30 1b 3c 82 9c f3 3c 73 04 7c bd
       -0.06625959 0.009472085 0.029737715 -0.06152768
0000a0 2e 26 a5 bd e7 02 02 3d 39 f1 a6 bd 2b b8 8e 3d
       -0.08063923 0.03174105 -0.08151478 0.06968721
0000b0 cc f2 80 3a f5 1c e0 b8 77 8c 55 3b d2 c3 99 3d
       0.0009837984 -0.00010686546 0.0032584944 0.07508053
0000c0 6a ed 7b 3c a6 a2 74 bd 6f 24 b2 bd 1b 37 a3 3d
       0.015376428 -0.059725426 -0.086983554 0.07969495
0000d0 91 ca 8c 3c ff ca 48 bc 5a 8b c1 3b 67 48 80 3d
       0.017186435 -0.012255429 0.0059065046 0.0626381
0000e0 45 74 28 bd b5 1b 0d 3d e1 f0 9e bd d4 3a 19 3d
       -0.04112651 0.03445025 -0.07760788 0.03740962
0000f0 a8 9e 68 bd f3 9a ca bc da f7 b6 3c d0 fd 8c bd
       -0.05679193 -0.024732089 0.022334982 -0.068843484
000100 a1 22 92 bc 65 59 27 bc d3 09 4b 3d 3b 8d 9e bd
       -0.017838778 -0.010214184 0.049569916 -0.07741781
000110 18 54 4f bc ed b9 84 3b 42 f6 81 3d 19 b7 64 bd
       -0.012654327 0.0040504844 0.06345798 -0.055838678
000120 a5 b1 2b 3d bb f3 ab 3d 20 ec a9 3c fa 2d 96 bd
       0.041917462 0.08396097 0.020742476 -0.07332988
000130 0a 8b 8d bd 6d 3b 1d 3c 13 32 6f 3d e3 ed 72 bd
       -0.06911285 0.009596688 0.058397364 -0.059308898
000140 f0 c1 84 3d 24 3c b2 39 40 8d b4 bd 5b f0 56 bd
       0.06482303 0.00033995614 -0.08816004 -0.052475315
000150 a0 3d 79 bd 95 b4 85 3d 22 8d 66 bd b3 67 98 3d
       -0.060849786 0.06528584 -0.05628694 0.07441654
000160 6c 7a 96 bc a8 a9 a1 3d 38 13 4d bd f1 4b f7 3c
       -0.018368922 0.078936875 -0.050067157 0.030187579
000170 b3 fe 1d bd 27 17 00 bd 7b 6e a6 bd c3 7c cc bc
       -0.03857298 -0.03127208 -0.08126541 -0.024961835
000180 51 de ec bc e2 b0 5a bd c9 f7 a6 3d 46 93 42 3d
       -0.028914602 -0.053391345 0.0815273 0.047503732
000190 52 15 b1 bd d6 1e bf 3c 28 09 e4 3c 50 ef 65 3d
       -0.08646645 0.023330133 0.027836397 0.05613643
0001a0 c9 64 9c 3d 41 b3 41 bd 56 85 54 3d 30 d3 00 bd
       0.07636411 -0.04729009 0.05188497 -0.031451404
0001b0 8d 25 81 bd 9e 24 9f bc 2f 2b 80 3d 44 e4 01 bd
       -0.0630599 -0.01942664 0.062582366 -0.03171183
0001c0 99 ad 6d 3d ee 7d 31 3d 26 8c 35 bd d8 5e 78 bd
       0.058026884 0.043332987 -0.04432311 -0.060637325
0001d0 53 55 78 3b 90 19 7c bd da 22 a7 3b c7 b7 b0 3d
       0.0037892654 -0.061547816 0.00510059 0.08628803
0001e0 59 41 19 bd 75 bb 93 bd 1f 3b 3a 3d ce 8f 90 bd
       -0.037415836 -0.07213489 0.04546654 -0.070586786
0001f0 d4 ff f8 3b 85 91 9b 3d b1 71 ce 3b 13 5e bf bc
       0.0075988565 0.07596115 0.006300174 -0.023360288
000200 35 56 b6 3b 36 ca 9d 3d eb a4 1e bd 87 29 09 3d
       0.005564476 0.07704584 -0.038731497 0.03348687
000210 23 05 58 bd 12 dd 27 3d dc d7 3d bd ae a2 8a 3d
       -0.052739274 0.040982313 -0.046348438 0.0676931
000220 a1 0e b3 3d 57 72 9e bc 3c e9 ce 3c 20 a0 0c 3d
       0.087430246 -0.01934163 0.0252577 0.034332395
000230 01 bc fa 3c f6 62 84 bd 50 62 b1 bd c4 ae 58 bc
       0.030607225 -0.06464188 -0.0866133 -0.013225261
000240 ca 6f ad bc ac d2 9e 3d 7d 6d 8e 3d 79 9d 89 bd
       -0.02117147 0.07755026 0.06954477 -0.06719489
000250 3e 06 e0 3c 60 90 b4 bc 4f ef 71 bd 25 ea 97 3d
       0.027346727 -0.0220415 -0.059066113 0.074177064
000260 d8 99 94 3c 21 3c 5a 3d 39 a0 97 bb d8 a1 68 bd
       0.018139765 0.05328 -0.0046272543 -0.05679497
000270 47 a9 67 bd 30 0e 8e 3d f3 ad 23 bd a5 d2 4e bd
       -0.05655792 0.069363 -0.039960813 -0.050493855
000280 a2 ad 95 3d 9f 86 b4 bd ff dc 69 bd ee bf 0d bd
       0.073085085 -0.088147394 -0.057095524 -0.034606867
000290 57 dd d7 bc 38 54 32 3d 87 79 0f bd d6 31 84 bd
       -0.02635066 0.04353735 -0.035028007 -0.06454818
0002a0 db 69 8b 3d 10 f1 d2 bc f8 2b 9c 3d a6 1e 63 bd
       0.068073 -0.025749713 0.07625574 -0.05544915
0002b0 f9 4b 42 bc d2 74 93 bd 04 86 b2 3d 35 26 5f 3d
       -0.011858934 -0.07200016 0.08716968 0.054479796
0002c0 6d c7 3f 3d c1 7f 58 bc cb d6 82 bd 64 2e 54 bd
       0.046821047 -0.013214053 -0.06388625 -0.051802054
0002d0 68 1a 52 3d c2 0f b0 3d b9 a4 8d bd 12 a9 ab 3d
       0.051294714 0.085967556 -0.06916184 0.08381857
0002e0 01 b4 7b bd fa 9a 12 bd 2b 35 9b ba 87 f5 33 3d
       -0.061450962 -0.03579233 -0.0011841407 0.043935325
0002f0 97 d4 eb 3b 29 cf 95 3d 62 0d 7c bd af de 81 3a
       0.0071969735 0.07314903 -0.0615362 0.0009908284
000300 71 dd 89 3d cb e7 fe 3c ad b8 b2 3d d5 8b b0 bd
       0.0673169 0.031116387 0.0872663 -0.08620421
000310 53 dd 99 bd 8f c5 1b 3d 9b 20 47 bd 1e 12 7c 3c
       -0.07512917 0.038030203 -0.04861508 0.015385179
000320 a4 ad 4e bb 5e c8 71 3d 8e 50 95 3d f1 08 af 3c
       -0.0031536603 0.059028976 0.07290755 0.021366568
000330 88 e1 43 3d b6 2a b1 3d 57 d8 2b 3c 95 40 ee bc
       0.047822505 0.086507246 0.010488591 -0.02908353
000340 4e 17 2a 3c 6f 6c 37 ba 95 46 b0 bc 45 e2 8a 3d
       0.010381533 -0.0006997054 -0.021518031 0.06781439
000350 a5 ec b4 3d 75 9d 9b bb de a2 63 3d d9 aa a5 3d
       0.08834199 -0.004748995 0.055575244 0.08089227
000360 95 8b b0 3c af 8f 4b bd 57 17 22 3d 6b 95 eb 3b
       0.021550933 -0.049697574 0.03957304 0.007189443
000370 6f 57 85 bd cb 24 b4 3d f1 5d 31 bd 83 2e 39 bd
       -0.06510817 0.0879608 -0.04330248 -0.045210373
000380 71 14 76 bd dd a9 28 bb 3f 12 81 3d ba cd ae bd
       -0.06007809 -0.0025736012 0.06302308 -0.08535333
000390 d5 0f f5 bb d3 b0 22 3d a8 da a3 3d 2a 22 b5 bd
       -0.007478694 0.039719414 0.0800069 -0.08844407
0003a0 16 37 03 3c ec 62 0d 3d 93 e9 1f bd fa f8 3d ba
       0.008008739 0.034518167 -0.039041113 -0.0007246878
0003b0 66 c4 04 bd e2 e0 9d 3d fa c2 1d 3d 8f f3 46 3d
       -0.032413863 0.077089086 0.038516022 0.04857212
0003c0 88 a7 8a bd a3 bd 89 3d 68 fa 12 bd 4c 37 6d bd
       -0.06770235 0.067256235 -0.035883337 -0.057914063
0003d0 a7 50 63 bd 6c 8d df bb ff e7 a7 bd cc b1 49 bd
       -0.055496838 -0.0068222787 -0.081985466 -0.049241826
0003e0 39 e9 81 bc fb a3 a1 bd 8c 78 8e 3d 94 df 75 3d
       -0.01585828 -0.07892605 0.06956586 0.060027674
0003f0 8b b4 7f 3d 71 1c 23 bd 9b 9e a5 3d 99 bc de bc
       0.06242804 -0.039822046 0.08086892 -0.02718954

transformer_encoder.layers.0.self_attn.in_proj_container.query_proj.bias f4 [128]
000000 e3 e3 7f 3d 1e 6b 4b 3d 6c f6 54 bd e2 c6 93 bd
       0.06247319 0.0496627 -0.05199282 -0.07215668
000010 a8 a2 57 bd 37 35 92 bc eb 85 6f bd bd 50 11 bd
       -0.052645355 -0.01784764 -0.058477324 -0.03547739
000020 77 fb 99 bd 1b f9 3c bd 88 b4 11 3d 83 e3 38 3b
       -0.07518666 -0.046136003 0.03557256 0.002821178
000030 30 48 ad bd 7d 70 37 bd eb de 30 bb b8 09 90 bd
       -0.08461034 -0.04478501 -0.0026988338 -0.07033104
000040 30 90 00 bc 9f 7a 4d 3d 28 61 a0 3b d5 c9 5b 3d
       -0.007846877 0.05016577 0.0048943944 0.05365928
000050 e7 eb b1 3d 8f 69 2f bd 41 43 52 3d 6e 24 a4 3d
       0.08687573 -0.042825278 0.05133367 0.08014761
000060 70 93 17 bd 02 0f db ba 21 50 91 3d 5d 89 56 bd
       -0.03700584 -0.0016712847 0.070953615 -0.052377094
000070 19 ce a7 3d 6d 19 d5 bc 4a c4 05 bc 99 0d 5b 3a
       0.08193607 -0.0260131 -0.008164475 0.0008356213
000080 45 98 6a 3d 91 b0 5a 3c f7 96 e6 3c de b4 76 bd
       0.05727412 0.013347761 0.028148158 -0.060231082
000090 d4 1d c5 3b 77 91 38 3d 4a 87 68 bc 64 b8 67 bb
       0.0060155187 0.0450606 -0.014192412 -0.0035357708
0000a0 a7 92 d3 3c f2 a2 f7 bc d6 8a 7f 3d f1 d2 79 3d
       0.025826765 -0.030229066 0.062388264 0.060992185
0000b0 72 52 26 bd fe 89 bf 3c 37 de 61 3d f9 47 60 3d
       -0.04060597 0.02338123 0.05514356 0.05475614
0000c0 ce be 87 bb fb b3 a5 3d 38 48 26 bd 32 61 1c bc
       -0.0041426187 0.08090969 -0.040596217 -0.009544658
0000d0 25 4f af bd 55 57 cc 3c a8 f2 70 bd 8b ca 0c 3d
       -0.085600175 0.024943987 -0.058825165 0.034372848
0000e0 bd b4 8f 3d 2a e4 7e 3d 29 32 8d bd 31 7d 89 3c
       0.07016895 0.062229313 -0.06894333 0.016783329
0000f0 43 17 b2 3d 4c d5 aa 3d ee 0e 10 3d fa 7a a3 3c
       0.08695843 0.083414644 0.035170488 0.0199561
000100 ec 90 d1 bc de 4c 26 bc f3 3c 03 3c 63 fe a7 3d
       -0.0255818 -0.0101501625 0.008010137 0.08202817
000110 d2 91 ae 3b 68 31 9a bc a5 3d 6c bd b8 47 05 bd
       0.0053274417 -0.018822387 -0.057675976 -0.0325391
000120 a4 59 45 bd 66 c4 dc 3c a7 21 80 3d 6a f4 ac bd
       -0.04818119 0.026949119 0.06256419 -0.08445056
000130 88 d3 af 3c a7 b1 96 bd 20 25 ab bd b9 1c 10 bd
       0.02146317 -0.07358103 -0.083566904 -0.035183642
000140 44 33 9f 3d 14 e7 b2 bd 2d 09 22 3d 5b ac 12 3d
       0.0777345 -0.08735481 0.039559532 0.035808902
000150 8c a4 c3 3c 46 94 29 bd 57 92 72 bd ea 18 43 3c
       0.023882173 -0.04140117 -0.05922159 0.011907795
000160 bc 23 9c bd 20 e4 96 3d 2b 30 60 3c 22 4a 9a 3d
       -0.07624003 0.0736773 0.013683359 0.07533671
000170 6c 55 13 bc ca 92 00 3c 13 01 4b bc 6a 49 12 3d
       -0.008992534 0.007847497 -0.012390393 0.035714544
000180 a7 37 a6 3d 18 ac a2 3c 53 6d 91 3d 85 00 13 bd
       0.081160836 0.019857451 0.0710093 -0.035889167
000190 a6 08 9a bd 91 7f b3 bd ca ad 8f 3d 62 10 af 3d
       -0.07521181 -0.08764566 0.070155695 0.08548047
0001a0 c2 13 5c bd 8c 84 9a bd 31 c8 c4 3c 91 98 b5 3d
       -0.05372978 -0.075448126 0.02402124 0.0886699
0001b0 3c 35 a5 bb 16 ae ab bd af a0 7b bc c2 44 9a 3d
       -0.0050417464 -0.08382814 -0.015358134 0.07532646
0001c0 f9 6f 37 3d 3c 0e 86 bd c7 f5 aa 3d 09 86 06 3d
       0.04478452 -0.06545684 0.083476596 0.03284267
0001d0 7d 7e bf bc e7 77 36 bb b9 ef 17 bc 15 86 aa bd
       -0.023375744 -0.0027842463 -0.009273463 -0.08326355
0001e0 96 3b 85 bc 4b 29 a7 3d df b4 5a 3d a3 dd 3a 3d
       -0.016263764 0.08162173 0.05339515 0.045621525
0001f0 d3 41 65 bd b7 70 1a bd df e7 a1 3d bc dc 7a 3d
       -0.055970978 -0.03770515 0.07905554 0.061245665

transformer_encoder.layers.0.self_attn.in_proj_container.key_proj.weight f4 [128, 128]
000000 ae ee bb 3c 6c 29 93 bc aa 9e ee bb b3 bb d2 3b
       0.02294096 -0.017964087 -0.007282098 0.006431067
000010 48 99 09 bb 5e e6 a5 bc 04 47 04 3d f1 f2 66 3d
       -0.0020995904 -0.02025145 0.03229429 0.05638403
000020 8a a0 68 3d 95 48 a2 3d 21 2e 3f 3d 18 a2 50 bc
       0.056793727 0.07924 0.04667485 -0.012733959
000030 2e 06 0a bd 4f b8 4d 3d 0e ae 8b bd a4 ec 88 bd
       -0.0336973 0.0502246 -0.06820308 -0.066857606
000040 e1 41 24 bb 1a 8d 49 bd 91 98 a8 bd df 37 76 3d
       -0.002506368 -0.04920683 -0.08232225 0.060111877
000050 b0 c3 28 bc 3f e1 b0 bd 42 6a 8a 3d 6c c1 88 bd
       -0.010300562 -0.08636712 0.06758548 -0.06677517
000060 5e 3d 7f bd bc 5b b2 3a 8c bd 48 3d ca ad 46 3d
       -0.062314384 0.0013607661 0.04900889 0.048505582
000070 db a8 c9 3c 19 67 48 bd 78 ee 37 3d f6 e2 73 3d
       0.02461665 -0.048926447 0.044905156 0.05954262
000080 10 ea 97 3d 29 3d 76 bb d2 0a 77 3c ae 44 a1 3d
       0.07417691 -0.0037573075 0.015078263 0.07874428
000090 9d e4 b3 bd e6 e2 e1 bc 00 68 45 3b 0e 89 b7 ba
       -0.08783839 -0.027574014 0.0030121803 -0.0014002637
0000a0 66 95 74 bd 08 ca d8 bc 7b 50 9e bd 8a 59 86 3d
       -0.05971279 -0.026463524 -0.07730194 0.06560047
0000b0 3f 02 a6 3c 82 3e 84 3d 77 95 28 3d e9 b7 ca bc
       0.020264743 0.06457235 0.041158166 -0.024745898
0000c0 94 40 9e 3d 39 a5 46 bd 4c 34 98 3d e9 be ab 3d
       0.07727161 -0.048497412 0.0743185 0.083860226
0000d0 ea ac a5 bd 21 9d 60 bd b1 e5 23 bd 8e 8d ac bb
       -0.08089621 -0.05483735 -0.040013973 -0.005265898
0000e0 b1 83 36 bc 34 fe 36 3c db c2 22 3c 1b f0 a9 3d
       -0.011139796 0.011169005 0.0099341525 0.082977496
0000f0 55 e5 a3 3c 86 34 a4 bd d0 1e df bc 22 50 6e bd
       0.020006815 -0.080178306 -0.027236372 -0.05818189
000100 a7 03 e1 3c 9b a4 6e bd f4 90 a4 3c 51 f2 a5 3d
       0.027467562 -0.05826245 0.02008865 0.08102859
000110 be 53 99 bd a8 41 f4 3c 6c ce 3b bd 41 76 c6 3b
       -0.07486676 0.029816464 -0.045851156 0.0060565774
000120 a0 e3 88 bd dd 1e 58 bd b1 d0 f4 bc ff 0c 9a 3c
       -0.06684041 -0.05276381 -0.029884668 0.018805025
000130 89 35 8c bd 38 9d 4f bd 2c 11 04 bd 56 1b 97 3d
       -0.068461485 -0.050687045 -0.03224294 0.07378261
000140 1f d6 ab bd 83 01 95 3d ca 32 ff 3c e4 37 96 bd
       -0.0839045 0.07275679 0.031152148 -0.07334879
000150 d0 04 78 3d 89 fc 29 3c 48 84 a0 3d 8a 6b dc 3c
       0.060551465 0.0103751505 0.07837731 0.026906747
000160 46 62 a0 bc b4 40 2a bd 4f 36 bd bc 94 c3 c9 3b
       -0.01957811 -0.041565612 -0.023097185 0.006157348
000170 96 7c 61 3d 92 fd 00 3d 2c f6 b0 bd 00 18 b1 bd
       0.055050455 0.031491823 -0.086407036 -0.08647156
000180 29 c2 7e 3d 34 a4 51 bc 36 2e c5 bc d4 11 6b bd
       0.062196884 -0.012795497 -0.024069887 -0.05739005
000190 a2 a4 6e bd 5a f2 16 bb 47 e5 6c bd df b6 aa bd
       -0.058262475 -0.0023032636 -0.057835843 -0.08335661
0001a0 00 91 83 3d 20 18 bd 3c e8 fc a2 bd 2e 4a 59 bd
       0.06424141 0.023082793 -0.07958394 -0.05304926
0001b0 17 02 d8 bc 7a fe 7e bd 75 81 06 bd e3 a9 92 3d
       -0.026368184 -0.062254407 -0.032838304 0.071613096
0001c0 cf 2d 82 bd 3b 81 ab 3d 32 cc 85 bd 70 36 8b 3d
       -0.063563935 0.08374258 -0.06533088 0.067974925
0001d0 3a 46 55 bd 54 ab 31 3c 01 b8 8b 3d c6 86 4a 3c
       -0.052068926 0.01084407 0.06822205 0.012361234
0001e0 b6 8f 75 3d 47 7c 69 3d 5f c3 ab bc d0 3a 2c bd
       0.059951507 0.057003286 -0.020967184 -0.042048275
0001f0 d2 a1 f2 3c 49 6c 29 3d 34 70 ce bc df 7a 11 3c
       0.029618178 0.041363034 -0.025199987 0.008879392
000200 c3 a9 cf bc 69 ba a2 bd de c6 6f bd 80 ed cf 3c
       -0.025349503 -0.07945711 -0.058539264 0.025381804
000210 01 af c7 3c 44 dd 97 bd c9 c9 0d 3c b4 ca 3b 3c
       0.02437544 -0.0741525 0.008654066 0.011461902
000220 2a f8 1d 3d a7 dc 78 3d 91 63 b4 3c d0 30 aa ba
       0.038566746 0.060757305 0.022020133 -0.0012984518
000230 ac 68 1f 3d 9d 0a 88 bd 76 f6 7b 3d 76 30 b1 3d
       0.038918182 -0.06642649 0.06151434 0.08651821
000240 b5 bb 87 3d b2 fc 59 bd 44 3e 71 3d 1a bc 7d bd
       0.06627599 -0.053219505 0.05889727 -0.061946966
000250 67 74 05 3d de c0 36 bc ee 94 81 bd ea fb d3 3c
       0.032581713 -0.011154382 -0.06327234 0.025876958
000260 e5 02 57 3d 9a cb 0a bd 36 ca 4c bd b5 fb 6a 3b
       0.052492995 -0.033885576 -0.04999753 0.0035855595
000270 b2 fc fc bc 1b 0f 78 3d 22 cb b2 bd 75 e3 81 3c
       -0.030882213 0.06056128 -0.08730151 0.01585553
000280 42 11 41 3d af 33 7a bd c1 74 5c 3b b8 81 a7 3c
       0.0471356 -0.061084446 0.0033638927 0.020447597
000290 e8 02 b4 3d 36 58 a0 bc 47 76 8c bd 83 37 55 bd
       0.08789617 -0.019573312 -0.06858497 -0.052054893
0002a0 d7 1d 3f bd 44 e9 35 3d 2e d8 27 3d 48 d6 6b 3d
       -0.046659317 0.044411913 0.04097765 0.0575774
0002b0 8a b3 a5 3c 66 42 82 bd c1 f8 9b bd 40 9a 05 bd
       0.020227212 -0.06360321 -0.076158054 -0.032617807
0002c0 15 42 95 bd 09 1a 7c 3c 5b ba aa 3d 1a 70 12 bd
       -0.07287995 0.015387067 0.08336326 -0.03575144
0002d0 22 1c 7e bd 07 d6 4b 3c 5f cf 7c 3d c0 32 bd 3c
       -0.06203855 0.012441165 0.061721202 0.023095489
0002e0 33 ae 51 3c 7f b5 54 bc cd 3e e3 3b c1 00 02 3c
       0.01279788 -0.012982725 0.0069349767 0.00793475
0002f0 8c 05 84 bd ae 03 75 3d 4f 50 dc bc 61 b8 91 3c
       -0.064463705 0.059817962 -0.026893763 0.017788114
000300 d1 c6 81 3c bb c7 88 3d 86 01 e6 3b da 11 60 bd
       0.015841873 0.066787206 0.0070192246 -0.054704525
000310 e0 20 9c bc 52 ba 3f bd 7f 71 ac 3d 76 29 2d bd
       -0.019058645 -0.04680855 0.08420085 -0.04227587
000320 fd 99 8c bd 0b bf 30 bc 76 de 07 bd a0 fd b4 bd
       -0.068653084 -0.010787736 -0.03317114 -0.08837438
000330 ef 27 9f bd 14 40 9d 3c dc 29 de bc 40 1b a2 3d
       -0.077712886 0.019195594 -0.02711957 0.07915354
000340 44 f8 b8 bc 12 e5 80 bb ca f2 9f bd f8 31 27 bd
       -0.02257932 -0.0039335573 -0.0780998 -0.04081914
000350 c9 6c 13 bd d1 7d 41 bd 42 b1 b0 bc 40 56 a4 bd
       -0.035992417 -0.04723913 -0.021568898 -0.080242634
000360 be a7 9f bc e8 13 97 3d 6d 01 04 3d 19 18 11 bc
       -0.019489165 0.07376844 0.032227922 -0.008855843
000370 bc fe 5e bd 53 a7 9f bd 60 b1 1d bd 32 a3 96 3d
       -0.054442152 -0.077955864 -0.038499236 0.07355346
000380 04 d4 54 3d fe f3 94 3d bd d5 70 bd 99 d2 40 3c
       0.051960006 0.072731 -0.058797587 0.01176896
000390 23 b1 89 3d 26 a5 29 bd bd de 46 bd 7b 41 b9 bc
       0.06723239 -0.041417263 -0.048552264 -0.022614231
0003a0 88 fe 83 bd a9 49 ab 3d db 60 5a 3d f7 54 e3 3c
       -0.06445032 0.08363659 0.053315025 0.027750475
0003b0 99 30 a5 3d 46 1c b5 3d f1 64 ae bd 8f 08 d2 3c
       0.0806591 0.08843283 -0.08515347 0.025638847
0003c0 2f 1c 57 3d a3 6a 3d 3d 54 72 f8 3c b7 60 82 3d
       0.052517112 0.046244275 0.030327953 0.06366103
0003d0 e1 e4 d6 3c 04 e9 ae 3d 39 c6 81 bd 4d 11 7b 39
       0.026232185 0.08540538 -0.06336636 0.0002394367
0003e0 73 c2 9d bd 1c 30 80 3c ce 9d 82 bd eb a9 51 bd
       -0.07703104 0.01564794 -0.06377755 -0.051187437
0003f0 7f 2f 67 3d a3 dd ac bd a2 17 84 3d e5 5a 39 bd
       0.05644178 -0.08440711 0.0644982 -0.0452527

transformer_encoder.layers.0.self_attn.in_proj_container.key_proj.bias f4 [128]
000000 c8 54 9a bd 01 95 8a 3c ff 67 33 3d 13 b4 6f bc
       -0.07535702 0.016916754 0.04380035 -0.014630335
000010 87 23 de 3b 28 fe ac 3d a8 f7 da 3c ff 43 26 bc
       0.0067791375 0.08446914 0.02672942 -0.0101480475
000020 e4 42 6c 3d aa 5d a7 bd 2a f0 05 bd b5 46 a4 bc
       0.05768098 -0.08172162 -0.03269974 -0.020053247
000030 cc b5 a6 bd ce 5d d2 bc e4 76 39 bd c0 69 92 bd
       -0.08140144 -0.025679495 -0.0452794 -0.071490765
000040 a7 07 1c bd 80 83 5c bd 26 d2 5c bd 9f 9a 4e 3d
       -0.038093235 -0.053836346 -0.05391135 0.050440427
000050 6a 8a ad 3b 16 64 0b 3d 09 03 8a bd bb b2 65 3d
       0.0052960413 0.034030996 -0.0673886 0.056078654
000060 16 12 49 3d fa 58 ae bd af e9 20 3d 3a ba 45 bd
       0.049089514 -0.08513065 0.039285358 -0.048273303
000070 48 a2 1f bc 64 38 8c bd 5a 06 8e bc 8a 60 c4 bc
       -0.009743281 -0.06846693 -0.017337013 -0.023971815
000080 4b 93 5f 3d b0 19 1a 3c 65 67 e8 3c 59 48 24 bd
       0.05458383 0.009405538 0.028369615 -0.04010806
000090 cc 34 db bc 9e 79 98 bd b9 0e 3a bd 62 81 9b 3d
       -0.026758574 -0.07445072 -0.045424197 0.07593037
0000a0 1e cb 22 bd 4d a1 9b bd 60 6e 19 3d 25 72 91 3d
       -0.03974449 -0.07599125 0.037458777 0.071018495
0000b0 76 bd 70 3b 01 d3 6e bd 05 0f 42 bd 3a b2 bf bc
       0.0036734021 -0.058306698 -0.047377605 -0.023400415
0000c0 28 ce 35 bd c0 9e 94 3c 7f 1b 38 3d 1c c8 0b 3d
       -0.04438606 0.018142104 0.044948097 0.034126386
0000d0 af 70 36 3d 6d fe a8 bd c1 c5 a6 3d 5b d8 68 bd
       0.044541057 -0.08251653 0.08143187 -0.056846958
0000e0 e9 5e f6 bc 62 e3 aa 3d f5 ee aa 3c cc b3 db bc
       -0.030074554 0.08344151 0.020865897 -0.026819132
0000f0 6f 79 13 bd 06 95 98 bd 13 20 23 bd 3c ce ab bd
       -0.03600448 -0.07450299 -0.03982551 -0.083889455
000100 a6 d1 7b 3d b7 ea 40 3d 6b 3d 07 bc 41 99 7a 3d
       0.061479233 0.04709884 -0.008254389 0.06118131
000110 74 cb 80 3d 12 8a ce 3c 96 f3 3b bd 96 91 42 bd
       0.062888056 0.025212321 -0.0458866 -0.047502123
000120 c9 38 be 3c 28 8d 11 bd 71 6a 53 3d 59 67 fd bc
       0.023220437 -0.035535008 0.051615182 -0.030933069
000130 84 2a 83 bc ff b9 63 bd b9 3b bb 3a 3f 56 60 3d
       -0.016011484 -0.0555973 0.0014284767 0.05476975
000140 95 b8 26 3b 44 51 58 3d 42 4f b2 3d 1e 49 9e 3d
       0.002543961 0.052811876 0.087065235 0.0772879
000150 66 8a 29 bd 56 f8 61 3c 5a 92 9b 3a f0 20 3e bd
       -0.041391753 0.013792118 0.0011869178 -0.04641813
000160 f3 e4 4f 3d bd f3 64 3d 24 ad 73 3d 55 1b 60 3b
       0.050755452 0.05589651 0.05949129 0.0034195979
000170 1a 4d 51 bc 75 cb 95 ba 5d 16 1e bd fd a3 b1 bd
       -0.01277473 -0.0011428433 -0.038595546 -0.086738564
000180 0e 3c ec bb f9 57 9e bb c5 be cd 3b ad 9c 18 3d
       -0.0072093075 -0.0048322645 0.006278845 0.037258793
000190 d9 b1 50 3b e6 eb 95 3d e5 6a 9a bd db 28 b3 bd
       0.0031844287 0.07320385 -0.0753992 -0.08748027
0001a0 cc 8e b3 bd db 9d 33 3d 6c 74 2c 3c 96 b3 a6 3d
       -0.08767471 0.043851715 0.010525804 0.08139722
0001b0 33 19 15 3d 82 3e a4 3d 32 62 d4 3c e9 ef a9 bd
       0.036400985 0.08019735 0.02592573 -0.08297712
0001c0 8d 1b c3 3c bd 11 7a 3d d8 b4 66 bd 93 1d 2e bd
       0.023816848 0.061052073 -0.05632481 -0.042508673
0001d0 c2 58 75 3b 51 9f 2c 3d f1 f1 42 3d 20 51 92 bd
       0.0037436937 0.042144123 0.047594015 -0.071443796
0001e0 0e d7 2e 3d c4 94 af bc 6f 01 f9 3c 40 3f 9c 3c
       0.04268556 -0.021433242 0.030396191 0.019073129
0001f0 1b 63 58 bd 83 53 9f bd ba 11 18 bd 7b 84 aa 3c
       -0.05282889 -0.077796005 -0.03712628 0.020815125
