Final_models/mfeat-factors/tabtrans/hyperparameter_selection/100/experiment_2_128_2_8/checkpoints/params.pt (torch, 932454 bytes, 41 tensors)

numerical_encoder.weights f4 [216, 128]
000000 84 93 81 3d 23 5a e0 bc 28 ba e2 be 91 79 3a 3f
       0.063269645 -0.02738673 -0.4428265 0.72841746
000010 82 14 e9 bf f3 ba 27 bf b1 42 ac bf 4c c5 5e bf
       -1.8209383 -0.65519637 -1.3457853 -0.870198
000020 84 45 3a bf 88 e7 a5 bf a2 76 11 bf 11 9f 13 40
       -0.7276232 -1.2961283 -0.56821644 2.3065836
000030 49 80 4e bf c8 ed c6 3f 6a ef 1e bf b6 e1 26 3f
       -0.806645 1.5541315 -0.62084067 0.6518816
000040 ab fe 81 3f 91 88 07 c0 47 7f 6c 3e c3 09 84 3e
       1.0155843 -2.1177104 0.23095427 0.25788698
000050 a3 40 0f be 93 77 5b be 05 90 be be 30 f6 1d 3f
       -0.139895 -0.21432333 -0.37219253 0.6170378
000060 69 66 f9 be a9 31 88 bd 51 93 9f bf d9 f2 a5 3f
       -0.48710945 -0.06650097 -1.2466832 1.2964736
000070 7b ee e5 3e 38 58 13 3f ed 19 2a bf ec 5e 1d 3e
       0.4490851 0.57556486 -0.6644581 0.15368241
000080 dc 18 1d bf 40 a1 42 bf 16 4f be 3f 09 23 82 3b
       -0.6136606 -0.760273 1.4867885 0.0039714617
000090 b4 17 7b be d1 91 af 3e 42 54 8b bf e7 3a 14 bf
       -0.24520761 0.34290937 -1.0885088 -0.5790238
0000a0 b5 aa ad 3e fb 3d af be 6a e6 0e bf 61 37 66 3f
       0.33919302 -0.34226975 -0.55820334 0.8992825
0000b0 58 e0 87 3e 8a b9 c7 3f 21 e4 21 3f 87 75 6c 3f
       0.26538348 1.5603497 0.6323872 0.9236683
0000c0 f1 ec 94 bf 9a 27 8e 3f 2f 18 22 bf 5a 47 02 3f
       -1.1634809 1.1105835 -0.6331815 0.50890124
0000d0 df 7c 38 3f 8c 41 08 be db c8 ea bf 90 9c 3a 3f
       0.7206554 -0.13306254 -1.8342546 0.72895145
0000e0 08 00 b9 3e 0a b8 69 bf 90 f8 db bd 87 ca b3 3e
       0.36132836 -0.91296446 -0.10740769 0.35115454
0000f0 9e 93 4b bf 17 54 a8 bf 68 09 90 3f df 5d f4 be
       -0.7952212 -1.3150662 1.125287 -0.47727868
000100 7c e4 94 3f c4 32 02 bf ef e5 af 3d c0 74 24 bf
       1.1632228 -0.5085871 0.08588778 -0.64240646
000110 d8 86 4e 3f c3 47 f0 be ad ab 9e 3e fb 3c 84 be
       0.80674505 -0.4692975 0.30990353 -0.25827774
000120 b3 32 85 bf e1 58 c9 bf 47 1e a1 bf bd db 6d 3d
       -1.0406097 -1.5730249 -1.2587365 0.058070887
000130 55 58 28 3e 64 50 a4 bf 4b e8 05 bf 46 71 30 3d
       0.16439946 -1.2837033 -0.52307576 0.043076776
000140 42 90 33 bf d2 9b 39 c0 31 ce 23 3f 1d 63 19 40
       -0.70141995 -2.9001355 0.639865 2.3966744
000150 67 fb 72 3f 24 53 73 bf 2e a5 42 3d fd 2e 04 be
       0.9491486 -0.9504874 0.04752081 -0.1290855
000160 67 a9 60 be d3 2d a2 3f 43 77 b2 bf 4f b3 16 3f
       -0.21939622 1.2670234 -1.3942646 0.58867353
000170 75 20 4d 3f 7f 0a 28 be 9d 82 3d bf cf 11 9a 3b
       0.8012765 -0.16410254 -0.74027425 0.00470183
000180 cc b5 65 3f d3 37 e9 bf ae f4 9c 3d 67 d2 b3 bf
       0.89730525 -1.8220161 0.076638564 -1.4048585
000190 bf 10 1d 3f c1 46 0d bf 85 07 c5 3e 2e 12 b2 3f
       0.6135368 -0.55186087 0.384823 1.3911798
0001a0 41 24 13 3f 87 f0 53 3f 2e 08 50 3f 2f 71 3f 3f
       0.57477194 0.8278889 0.8126248 0.7478208
0001b0 6d 28 03 40 0b dd 06 bf ad 21 1e 3e f8 40 c1 be
       2.0493424 -0.52681035 0.15442534 -0.3774488
0001c0 13 49 80 3f d9 86 80 bf eb 81 8d bf 11 bd a3 3e
       1.00223 -1.0041152 -1.1055273 0.31980184
0001d0 ea 46 eb bf 78 e7 5c 3f 42 58 71 3f cd 41 30 3b
       -1.8381016 0.86290693 0.94275296 0.002689469
0001e0 10 65 9f bf 58 da 96 bf 47 17 5a bd 2f cc e3 be
       -1.2452717 -1.1785383 -0.053244855 -0.44491717
0001f0 cd dc 06 bf ad ce 51 3f fe 1b ad be cc e4 25 bf
       -0.52680665 0.8195599 -0.3381042 -0.6480224
000200 5b dc af 3f 83 d1 8f be e1 0b c5 3e 3e b7 62 3f
       1.3739122 -0.28089532 0.38485625 0.88560855
000210 be b1 dc 3e 5a aa a9 be a7 58 da bf 94 5f f6 bf
       0.43104357 -0.3313778 -1.7058305 -1.9247918
000220 7f 06 2c bf dd 5e 88 bf 4c e9 2e be 51 d1 fe 3e
       -0.6719741 -1.065395 -0.17081183 0.4976907
000230 5c a5 3e 40 b9 81 d4 bf 57 a1 c3 bf b1 1d d2 3e
       2.9788427 -1.6602088 -1.5283612 0.41038278
000240 6d aa a4 ba 5c d9 2e bf 67 f6 55 3f fa b6 cc bf
       -0.0012562998 -0.68300414 0.83579105 -1.599334
000250 cd fb 17 3f 0a 09 11 bf f4 d2 ed be 27 58 6a 3f
       0.5936859 -0.5665442 -0.46450007 0.9154076
000260 be 11 5d 3f d8 cc bb 3d 8a 40 9c 3f 94 01 84 be
       0.863552 0.0916993 1.2207196 -0.25782454
000270 fa 1a c4 bf ad f8 b3 3f f1 9c a1 3f 8e d9 fc 3d
       -1.5320733 1.4060265 1.262602 0.12346183
000280 3f 91 e9 3e 58 a9 77 3f b1 f4 2a 3f 77 50 3e 3e
       0.45618626 0.96742773 0.6677962 0.18585382
000290 02 37 01 c0 b6 c5 a6 3e 58 e8 8a 3e 6b 73 8e bf
       -2.0189824 0.32572716 0.2713039 -1.1128973
0002a0 4e 72 64 3f 3f 45 7c 3e df 08 f9 3f 75 1a 53 3f
       0.89236915 0.2463579 1.9455832 0.82462245
0002b0 1d 03 b7 be 7f 44 8e 3e b3 dc 3f 3f 74 9b 19 3f
       -0.35744563 0.27786633 0.74946135 0.6000283
0002c0 b6 bb d6 3f f4 fc 43 bf a4 47 15 bf 23 9a 89 bf
       1.6776035 -0.7655785 -0.5831244 -1.0750164
0002d0 ba 4f 82 bf df 20 33 40 b5 96 6d be 05 a6 a8 be
       -1.0180581 2.7988813 -0.23202021 -0.32939163
0002e0 ed 45 71 be b0 bd 01 3f 54 42 80 3f bb c3 d9 bf
       -0.23561831 0.50680065 1.0020242 -1.7012857
0002f0 25 56 6d bf 2d e5 a0 3f df f3 09 bf ef b7 05 3f
       -0.9270957 1.2569939 -0.5388774 0.52233785
000300 3b 1e d7 bf 38 f3 8e bf fc 4b 66 3f 04 ee 50 3f
       -1.6806101 -1.1167974 0.8995969 0.81613183
000310 1f 2d d2 3e cf 1f 37 be 7e 3e 4a 3f ea 87 3c 3f
       0.4105005 -0.17883228 0.79001606 0.7364489
000320 2a 8c f9 3f ad 7d aa bf 03 e8 67 3f c3 21 02 c0
       1.94959 -1.3319603 0.90588397 -2.0333107
000330 6a be bb bf f8 a0 07 bf da 17 ff 3c 2a 35 68 3e
       -1.4667485 -0.52979994 0.031139303 0.2267653
000340 90 cb e4 bf 6c 3b f8 bf 75 9b ad 3f cc 32 33 3f
       -1.7874622 -1.9393134 1.3563067 0.69999385
000350 79 2f ac be 83 53 8e bf b8 14 5c bf 9d 61 a7 3f
       -0.3362997 -1.1119236 -0.85969114 1.3076664
000360 e4 5f 8b 3f 37 f0 9a bf 9b 2b ca 3e b6 59 70 bf
       1.0888638 -1.2104558 0.39486393 -0.9388689
000370 36 b8 d6 bf c1 33 a6 3e 00 44 2c bf e0 f0 70 3e
       -1.6774967 0.3246136 -0.6729126 0.23529387
000380 12 d9 fa 3f e9 a2 8b 3f 95 0e 05 3f 9b c1 56 bf
       1.9597495 1.0909091 0.51975375 -0.8388917
000390 14 16 81 3f c3 e9 ad 3d 33 39 9a bf 89 8d d8 be
       1.0084863 0.08491852 -1.2048706 -0.42295483
0003a0 2e 32 b7 bc 61 c7 9e bf 64 6a 29 bb f4 d2 44 be
       -0.022362795 -1.2404596 -0.0025850767 -0.19221097
0003b0 43 56 6d bd ca ce 0b bf 17 79 c6 3f 04 d3 b0 3e
       -0.057943594 -0.5461241 1.5505704 0.34535992
0003c0 ba 30 4d 3f 42 99 b5 be f8 10 41 bf 1b 5f 8d bf
       0.80152476 -0.3546849 -0.7541652 -1.1044649
0003d0 a7 59 23 bf e5 47 1b be ce ff d7 3e 0d 8a ea 3e
       -0.63808674 -0.15164144 0.4218735 0.4580845
0003e0 0a 53 8f be 6a 11 8d be a2 05 2d bf d4 f8 81 bd
       -0.2799304 -0.27552348 -0.6758672 -0.06346288
0003f0 51 49 57 bd 9b e5 64 bf c8 8f 14 be 87 a1 0a c0
       -0.052560154 -0.8941285 -0.14507973 -2.1661088

numerical_encoder.biases f4 [216, 128]
000000 11 cc 37 3e 88 33 b1 3f 38 b0 5f 3f 59 6a 0c 40
       0.17948939 1.3843851 0.87378263 2.193991
000010 b3 27 94 bf 59 1b 2b bf 97 b6 b8 3f 4a 5b 83 bf
       -1.1574615 -0.66838604 1.4430722 -1.0262234
000020 a8 c2 51 bf b4 5d 7f bf dc 61 8d bf 2a 3b ca bd
       -0.81937647 -0.99752355 -1.1045489 -0.09874566
000030 d2 2e 69 bf 6f 8d e2 be ee 42 5c bf bc 1f 00 40
       -0.9108707 -0.4424853 -0.86039627 2.001937
000040 7b 10 11 bf c5 bc f8 3f 7d 98 04 bf 5a 4a 8d be
       -0.5666577 1.9432608 -0.5179518 -0.27595788
000050 ea e4 b3 3e 39 00 17 3f 29 e6 cd be e0 5b 2e 3d
       0.35135585 0.58984715 -0.4021466 0.042568088
000060 24 6a 10 3f 86 34 72 3c c2 e9 99 bf 81 11 21 bf
       0.5641196 0.01478303 -1.2024462 -0.62917334
000070 09 5b 2b be 9a 00 ac 3e f0 cb 88 3f f2 2d 05 c0
       -0.16733946 0.3359421 1.0687237 -2.0809293
000080 79 43 d3 3f 79 c7 38 3f 38 fa 60 bf 25 63 87 bf
       1.6504966 0.7217937 -0.87881804 -1.0577132
000090 f7 24 43 bc ac 12 66 bf 32 0d 3b 3f 1b f2 95 3f
       -0.011910669 -0.8987224 0.7306701 1.171451
0000a0 56 d7 08 c0 1a 15 1d 3f 54 f7 c7 bb cc 09 64 be
       -2.138143 0.61360323 -0.006102482 -0.22269362
0000b0 50 1b d1 3e 28 d3 89 3e 60 5f 21 bf 67 68 91 3f
       0.4084115 0.26918912 -0.63036156 1.1359986
0000c0 c1 1a 44 bd 9b 97 6f 3f b5 13 d6 3e 85 6f 45 3f
       -0.047877077 0.93590707 0.4181191 0.7712329
0000d0 ef 2e d8 3e 46 29 a7 3e 1a 72 8d bf 86 37 ff 3e
       0.42223307 0.32648677 -1.1050446 0.4984705
0000e0 42 c1 4e bf 35 a5 48 bf d1 0d f2 be d1 5d 98 3f
       -0.8076364 -0.78377086 -0.47276166 1.190363
0000f0 d2 8f 79 3f 67 b2 ab 3e ac 08 56 bf 9e 1b 14 3e
       0.9748508 0.33534548 -0.8360698 0.1446366
000100 67 69 8e bf 83 21 31 bd 11 e2 26 3e 04 90 17 3f
       -1.1125916 -0.04324485 0.16297175 0.59204125
000110 67 94 23 3f 88 2e 51 3c 9f b1 d7 3f 88 05 91 3f
       0.6389832 0.012767442 1.6851081 1.1329813
000120 48 6b 94 bf 84 1c 8c bf 62 8e 4d bc 3b 63 b4 bf
       -1.159524 -1.0946202 -0.012546154 -1.4092783
000130 99 63 33 3f 18 a2 a1 bf ac 94 67 3f 08 09 1d 3f
       0.7007385 -1.2627592 0.9046123 0.61341906
000140 2e fd 9d 3f 7f 81 20 bf 1f 6d ec 3f 17 5e ce be
       1.2342889 -0.62697595 1.8470801 -0.4030616
000150 70 fa 85 bf b2 bd e9 3e 87 fa 17 bd ec 33 1b c0
       -1.0467052 0.4565254 -0.037104156 -2.425044
000160 da 7e 40 c0 bc d1 46 bf ff de 9e 3f 05 8a 2b c0
       -3.0077424 -0.7766378 1.2411803 -2.680299
000170 83 79 46 bf a4 54 b4 bd ea 28 0f 3f 19 ab bc 3f
       -0.7752916 -0.088052064 0.55921805 1.4739715
000180 38 30 e7 be 07 2e fb bf 98 1a 93 3f e6 72 3d 3f
       -0.45153975 -1.9623421 1.1492491 0.74003446
000190 54 3a a6 3f 42 7a 92 3f ed 5e 32 bf 68 55 f4 be
       1.298655 1.144356 -0.69676095 -0.4772141
0001a0 67 2b ed bf 0e 38 8c 3f 08 bd 0c c0 1f d5 1c bf
       -1.852887 1.0954607 -2.1990376 -0.61262697
0001b0 ac 8d a5 3f 39 c3 de be 2c b4 42 be 0e ca 2e be
       1.293386 -0.43508318 -0.19014043 -0.17069265
0001c0 45 49 d2 bf 26 9e d7 be ed 52 9c bf 52 bf 9c bf
       -1.642861 -0.42112845 -1.2212807 -1.2245886
0001d0 d4 e6 5b 3d 26 2d fc 3e 55 61 22 3f 31 cf 2e 3f
       0.05368693 0.49253196 0.63429767 0.682849
0001e0 a3 3e 0a 40 e5 48 ad 3f ff e3 49 bf 1b 10 c8 3e
       2.160073 1.3537871 -0.7886352 0.39074787
0001f0 1f f1 e7 3e a1 cd 9a 3f 0d d5 27 3e 52 50 7d 3e
       0.45301148 1.2094003 0.16389866 0.24737671
000200 dd 6d 1a 3f ea 17 03 bf 80 32 6d 3f bb 80 d5 3f
       0.6032389 -0.51208365 0.9265518 1.667991
000210 2e d7 a5 bd 0f ea 73 3e 95 27 0f 40 96 c0 82 3e
       -0.08097683 0.23819755 2.236791 0.25537556
000220 6b 73 e2 bd 30 2e 2d 3f 86 8f ed bc 02 4d db be
       -0.110571705 0.676486 -0.028999101 -0.4283219
000230 ce 8c 8b bd aa cc 40 3e 9d ff eb 3f d7 bb 86 3f
       -0.06813966 0.18828073 1.8437382 1.0526074
000240 ef 27 8c 3f a6 c2 9d 3f d2 a7 5e 3e 27 bf 52 3f
       1.0949687 1.2325027 0.21743706 0.82322925
000250 29 9f 0e 3f 06 cb 9a 3f e8 37 b3 bf e4 96 a7 be
       0.5571161 1.2093208 -1.4001436 -0.32732308
000260 c9 68 20 3d e8 a8 66 bf 5b bb 85 be e8 70 1c bf
       0.03916243 -0.9010148 -0.26119503 -0.6110978
000270 b3 c2 82 3e 4c 58 d6 3d b5 4f 07 be 80 18 c7 3e
       0.2553917 0.1046606 -0.13214 0.3888588
000280 b2 55 95 3e 52 8e de be ef 39 c6 3f 2a 7e 9f be
       0.29166943 -0.43467957 1.548643 -0.31150943
000290 a0 25 b2 3e 0d ec d9 3f 74 77 4f 3f 14 0a d5 be
       0.3479433 1.7025162 0.81041646 -0.41609251
0002a0 0e 58 3b 40 df 59 f3 bf 63 3b fe 3f 4c 02 c2 3d
       2.9272494 -1.9011801 1.9861873 0.09473094
0002b0 3e 8f 82 3f 6a af 59 3e f8 b8 43 be a5 10 89 3e
       1.0199964 0.21258321 -0.19113529 0.2677051
0002c0 8a c1 6d bf 67 a9 76 3f f2 8a 52 3f 5b 52 a8 3e
       -0.9287344 0.9635224 0.82243264 0.32875332
0002d0 85 73 55 be ba 29 30 40 e4 7d d0 3c dd ff a9 bd
       -0.20844848 2.7525468 0.025450654 -0.08300755
0002e0 b9 08 8b 3e f6 88 a2 be 70 2f 8e 3f 16 07 77 bf
       0.27155092 -0.31745118 1.1108227 -0.9649519
0002f0 83 19 ba be 06 65 b4 bf d4 e7 63 bf 0b 64 89 3d
       -0.3634759 -1.409333 -0.89025617 0.06708535
000300 df f5 ad bd 2e fa 43 be 43 9e 74 bf 72 7b cf bd
       -0.08494162 -0.19138405 -0.9555399 -0.10130967
000310 47 5a 9d be d4 4c 64 3e 70 94 be bf 53 20 33 3f
       -0.3073294 0.22294933 -1.488905 0.699712
000320 49 31 7e bf b5 d1 05 bf f2 b7 b1 be cd ce 22 3f
       -0.99293953 -0.5227311 -0.34710652 0.635968
000330 d9 7b 0f be b7 aa c8 3e d6 61 10 be f5 0a 26 3f
       -0.14012088 0.39192745 -0.14099821 0.6486047
000340 38 3e b0 3f 93 79 96 3f 4d 1b 8e bf f5 c6 25 bf
       1.3768988 1.1755852 -1.1102082 -0.6475671
000350 5b 7d 6b bf ea c8 4a bf 10 43 9b bf 50 04 11 bf
       -0.9198815 -0.7921282 -1.2129841 -0.56647205
000360 aa cb 3e 3f a8 4e 01 3f 9e 5b 12 3e 4e b0 25 3d
       0.74529517 0.50510645 0.14292762 0.04045134
000370 b5 f9 f0 be 96 90 a3 3f 87 90 39 3e 2d d3 5f 3e
       -0.4706551 1.2778499 0.18121539 0.21857901
000380 96 5a 11 3f 6a ed ae 3d e9 e4 e3 3e c3 0d c6 bf
       0.5677885 0.08541377 0.44510582 -1.547295
000390 69 ae 2c bf 73 a9 81 3f 4c 13 16 3e 38 32 00 be
       -0.6745363 1.0129837 0.14655799 -0.12519157
0003a0 6d a5 82 3f 5b 14 8e 3f c6 82 c0 3d 03 60 b3 bf
       1.0206734 1.1099962 0.09399943 -1.4013675
0003b0 b7 3e c0 3f c1 6b b3 3e e3 58 03 3f 53 44 21 3f
       1.5019139 0.35043147 0.51307505 0.6299488
0003c0 90 9f a2 3e 31 a6 00 c0 67 6f 63 3f ad 68 05 c0
       0.31762362 -2.0101435 0.8884186 -2.084514
0003d0 6a ac 8e bf c8 4f 1b be 02 fe e0 bf a2 f5 bb be
       -1.1146367 -0.15167153 -1.7577517 -0.3671084
0003e0 2f fd 2f 3e ae a8 bf bf 7a e7 1c 3f ec ba 8b bf
       0.17186426 -1.4973352 0.61290705 -1.0916419
0003f0 b1 5c 09 40 1e f6 ba be 3a 95 68 be ae 8a 69 bf
       2.1462824 -0.36515898 -0.22713175 -0.91227233

transformer_encoder.layers.0.pre_norm_1.weight f4 [128]
000000 3e 9f 83 3f 48 8c 84 3f e9 6d 84 3f 9c 83 82 3f
       1.0282972 1.035531 1.0346042 1.0196414
000010 cd bf 83 3f 6e 66 84 3f 4a dd 83 3f 18 be 82 3f
       1.0292908 1.0343759 1.0301907 1.0214262
000020 24 a0 83 3f c6 b1 84 3f cf 5f 84 3f ee 85 83 3f
       1.0283246 1.0366752 1.0341738 1.0275247
000030 90 0a 83 3f 2e 20 84 3f 19 d5 84 3f c2 10 82 3f
       1.0237598 1.032232 1.0377532 1.0161364
000040 b8 fe 84 3f 2f f7 83 3f 07 6f 83 3f 18 46 84 3f
       1.0390234 1.030981 1.0268258 1.0333891
000050 7f d2 83 3f 26 61 80 3f 30 67 83 3f 9b 2d 85 3f
       1.0298613 1.0029647 1.0265865 1.0404543
000060 a5 c2 84 3f 33 3c 83 3f 16 91 83 3f 5c 2b 84 3f
       1.0371901 1.0252746 1.0278652 1.0325732
000070 2a 36 84 3f e6 c0 84 3f 30 45 84 3f e5 7e 84 3f
       1.032903 1.0371368 1.0333614 1.0351225
000080 41 7b 83 3f 2c 66 84 3f 4b 92 84 3f 82 68 84 3f
       1.0271989 1.034368 1.0357145 1.0344393
000090 a2 4a 84 3f 02 dd 84 3f 29 85 83 3f 30 4c 84 3f
       1.0335276 1.0379946 1.0275012 1.033575
0000a0 fb 94 83 3f 2a a1 81 3f f4 79 84 3f c9 70 83 3f
       1.027984 1.0127308 1.0349717 1.0268794
0000b0 d0 95 84 3f 4e f9 82 3f fa 8d 84 3f e8 ca 84 3f
       1.0358219 1.0232332 1.0355828 1.0374422
0000c0 42 33 84 3f 61 c7 84 3f ac 84 83 3f f3 8b 82 3f
       1.0328143 1.0373346 1.0274863 1.0198959
0000d0 e9 c9 84 3f 5d 22 84 3f 27 f4 83 3f 5c 7a 81 3f
       1.0374118 1.0322987 1.0308884 1.0115466
0000e0 dd ac 82 3f 30 5a 84 3f 46 dc 83 3f 0b a4 83 3f
       1.0209004 1.0340023 1.0301597 1.0284437
0000f0 80 6e 83 3f b6 c3 83 3f 28 7c 83 3f e6 c3 84 3f
       1.0268097 1.0294101 1.0272264 1.0372283
000100 ca 98 83 3f 18 52 84 3f 2a 07 85 3f ca 79 84 3f
       1.0281003 1.0337553 1.0392811 1.0349667
000110 2c ad 83 3f 9d 98 84 3f 19 eb 84 3f 41 0c 84 3f
       1.0287223 1.0359074 1.0384246 1.031624
000120 69 d7 82 3f a9 24 83 3f 3f 16 84 3f 38 94 84 3f
       1.0221988 1.0245563 1.0319289 1.0357733
000130 f0 dc 82 3f 9f 69 84 3f e9 f5 83 3f bc 13 84 3f
       1.0223675 1.0344733 1.0309421 1.0318522
000140 cd 5c 84 3f 24 7a 83 3f 56 ff 83 3f 02 82 84 3f
       1.034082 1.0271649 1.0312297 1.0352175
000150 84 19 85 3f 5d 09 84 3f 89 c5 83 3f 75 81 85 3f
       1.0398412 1.0315357 1.0294658 1.0430132
000160 e8 8d 85 3f 17 9b 83 3f f1 25 84 3f 69 fd 82 3f
       1.0433931 1.0281705 1.0324079 1.0233585
000170 f8 04 85 3f ee f2 84 3f 92 bb 83 3f fb 6b 84 3f
       1.0392141 1.0386636 1.0291617 1.0345453
000180 2d a3 84 3f 8f b6 84 3f 2e a8 83 3f 6a 4c 82 3f
       1.0362297 1.0368212 1.0285699 1.017957
000190 61 58 81 3f 5c 59 84 3f 0b 08 82 3f 03 3e 83 3f
       1.0105096 1.033977 1.0158705 1.02533
0001a0 08 b8 82 3f 4f 37 84 3f d9 ed 83 3f 21 20 84 3f
       1.0212412 1.0329379 1.030696 1.0322305
0001b0 06 03 84 3f a4 64 84 3f 7f f2 83 3f ef 95 84 3f
       1.0313423 1.0343213 1.0308379 1.0358256
0001c0 01 0b 85 3f b1 9f 84 3f b7 5f 84 3f 6f d8 84 3f
       1.0393983 1.0361234 1.034171 1.037855
0001d0 26 a2 84 3f d4 27 84 3f e5 23 83 3f 4d 24 83 3f
       1.0361984 1.0324655 1.0245329 1.0245453
0001e0 82 ce 82 3f ca 5f 84 3f 96 04 83 3f d3 17 85 3f
       1.0219271 1.0341733 1.0235775 1.0397896
0001f0 4a 3f 85 3f e2 3a 84 3f 2f 13 83 3f 7b 6c 84 3f
       1.0409939 1.033047 1.0240229 1.0345606

transformer_encoder.layers.0.pre_norm_1.bias f4 [128]
000000 f6 ce 06 3a 76 87 fd 3b 6c 96 50 bb d6 ec 91 bc
       0.0005142534 0.0077370955 -0.003182794 -0.017813127
000010 9c 32 7c 3c c0 13 72 bc 64 b8 a1 bb 0c 0f ed 39
       0.015392926 -0.014775217 -0.004935311 0.00045215373
000020 78 78 31 bc c7 20 91 bb fb 25 e5 bc a2 b8 44 bb
       -0.010831945 -0.004428956 -0.027972212 -0.0030017276
000030 49 60 33 bc a2 82 e5 3a 43 63 a5 3b 59 d3 f3 3b
       -0.010948249 0.0017510245 0.0050472333 0.007440966
000040 9b 0c 07 3c 7d b3 17 3c 14 2d ee ba bb f0 94 3b
       0.0082427515 0.009259102 -0.0018171393 0.004545299
000050 a4 f1 1c 3c c0 3e 06 3a 02 8e cd 39 d1 a7 2b bb
       0.009579096 0.0005121045 0.0003920645 -0.0026192556
000060 27 09 14 3c 2e 69 5b 3c 62 ca af 3c 92 a2 d0 b9
       0.009035385 0.013391776 0.021458808 -0.00039793976
000070 47 d8 47 bb b8 5e 52 39 30 de 87 3b 0d b6 8e bb
       -0.0030493902 0.00020062446 0.00414636 -0.0043551982
000080 24 41 1f bc bc a4 96 bb 77 f8 03 3b ff c7 71 3b
       -0.009720121 -0.0045972746 0.002013711 0.0036892889
000090 b6 6a 48 3b e6 24 f3 ba 18 c4 b3 3b cf 51 e0 bb
       0.0030581183 -0.0018550425 0.0054860227 -0.00684569
0000a0 15 1b 0a bc 13 f0 29 bc cf a9 76 3c 36 22 ee 3b
       -0.008429308 -0.01037218 0.015055134 0.007267262
0000b0 c2 f9 a7 ba 7e 91 d0 bb 4d 99 f0 3b 1d 95 b8 bb
       -0.0012815522 -0.0063650003 0.0073424936 -0.00563301
0000c0 0d f6 d6 bb 10 e7 bf 3b e7 18 88 bc b0 f5 30 b8
       -0.0065600933 0.005856402 -0.016613437 -4.2190484e-05
0000d0 d4 44 ae ba 10 6b b8 3b 5a d4 01 3c 27 d9 97 bb
       -0.0013295659 0.005627997 0.007924164 -0.004634041
0000e0 77 c9 fb bb 44 85 82 39 2d f7 24 bb 5d 44 bb bb
       -0.0076839286 0.00024894823 -0.0025171742 -0.0057149366
0000f0 65 03 68 bb 63 8d 5b bc 05 77 3d 3c 49 c2 0e bb
       -0.0035402414 -0.013400408 0.011564021 -0.0021783283
000100 f6 c1 36 bc b8 42 42 3b 5f 4b 96 bb 49 b6 9f 3b
       -0.011154642 0.0029641818 -0.0045866217 0.004874025
000110 5d 2c d8 bb 10 86 97 bb 24 d8 9b ba 93 ca d2 ba
       -0.0065970854 -0.004624136 -0.0011889976 -0.00160821
000120 9d d9 26 b9 11 1d 19 bc 18 cc 21 bc 00 60 50 bc
       -0.00015912061 -0.009345309 -0.00987532 -0.012718201
000130 c6 7c b7 3b 5d 13 9b bb 83 cb 2c 3c ea c7 a6 3c
       0.005599591 -0.004732533 0.010546568 0.020358998
000140 c9 95 55 3b 6b c0 cd 3b 1d f3 78 bc cd 0b 29 bc
       0.00325905 0.0062790415 -0.0151946815 -0.010317755
000150 b7 20 d5 ba 61 df 51 3c 95 92 1f 3c 3a b4 1f 3c
       -0.001626036 0.012809605 0.009739538 0.009747559
000160 f0 4e 61 38 09 04 04 bc 5f 1f 58 bb 16 09 25 bc
       5.3717697e-05 -0.008057603 -0.0032977683 -0.010072967
000170 18 51 05 3a 25 c5 5b 3c 79 b6 c8 3b 3f ab 40 bc
       0.0005085631 0.013413702 0.006125268 -0.011759578
000180 b2 d5 29 bc 82 4a 84 ba 18 07 4b bb e5 57 f3 bb
       -0.01036589 -0.0010093006 -0.003097957 -0.0074262493
000190 59 7e de 3b d6 8c 9a 37 df c1 49 3a dc 8f e9 3b
       0.006789964 1.8423812e-05 0.00076964305 0.007127745
0001a0 76 6b f0 bb 93 c2 05 3c 2e d7 47 bb aa 15 ce bb
       -0.007337029 0.008164066 -0.0030493247 -0.0062892037
0001b0 7b 73 36 bb f4 10 12 bc e4 c7 18 bc 78 e3 5d 3b
       -0.0027839828 -0.008915175 -0.009325001 0.0033857506
0001c0 09 38 d0 39 ba 20 38 bc de 56 8d ba fe b0 14 3b
       0.000397146 -0.011238271 -0.0010783335 0.0022688503
0001d0 8a 24 f7 3c 05 da 8e bc b0 dd 17 bb 81 14 4a 3b
       0.03016879 -0.017437944 -0.0023172908 0.0030834975
0001e0 4c 12 70 bc 90 8d 30 3c ba 9f 22 bc f6 08 36 3c
       -0.0146528 0.010775939 -0.009925777 0.011110535
0001f0 bc 6f 3c 3b 0f 09 93 bc 4f b5 9a bc 32 40 05 3c
       0.0028753122 -0.017948655 -0.018885283 0.008132981

transformer_encoder.layers.0.pre_norm_2.weight f4 [128]
000000 39 0f 80 3f 9a 95 80 3f 0d 0d 81 3f 14 fd 81 3f
       1.0004646 1.0045655 1.0082108 1.0155358
000010 a4 1e 80 3f 1e 1f 81 3f 80 9e 7d 3f 45 d8 82 3f
       1.0009351 1.0087621 0.99069977 1.022225
000020 ea e2 81 3f ab 5e 7f 3f 50 9d 7e 3f 1c b8 80 3f
       1.0147374 0.99753827 0.9945879 1.0056186
000030 9c e3 81 3f 98 59 80 3f 80 bf 81 3f 56 77 81 3f
       1.0147586 1.0027342 1.0136566 1.0114543
000040 6b 05 81 3f 4d 21 80 3f dd ea 7f 3f 00 6f 80 3f
       1.0079778 1.0010163 0.9996775 1.0033875
000050 24 f2 81 3f bd 43 83 3f 59 52 82 3f 5a 72 7e 3f
       1.015202 1.0255047 1.018138 0.99393237
000060 cf cf 7d 3f 3c d6 79 3f f7 36 81 3f 08 9a 7e 3f
       0.99145216 0.9759252 1.0094899 0.99453783
000070 be 15 81 3f 80 47 80 3f 65 78 81 3f 51 7f 80 3f
       1.008476 1.002182 1.0114866 1.0038854
000080 de 5e 81 3f 5f 51 83 3f 6f ed 7f 3f 4d aa 80 3f
       1.0107076 1.0259207 0.9997167 1.0051972
000090 89 8f 7e 3f be de 82 3f b4 1d 82 3f d4 0b 80 3f
       0.9943777 1.0224226 1.0165315 1.000361
0000a0 5e d4 80 3f 69 85 83 3f f0 42 81 3f ee d0 80 3f
       1.0064809 1.0275089 1.0098553 1.006376
0000b0 2f bc 80 3f f2 28 82 3f 8c 2b 81 3f a0 4d 81 3f
       1.0057429 1.0168746 1.0091414 1.0101814
0000c0 f6 1a 81 3f 85 e6 7f 3f d3 d0 80 3f 4b 6c 82 3f
       1.0086353 0.9996112 1.0063728 1.0189298
0000d0 1d 41 81 3f 95 51 81 3f dd 0f 82 3f 61 39 80 3f
       1.0097996 1.0103022 1.0161091 1.0017511
0000e0 0b d1 80 3f b2 cb 81 3f 6e d1 81 3f b7 7c 7f 3f
       1.0063795 1.0140288 1.0142038 0.99799675
0000f0 cf 6b 81 3f 73 b2 7e 3f 72 56 80 3f e9 0f 80 3f
       1.0111026 0.9949104 1.0026381 1.0004855
000100 3f 38 80 3f d6 b9 81 3f 42 a3 81 3f e2 7b 7e 3f
       1.0017165 1.0134838 1.0127947 0.9940778
000110 79 ef 81 3f 3f ea 80 3f 1f e4 80 3f 42 71 81 3f
       1.0151206 1.0071486 1.0069617 1.0112689
000120 05 e6 80 3f 22 3d 81 3f 98 b5 80 3f cf 4a 82 3f
       1.0070196 1.0096781 1.0055418 1.017908
000130 14 14 80 3f 31 16 81 3f 91 b3 81 3f 0e 67 7d 3f
       1.0006127 1.0084897 1.0132924 0.98985374
000140 ed 06 81 3f 38 d9 80 3f c6 c4 81 3f 4f 3a 80 3f
       1.0080239 1.006629 1.0138175 1.0017794
000150 36 df 81 3f 63 dd 80 3f 61 33 7f 3f fe 8f 80 3f
       1.0146244 1.0067562 0.99687773 1.0043943
000160 db 58 82 3f 35 a8 81 3f 3f dc 7e 3f 8c 83 82 3f
       1.0183367 1.0129458 0.9955482 1.0196395
000170 56 e4 81 3f 17 88 81 3f c9 75 7f 3f 33 1a 81 3f
       1.0147808 1.0119656 0.997891 1.008612
000180 f8 06 81 3f 8f 47 84 3f 64 19 82 3f 91 3b 82 3f
       1.0080252 1.0334338 1.0163999 1.0174428
000190 eb 83 7f 3f 66 73 81 3f 8e da 82 3f 58 68 82 3f
       0.99810666 1.0113342 1.0222948 1.0188093
0001a0 84 24 81 3f 6b 9e 81 3f 21 99 7b 3f 88 d0 7f 3f
       1.0089269 1.012647 0.9828053 0.9992757
0001b0 75 69 81 3f 73 06 80 3f b4 b4 81 3f b2 63 80 3f
       1.0110308 1.0001968 1.0133271 1.0030425
0001c0 40 11 7f 3f 37 fb 81 3f fa 1e 80 3f c4 bb 80 3f
       0.99635696 1.015479 1.0009453 1.0057302
0001d0 69 18 80 3f 75 fe 81 3f be b3 7f 3f b1 b1 80 3f
       1.0007449 1.0155779 0.9988364 1.0054227
0001e0 0e 68 80 3f b8 da 80 3f 13 69 81 3f 3d 0a 7f 3f
       1.0031755 1.0066748 1.0110191 0.99625
0001f0 54 15 82 3f 95 88 7e 3f fd 52 80 3f dd 2d 81 3f
       1.0162759 0.9942716 1.0025326 1.0092121

transformer_encoder.layers.0.pre_norm_2.bias f4 [128]
000000 85 7e 9a bb 30 4b 99 bb 06 7e bd bb d2 2c 4e bc
       -0.0047147893 -0.0046781525 -0.0057828454 -0.012583928
000010 a6 bf a2 3b 84 6d 78 3a 56 2e a8 3b 3b 5c 74 bc
       0.004966694 0.00094767683 0.005132477 -0.014914568
000020 9f 2a 21 bc cc 88 c5 3b fc 60 26 3c 04 4d 16 b9
       -0.009836822 0.0060282703 0.010154959 -0.00014333805
000030 48 9e 86 bb 96 3a 04 bb fd be 35 3b 1e b1 8f 3b
       -0.004108224 -0.0020176522 0.0027732246 0.0043851277
000040 3b fb 94 3b f2 ce 60 b9 e8 92 d0 3b c3 8f 33 bb
       0.0045465506 -0.00021439398 0.006365169 -0.002739892
000050 ef a3 74 39 83 36 23 3c 54 40 64 bb e0 aa b2 3c
       0.00023330723 0.009961727 -0.0034828382 0.021809995
000060 b7 cd 2c bc 4e 95 72 bb 31 4b c4 3b 25 f7 bf 3b
       -0.010547093 -0.0037015262 0.005990409 0.0058583193
000070 75 36 14 ba da b4 82 3a a1 6c 03 3c f1 2a 64 3c
       -0.00056538667 0.0009972111 0.008021505 0.013926254
000080 6a 10 ed bb 3a 2b 0b 3c 5c 49 8b 3b f4 26 fc 3b
       -0.0072346227 0.008494193 0.0042506885 0.0076950733
000090 1c 5d eb 3b f5 51 1e 3c ad aa 2f bc 76 de 11 3c
       0.0071827304 0.009663095 -0.010721845 0.0089031365
0000a0 0e e3 03 bc 58 da 3c bc f0 72 68 ba 86 91 ce bb
       -0.0080497395 -0.011526667 -0.00088672247 -0.006303969
0000b0 6b c2 c8 bb 89 d4 13 3c 45 cf 19 3c e3 d2 2e bc
       -0.006126692 0.00902284 0.009387796 -0.0106703965
0000c0 54 b5 b0 3b d3 be 13 3a 37 44 c4 3b 26 1f 7b bc
       0.0053927097 0.000563604 0.005989577 -0.015327251
0000d0 dd d2 9b 3b 72 dd 69 3b a8 38 b1 3b e0 99 1b 3c
       0.0047553615 0.003568497 0.0054083653 0.009497136
0000e0 88 d3 88 3b a0 77 4d 3c 81 03 cb bb a9 db 0c bc
       0.004175607 0.012540728 -0.006195486 -0.008597293
0000f0 54 22 ea ba f7 d4 df 3b 88 72 bf 3b 0e b5 81 bb
       -0.0017863014 0.0068308073 0.0058425106 -0.003958351
000100 ff ab e1 ba fc fe 21 bc 5f b9 be 3b 6a ae 48 bb
       -0.0017217397 -0.009887453 0.005820438 -0.0030621537
000110 fe aa f8 3a fb e8 53 bb 29 93 0f bc 38 78 1b 3c
       0.0018971858 -0.0032334912 -0.008763113 0.009489112
000120 80 74 59 bb d3 82 ed bb be 39 92 3a ff ac 80 bc
       -0.0033181012 -0.0072482615 0.0011156125 -0.015707491
000130 70 cf be bb 26 23 1a bc 54 d0 32 bc 0d b5 f9 bb
       -0.0058230683 -0.009407794 -0.010913927 -0.00762046
000140 98 67 12 3c e1 33 70 bb 8d 84 88 bc cb 00 9d bb
       0.0089358315 -0.0036652016 -0.016664768 -0.0047913543
000150 34 8c 08 3c d3 03 d2 ba aa e0 58 bb 6c 7f ab 3b
       0.008334208 -0.0016022868 -0.0033092895 0.0052336957
000160 b6 c8 2c 3b e4 79 3a bb ab a5 5d 3b b9 99 37 3c
       0.002636475 -0.0028454 0.003382067 0.011206084
000170 23 5d 1b 3c e7 e8 05 3c 3d 28 08 bc 6f 47 09 bc
       0.009482655 0.008173204 -0.008310375 -0.0083788475
000180 16 aa 3c bc 65 4f 7b bc 0e 34 a9 39 10 d6 16 bc
       -0.011515161 -0.015338753 0.00032272976 -0.00920631
000190 41 12 1d 3c e9 9f 2e 3c 4c 13 2a bb 60 c5 93 3c
       0.009586872 0.010658243 -0.0025951443 0.018038452
0001a0 ca e5 aa 3a d4 60 42 3c 98 89 32 bb c8 32 6e 3b
       0.0013038453 0.011863906 -0.0027242657 0.0036346186
0001b0 25 8b 9e 3b 60 e4 1f 3c 04 bb f7 bb 90 97 2e 3b
       0.0048383647 0.009759039 -0.007560136 0.0026640631
0001c0 50 70 cb b9 c5 8c 9e 3b 55 f3 96 bb db b6 41 bc
       -0.00038802857 0.0048385584 -0.004606644 -0.011823381
0001d0 ec 33 4c bc 05 ad 58 bc c2 8f bc 3a cb 84 ef bb
       -0.012463551 -0.013224845 0.0014386105 -0.0073095313
0001e0 d7 c9 e8 3b 7e 84 d6 3b 6d dc 04 bc 49 6d c5 bb
       0.0071041393 0.006546556 -0.008109194 -0.0060249907
0001f0 a7 80 e9 3b 6f 13 44 3a 32 d2 15 3a 88 45 1d 3b
       0.0071259323 0.00074797025 0.00057152205 0.0023997743

transformer_encoder.layers.0.self_attn.in_proj_container.query_proj.weight f4 [128, 128]
000000 c5 60 39 3d 74 1b ae 3d 4e d7 ab 3c 4e d0 ab bd
       0.045258302 0.0850133 0.020976689 -0.0838934
000010 05 b7 0a 3d b1 6f 3d bb 09 a6 8c bc e4 fc 07 3d
       0.033865947 -0.0028905685 -0.017169015 0.03320016
000020 8f 0e c0 3a e3 7b 11 bd 19 e5 1b bc 2c aa 11 ba
       0.0014652776 -0.03551854 -0.00951507 -0.00055566686
000030 fd 75 e7 3b 25 f3 1a bd 40 42 07 3d fa 54 bc 3c
       0.007063626 -0.037829537 0.033022165 0.022989739
000040 db a2 40 bd f5 57 1d bd 9e 56 44 3c c8 72 29 bd
       -0.04703031 -0.03841396 0.011983542 -0.04136923
000050 08 69 6e 3c bc 69 9b bd f7 7e 5f bc cc 73 be bd
       0.014551409 -0.075885266 -0.013641111 -0.0929943
000060 55 22 f3 bc c3 aa db 3d f8 dc 80 b8 58 0c b0 3a
       -0.029679457 0.107259296 -6.144674e-05 0.0013431413
000070 4a 7f 5b 3b 9b b9 2a 3d df 6b 2d bd 23 42 c4 bd
       0.0033492618 0.041680913 -0.042339202 -0.09582927
000080 76 f0 f4 3c 92 38 bb bd c9 00 39 3c a4 91 27 bd
       0.029899817 -0.09141649 0.011291691 -0.040910378
000090 15 1f d3 bd 3c f8 c2 3d 81 1d c1 3d d6 7c 5e bc
       -0.10308663 0.09520003 0.094294555 -0.013579568
0000a0 68 55 f8 bb 99 5c 02 bd b0 ce 57 bd f7 1d 69 bd
       -0.0075785406 -0.03182659 -0.052687347 -0.056913342
0000b0 b1 18 f8 bc 91 dd 7f bd 6b 49 1e bd 9c 2c 57 bd
       -0.030285211 -0.06246716 -0.038644236 -0.052532777
0000c0 43 cf 16 bd a6 ed 45 3d 2c f1 a5 bd 62 f2 3b bd
       -0.036818754 0.048322342 -0.081026405 -0.04588545
0000d0 aa c4 a3 bd 97 2b d1 3d 4b 24 e8 3c e2 1f 83 bd
       -0.07996495 0.10213392 0.028337618 -0.064025655
0000e0 c8 13 d8 3c e6 cf 02 3d 81 3f 2d 3d a5 47 f7 bc
       0.02637662 0.03193655 0.04229689 -0.03018553
0000f0 73 c1 25 bd 52 db 19 bd 6c f3 a1 3d ae 1f a2 bd
       -0.04046769 -0.037562676 0.07907757 -0.07916199
000100 48 3a e9 bc 82 c0 5d 3d 73 eb bc bd 3b e0 19 bd
       -0.028470173 0.054138668 -0.09224596 -0.03756736
000110 bf 73 be bc d1 ed 6f bd 13 91 e6 3c 7e 6f 8e 3d
       -0.023248551 -0.05857641 0.028145349 0.06954859
000120 c1 12 36 bc 09 b4 a2 3c be 00 ea ba e6 40 86 bd
       -0.01111287 0.019861238 -0.0017853004 -0.06555347
000130 bb f1 8b bc 5d 26 00 3c 5c 79 a9 3d 68 f0 f7 bc
       -0.01708304 0.0078216465 0.082751006 -0.030266002
000140 e3 2e 8e bd 1b 2d 17 bd 75 66 99 bd 0d 08 c3 bc
       -0.06942537 -0.03690825 -0.07490245 -0.02380755
000150 5d 80 5d 3b e4 f7 6f 3d 17 86 ef 3c 84 aa 2b bc
       0.0033798434 0.058586016 0.029238744 -0.010477666
000160 b8 06 98 3c 6b 6e e9 bc dd 6d 9d bd ee 83 3f 3c
       0.018557891 -0.028495034 -0.076869704 0.011689169
000170 09 29 7d 3d 6f 61 bf 3d ab 24 13 bd b0 94 3b bd
       0.061806712 0.09344756 -0.03592364 -0.045796096
000180 ba 54 4c bd ca b2 69 3c 05 2f 8a 3d c0 0a 44 3d
       -0.04988549 0.014263818 0.067472495 0.047861814
000190 b7 9b b0 bc 05 60 c2 3d 2d cc 61 3d 81 6a 89 3d
       -0.021558626 0.094909705 0.055126358 0.06709767
0001a0 7e a5 c8 bd 84 be 8f 3d 36 5b d6 3d f1 70 af bd
       -0.0979719 0.0701876 0.10466616 -0.08566464
0001b0 b0 02 46 bd e8 eb 80 bc a9 2c a3 bd 39 6e 82 bd
       -0.048342407 -0.015737489 -0.079675026 -0.063686796
0001c0 22 4a d7 bd 10 47 2d 3d 05 3c 1f 3d 53 34 59 3a
       -0.105121866 0.0423041 0.0388756 0.000828569
0001d0 8a 12 b4 3c 3e 68 d2 bd 1a 0e 06 3d 66 67 29 bd
       0.021981496 -0.10273789 0.032728292 -0.041358374
0001e0 6b 3e 28 3d fe 80 1a bd d6 05 af bd 50 ea d1 3d
       0.04107515 -0.037720673 -0.08546035 0.1024977
0001f0 64 26 3b 3d fd 94 80 bd a0 ab ca 3c b6 7c 4c 3d
       0.04569091 -0.06278417 0.02474004 0.04992362
000200 08 75 97 bc 01 84 d9 3c 29 65 b1 bc 4f 9e a9 3d
       -0.018488422 0.026552202 -0.021654682 0.08282148
000210 0a ea e8 bc a1 88 01 3d 2e 07 38 3c 1b f8 02 3d
       -0.028431911 0.03162444 0.0112321805 0.031974893
000220 3a e5 f1 3c f0 89 ba 3c d3 3b 39 3c f1 b1 35 3d
       0.029528249 0.022770852 0.011305767 0.04435915
000230 b4 ef 56 3c c3 03 c6 bd 6f 07 64 bd e3 16 50 bd
       0.013118673 -0.09668686 -0.05567115 -0.050803076
000240 5c f2 3a bd 92 a1 c3 bd 89 19 48 3d b7 11 dd bc
       -0.04564129 -0.095523015 0.048852477 -0.026985986
000250 f4 5f 08 bd 6c 49 65 bc 93 f5 54 3d d3 bb 98 bc
       -0.033294633 -0.013994556 0.05199201 -0.018644249
000260 eb bd 73 3d ca 53 29 bd be fb ac 3c e8 2b be bd
       0.05950729 -0.041339673 0.021116134 -0.09285718
000270 7f a8 be 3d ee 3c 8c 3d 2a f0 12 bd d3 38 0c 3d
       0.09309482 0.06847559 -0.03587357 0.03423388
000280 5e cc b8 3d ba 5b 4b 3d 2b 74 9b 3d 17 29 41 bc
       0.09023355 0.049648024 0.07590517 -0.011789582
000290 87 ee fa 3c db 63 bf 3c 08 b9 c6 bb e2 7d 10 3c
       0.030631317 0.023363044 -0.006064538 0.008819075
0002a0 be 05 e8 3b d6 45 72 3d 20 08 ae bc 26 96 1c bd
       0.0070807626 0.059148632 -0.021244109 -0.03822913
0002b0 1a c7 42 3c 4e 92 c8 3b 01 ef 50 3c b3 0c e2 3c
       0.01188829 0.0061209565 0.0127522955 0.027593946
0002c0 6c 02 d0 3b b1 39 56 3d 3e 94 ae 3d 5f 32 5a bd
       0.006347945 0.052301113 0.08524369 -0.053270694
0002d0 8e 13 c8 bc 9d 8b 02 bd 18 c3 a9 bd 3d e3 61 3d
       -0.024423387 -0.031871427 -0.08289164 0.055148352
0002e0 98 f5 8d bd 2a 76 4f 3d 2f 23 57 3d 81 a4 d1 bd
       -0.06931609 0.0506498 0.052523788 -0.10236455
0002f0 c2 cf 1b bd 5e b0 0f bd c2 dd 28 3d c8 c3 85 bd
       -0.03803993 -0.035080306 0.04122711 -0.06531483
000300 88 b6 47 3d 09 56 37 bd f8 b4 d6 3c 40 1f c6 3b
       0.04875806 -0.044759784 0.02620934 0.0060462058
000310 ca 2d 97 3d 1d 9f 02 3b 21 c5 47 bd 15 4f 0d 3d
       0.073817804 0.0019931265 -0.04877198 0.034499247
000320 58 57 d1 3c 4c 80 84 bc d5 0d 06 3d 11 7e 3f 3c
       0.025554344 -0.016174458 0.032728035 0.011687771
000330 53 d4 47 bd bb 54 68 3d b1 f3 5e bd f7 c6 b8 bd
       -0.048786473 0.05672143 -0.05443162 -0.090223245
000340 fd d2 65 bd 8d ae 4e bd 16 4c a7 3d 15 c5 98 3d
       -0.056109417 -0.050459433 0.08168809 0.074594654
000350 37 f5 b9 3c 67 59 43 3c 97 31 83 3d 46 7e 8c bd
       0.022699935 0.011923171 0.06405943 -0.06860022
000360 90 43 fb bc b2 6d a1 3c 1d 7c 07 bd 97 24 08 3d
       -0.030671865 0.019705627 -0.033077348 0.03323802
000370 f8 1f ce bd d7 7b 9d bd d1 06 e0 3c da 39 c6 3d
       -0.10064691 -0.07689636 0.027347 0.09679003
000380 19 b1 de bc f9 8e 4f 3c 00 03 7e bd 24 bd 8c 3d
       -0.027184056 0.012668365 -0.06201458 0.06872013
000390 45 77 19 bd d2 0b 73 bb 25 71 92 3b 47 df 82 3d
       -0.03746726 -0.0037085903 0.0044690543 0.06390243
0003a0 b7 ba 6f 3d 75 06 c8 bd df 98 a6 bc f2 c9 5f bd
       0.058527675 -0.097668566 -0.020336566 -0.05463595
0003b0 9c 9e 93 bd e8 fe bc b9 d3 54 cb 3d 09 2b 0a bd
       -0.07207987 -0.00036048074 0.09928288 -0.033732448
0003c0 79 56 b6 3c 3b 27 4e bc 02 3b ab 3d f0 95 a3 bd
       0.02225803 -0.012582595 0.08360864 -0.07987583
0003d0 1b 10 a0 bd 0b c1 cb bc a7 33 82 3d f1 cb 29 3c
       -0.07815572 -0.024872323 0.06357508 0.010363565
0003e0 8b a0 b3 3d c8 61 1c 3c 27 71 ee 3b 13 77 8e 3d
       0.087708555 0.009544797 0.0072766724 0.06956305
0003f0 42 78 c5 bc 7e ef 96 3d 4f 65 78 bb 87 5a a2 bd
       -0.024105195 0.07369898 -0.0037902182 -0.07927423

transformer_encoder.layers.0.self_attn.in_proj_container.query_proj.bias f4 [128]
000000 f3 a7 a6 3d 94 95 ee bb 45 e8 72 bd 77 9f a9 3b
       0.081375025 -0.0072810147 -0.05930354 0.0051764804
000010 14 c9 9b bc 2c 92 fc bc 28 ca 34 bd 88 c6 f7 bc
       -0.01901678 -0.030831419 -0.044138104 -0.030246034
000020 3c 6e c9 3d dc a1 65 bc ba fd f9 b8 4a 76 60 bd
       0.09835479 -0.014015641 -0.000119205055 -0.05480031
000030 3d 22 d3 3c 7c 31 0c 3d cc 70 75 3d ae 29 84 bc
       0.025773162 0.03422688 0.059922025 -0.016133156
000040 c0 f7 53 bd 43 39 56 bd ce 33 82 bc a9 de 81 3d
       -0.051749945 -0.052300703 -0.015893843 0.06341297
000050 70 9f e3 bb 73 bb 42 3d b5 0d 62 3d d1 59 46 bd
       -0.0069464967 0.047542047 0.055188853 -0.0484255
000060 0d ef e6 3b 38 c9 ee 3a ba 1e 8e bd 8a 14 44 3d
       0.00704754 0.0018217927 -0.069394544 0.04787115
000070 d1 cc 56 3d ca 1d 2a bd 7d a3 96 bc d3 bb 0b 3c
       0.052441422 -0.041532315 -0.018388504 0.0085286675
000080 e0 2a a5 bd cb bd 22 bd bd b8 09 3d 9a 87 df bc
       -0.080648184 -0.039731782 0.033623446 -0.02728634
000090 8f e6 70 bd 69 18 1f bd 12 53 b7 bc eb 11 3a 3d
       -0.058813628 -0.03884164 -0.022378478 0.045427244
0000a0 53 71 90 bd c5 62 d2 bb 50 06 31 bd 71 d3 3e 3d
       -0.07052865 -0.0064204657 -0.04321891 0.046588365
0000b0 22 e2 35 bd 5e a3 2f bd 21 e8 4a 3d 8b 01 c1 3d
       -0.04440511 -0.04288041 0.04953778 0.094241224
0000c0 14 dc 3b 3c be d2 6d bc 8c 55 ea bc cf 2c b4 3d
       0.011466045 -0.014515577 -0.028605245 0.08797609
0000d0 83 d3 bd bd 07 9e 1e 3d 70 4d 41 3d 0d 3b 8c bc
       -0.09268858 0.038724925 0.04719299 -0.017118001
0000e0 76 b7 9d bd eb c4 70 3b 15 08 a9 3b 80 4c bb 3d
       -0.07701008 0.0036738466 0.005158434 0.091454506
0000f0 30 7a 7c bd 98 bc 72 bd a8 45 e7 3c 1b 96 d4 bd
       -0.061639965 -0.05926189 0.028231457 -0.10380193
000100 00 17 2b bd eb 71 42 3d a9 d9 c6 bd 4f 95 a1 bb
       -0.04176998 0.047471922 -0.09709484 -0.004931129
000110 6e 5a 71 3d 62 31 91 bc da ea e4 bd a8 7b 8b 3d
       0.05892413 -0.017723743 -0.11177607 0.06810695
000120 2f 43 87 bd 52 8e ea 3b dd 8b d1 3d c5 6c f7 3c
       -0.06604611 0.007158079 0.10231755 0.030203233
000130 9d 8b 8a 3d 37 bf a7 3c 4d 0f a3 3d 67 92 32 3d
       0.0676491 0.02047692 0.07961903 0.04359665
000140 5f c8 00 bd 56 18 c4 bd e5 02 45 3d fd ad 93 3c
       -0.03144109 -0.09574954 0.048098464 0.0180273
000150 9f c4 81 bd 6e 5c 8b 3d 65 bd bf 3d 08 dc 4e bd
       -0.063363306 0.06804739 0.09362296 -0.050502807
000160 06 29 4d bc 0a b7 18 bd c6 f7 81 bd 7f 44 a2 bd
       -0.012521988 -0.037283935 -0.06346087 -0.07923221
000170 13 ac 0d bc e1 15 44 bd 3e 44 1e bb c5 74 3a 3d
       -0.008646983 -0.047872428 -0.0024149562 0.045521516
000180 48 6d 45 bb b0 ff c4 3d 47 8c 25 bd 1c 49 bb bc
       -0.003012495 0.09619081 -0.040416982 -0.02286201
000190 02 e9 91 bd 2a 22 d1 3d 67 2f 96 3d b6 4e 11 3c
       -0.07124521 0.102115944 0.0733326 0.008868864
0001a0 76 3f 34 bd e6 12 d8 bd f6 1f a4 3d 9f a5 a9 3d
       -0.044005834 -0.105504796 0.080139086 0.08283543
0001b0 3f 14 80 bd 5c 3f 00 3c c3 ac b1 3d 20 f1 86 bc
       -0.06253862 0.007827606 0.0867553 -0.0164724
0001c0 28 cf 8c bd d3 b9 14 bd 03 3a 01 3c 60 90 a1 3b
       -0.068754494 -0.03631003 0.007887366 0.004930541
0001d0 00 13 b6 bd b4 58 82 bd eb 36 c0 bc 76 0c 45 3d
       -0.08890343 -0.06364575 -0.023463687 0.048107587
0001e0 12 57 df bc e6 24 1f 3c 7b b7 bd bd 35 e6 ed 3c
       -0.027263198 0.009713387 -0.09263512 0.029040435
0001f0 bc b0 1f bd 58 be 00 3c 65 25 81 3d 59 86 88 3d
       -0.038986906 0.0078578815 0.063059606 0.0666625

transformer_encoder.layers.0.self_attn.in_proj_container.key_proj.weight f4 [128, 128]
000000 a8 71 17 3d 0b 78 a8 bd 8e 66 f8 3b 94 d2 86 3c
       0.036973625 -0.082260214 0.007580585 0.016457833
000010 85 14 af 3d 33 8e 4d bd 03 6b 8e bc 04 35 80 bc
       0.08548836 -0.05018444 -0.017385012 -0.01565028
000020 87 3c c1 3b a2 15 b2 3c 94 49 10 bd 1b f1 3e bd
       0.005897108 0.021738831 -0.03522642 -0.046616655
000030 ba c8 a9 bd 99 c0 f5 3c 17 6d c4 3c 24 69 8d 3d
       -0.08290239 0.029999064 0.0239778 0.069048196
000040 75 87 0d 3d 8c 1d 4d bd 92 65 eb bc 7e 78 95 bc
       0.03455301 -0.050077006 -0.028734956 -0.018245932
000050 e2 c1 aa 38 53 c9 50 3c 4d c0 aa 3d ec 76 c2 bd
       8.142345e-05 0.012743312 0.0833746 -0.09495339
000060 b7 41 06 bd 9f 63 98 bd 7a 6d 95 3c 32 8b b3 3d
       -0.032777514 -0.07440876 0.018240679 0.08766784
000070 7c ce ed bd 5e f9 73 3d 97 3f 9b bd 39 99 a0 bc
       -0.116116494 0.059563987 -0.07580488 -0.019604312
000080 c9 bc 81 3c 6d 52 81 bd 9d 0c 36 3d 9d 55 65 3c
       0.01583709 -0.063145496 0.044445623 0.013997463
000090 ee 20 82 3d 4f e7 15 3d 6c f7 33 3d 98 19 66 bd
       0.06353937 0.036597546 0.04393713 -0.05617675
0000a0 20 5c c8 bc 63 fe e0 bc 16 bd 85 bc 2c 7e af 3d
       -0.024457991 -0.027465051 -0.016325515 0.08568987
0000b0 a0 a8 73 bd db ac e6 bd 1a b7 8d bd 6b b6 8a 3d
       -0.059486985 -0.11263438 -0.069196895 0.06773075
0000c0 30 4d a7 3d 56 88 17 bd 96 05 79 3b 6c 85 74 bd
       0.08169019 -0.036995254 0.0037997714 -0.059697554
0000d0 e0 6d cb 3c 5a d3 3e bc 33 8c 80 3b 8c ec 15 3d
       0.024832666 -0.01164707 0.003922963 0.03660254
0000e0 1d f5 93 bd 3c 9b 0b 3d 6d 85 a4 bc d0 2d ae 3c
       -0.07224486 0.03408359 -0.020083154 0.02126208
0000f0 7e 84 49 bd ed 0d 6a bd cd 79 a8 3d ba ab 0d 3d
       -0.04919862 -0.057142187 0.08226357 0.0345876
000100 08 5f df bc 78 64 e0 3c 6a 72 8a bb 71 a9 30 3c
       -0.027266994 0.027391657 -0.004225065 0.0107825855
000110 e6 2d 48 3d 03 cd b4 bd 1d 5a 5d 3d 50 93 68 bd
       0.048871897 -0.088281654 0.054041017 -0.056781113
000120 e5 50 71 3d c2 9a 8e 3d 24 d7 97 bd 48 fa f2 3c
       0.058915038 0.069631115 -0.07414082 0.029660359
000130 c5 45 3c 3d 44 09 ec bb 76 69 a6 3d c7 19 a9 bb
       0.045964975 -0.007203253 0.08125584 -0.0051605436
000140 1c fd 0f 3d de 0e 29 3d 65 29 89 3d 42 94 b2 3b
       0.035153493 0.041273944 0.066973485 0.0054498026
000150 c5 83 62 3d 60 b1 22 bd ac f5 29 3d 8a 7a e2 3d
       0.055301446 -0.03971994 0.041494057 0.11058529
000160 5d b3 bc bd 56 d9 33 bb 48 18 11 bd b9 69 93 3d
       -0.09213898 -0.0027442775 -0.035423547 0.07197899
000170 09 56 6b 3d 53 f0 9b 3d de c1 db bc 43 ed 75 3d
       0.057455096 0.076141976 -0.026825842 0.060040724
000180 40 f9 7f bd de a4 22 bd 6e 33 33 bd cc aa c1 bc
       -0.062493563 -0.03970801 -0.04375022 -0.023641013
000190 ed 5c 98 3d 66 3f e9 3b 8a 45 2e bd 11 d4 69 3d
       0.07439599 0.0071181534 -0.042546786 0.057087008
0001a0 4b 3a 38 3d 85 8b 14 3d 93 85 e8 bb 5c 26 5f 3d
       0.044977468 0.03626587 -0.0070960014 0.05447994
0001b0 0b 40 15 3d cf 53 45 3d 45 c8 7a 3d 28 5f 9a bd
       0.03643803 0.04817563 0.06122615 -0.07537681
0001c0 9f 86 86 bc 80 8f 8c 3c 4a fa 58 3d 0d 77 27 bd
       -0.016421614 0.01715827 0.05297307 -0.04088502
0001d0 6f a1 75 3d 27 70 88 3c 57 1e cb bc 2b e8 bc bd
       0.05996841 0.01665504 -0.02479474 -0.0922397
0001e0 96 3a 85 bd ef cb cf 3d 19 b7 81 bc f1 2f 47 3d
       -0.06505315 0.10146319 -0.015834378 0.048629705
0001f0 4c 29 1b bd fa db 6e bc 17 58 1e bd df ba 39 3d
       -0.03788118 -0.014578814 -0.038658228 0.04534423
000200 2c 8b f1 3c b7 18 7e bd 95 83 c3 3c 28 54 a7 3d
       0.029485308 -0.06203529 0.023866454 0.081703484
000210 49 5e ac 3d 7c 34 53 3d c0 8d 83 3d de d1 88 bd
       0.08416421 0.051563725 0.06423521 -0.06680654
000220 81 36 88 3d 70 6d 22 bd fe b7 a2 3d 6a 64 88 bd
       0.06651021 -0.03965515 0.0794525 -0.066597775
000230 8c 67 97 bd 65 fd d0 3d aa 36 e1 bc 59 22 b3 bc
       -0.07392797 0.10204581 -0.027491886 -0.021866964
000240 f4 30 af bd a8 84 84 bc 84 d3 79 3d f6 c4 25 bd
       -0.08554259 -0.016176537 0.060992733 -0.04047104
000250 0f ec 9e 3c b7 eb 98 3c 13 83 45 3c 70 eb ab 3d
       0.01939967 0.018667085 0.012055176 0.083945155
000260 b6 ec 8b 3d af 50 22 3c 6b 5b 4d bd 71 4b e8 bc
       0.068322584 0.009906932 -0.05013601 -0.028356286
000270 52 5f 73 bd e9 81 c7 3c 13 28 50 3c 76 be 8a bd
       -0.059417076 0.024353938 0.012704867 -0.06774609
000280 47 64 ac 3d 26 8c b8 3d 15 74 aa 3d 96 cc 96 3d
       0.08417564 0.09011106 0.08322922 0.073632404
000290 63 ea dc bc 6e cc 8b bd 5a 98 12 3d 25 23 a7 bd
       -0.026967233 -0.06826101 0.035789825 -0.08161
0002a0 46 3a 44 3b ec e8 ce bc 03 65 2b bd d9 03 1c bd
       0.002994196 -0.02525755 -0.04184438 -0.038089607
0002b0 d8 fd 0d bd 23 d4 cf 3d ee 36 d5 3c a2 23 32 3c
       -0.034665912 0.10147884 0.02602717 0.010872753
0002c0 35 c0 65 bc a7 c5 1b 3d 8c 53 43 bd 92 c0 86 3d
       -0.0140228765 0.038030293 -0.0476871 0.065796986
0002d0 df d4 c0 bd c2 5d 30 bd f1 79 ab bc e8 0a 87 3d
       -0.09415602 -0.043058164 -0.02093217 0.06593877
0002e0 76 ba 09 bc d3 b1 cd bd f0 4b a5 3d a5 4e 99 3d
       -0.008406272 -0.10043683 0.080711246 0.074857034
0002f0 a6 ce 1f bd fe ae 93 bd db a2 ce 3c 22 29 35 3d
       -0.039015435 -0.072111115 0.02522414 0.04422868
000300 1b 1e 76 bd 36 6c ec bc a3 76 cc 3c 22 4a b5 3d
       -0.060087305 -0.028860193 0.024958914 0.0885203
000310 ec 1b 4c 3d 08 0e 31 bd 3d 1e 68 3d 11 c2 c7 3d
       0.049831316 -0.043226272 0.056669462 0.09753812
000320 01 b2 dc 3c b6 81 21 bd f2 22 58 3d d9 ab 61 3d
       0.026940348 -0.039430343 0.0527677 0.055095527
000330 72 50 89 3d 34 85 7a bc 44 49 6a bc eb 72 df bc
       0.06704797 -0.015290547 -0.014299694 -0.027276477
000340 28 38 7c 3d fa e0 c1 bd 13 4f 25 bb f8 6c 14 3d
       0.061576992 -0.09466739 -0.0025224134 0.036236733
000350 4d c3 0c bd 92 42 de 3c 45 ae ef bc 28 75 7d 3d
       -0.03436594 0.027131353 -0.029257903 0.061879307
000360 be e5 9e bd ed f4 54 3d 34 37 6d bd e5 2c 6b b9
       -0.077586636 0.051991392 -0.057913974 -0.00022428071
000370 de 5e ae bd c5 ae dd 3c f2 c6 cc 3c 92 bc 6c 3d
       -0.08514188 0.027060876 0.024997208 0.057797022
000380 f4 c7 8b bd 9c d6 70 bd 86 a2 01 3b 7e 78 50 bd
       -0.068252474 -0.058798417 0.001978071 -0.05089616
000390 83 22 82 3d 47 39 28 3d e7 37 16 bd d0 5c 4a 3d
       0.06354239 0.04107025 -0.036674406 0.04940492
0003a0 81 d2 6f 3d 4a 13 a2 bd e8 36 87 bc 1d e5 6a bc
       0.05855036 -0.07913835 -0.016505674 -0.014336851
0003b0 c6 9e 4a bd 35 f1 17 3c ed 7c b7 3c 03 56 83 3d
       -0.049467824 0.009273817 0.022398436 0.0641289
0003c0 20 9e 93 3a 5b eb 1e 3d 28 e6 76 3d f1 93 7d bc
       0.0011262335 0.03879867 0.060278088 -0.0154771665
0003d0 df f9 64 3d 6f 51 c6 3c 58 e5 ac ba a7 50 db bc
       0.05590236 0.024208752 -0.0013190908 -0.026771856
0003e0 ed 2e eb 3c 54 80 a5 bd d8 1b 55 bd b1 23 fc bc
       0.0287089 -0.08081117 -0.052028507 -0.030778738
0003f0 ad 69 a3 3c 00 55 62 bc 61 28 a2 bd 71 86 76 3d
       0.019947851 -0.013814211 -0.07917858 0.060186807

transformer_encoder.layers.0.self_attn.in_proj_container.key_proj.bias f4 [128]
000000 e4 a4 cc bc 0e af 41 bd 32 23 63 3d 09 8f b3 3c
       -0.02498097 -0.047286086 0.055453487 0.02191879
000010 d5 82 94 bd fa 4a 9b 3d df e7 95 3c dd 62 a3 3c
       -0.07251517 0.0758266 0.018299041 0.019944603
000020 65 10 85 3d 69 ae 4d bd 61 a4 bf 3b 10 2a 97 3d
       0.06497268 -0.05021516 0.005848453 0.0738107
000030 01 c9 a1 3d ea dc 13 3b 5e 79 e9 bc a4 63 2d 3d
       0.078996666 0.0022562095 -0.028500255 0.042331353
000040 72 e4 42 3d 6a 0c dd bc ca 02 94 3d d1 86 0b 3d
       0.047581144 -0.026983459 0.072270945 0.034064118
000050 08 e5 46 bc cf 0c 95 3d 8f ca 1e 3d 75 48 5f 3d
       -0.012139566 0.07277834 0.038767394 0.05451246
000060 72 0a 80 3c 66 f3 a2 3d eb 3e 16 3d b3 16 df bb
       0.01562998 0.07956581 0.036681097 -0.006808126
000070 61 0a 71 bd d9 64 86 3d 40 d5 b6 bc ef cc a5 bb
       -0.05884779 0.06562204 -0.022318482 -0.0050598304
000080 b2 8c 16 bc 1c dd 1d bd 3e 52 8a 3d 35 77 f6 b9
       -0.009188818 -0.038540944 0.06753968 -0.00047009593
000090 c3 d7 da 3c 13 77 87 3d 95 e3 87 3d de 1e 9c bd
       0.026714211 0.066145085 0.06635205 -0.07623075
0000a0 12 75 4c bd 37 23 9f 3c de f0 71 3d bd 42 e1 3c
       -0.049916334 0.019425971 0.0590676 0.027497644
0000b0 c7 b0 de 3c 56 9b 68 bd 3f 68 17 3d 78 bd 4c bd
       0.027183903 -0.056788765 0.03696465 -0.04998538
0000c0 c6 e5 49 3d 49 0c c3 bb f4 1f 66 bc 94 4f 92 3d
       0.049291395 -0.0059523922 -0.014045704 0.071440846
0000d0 e9 98 c5 bc d8 20 05 3b ec c8 91 3c 93 45 5b bc
       -0.024120765 0.0020313766 0.017796002 -0.013383287
0000e0 0e 99 9b 3d 25 d4 4c 3d 71 8d 88 3d fe 71 70 bd
       0.07597552 0.050007004 0.06667603 -0.05870246
0000f0 1a d6 48 3d 32 0d a3 3c ee 35 a6 bb 7a f8 2b bc
       0.04903231 0.019903753 -0.005072347 -0.010496253
000100 17 38 d8 bc b8 6f 2a bb fd 6f 38 3d 1f b7 a3 bd
       -0.026393933 -0.002600653 0.045028675 -0.07993912
000110 d7 65 a2 bc b0 5a b0 bd 40 0b a4 3d 9e 45 8d bd
       -0.019823952 -0.08611047 0.08009958 -0.06898044
000120 9a 98 93 3d 85 f2 5c 3d bd 72 0e bd 04 ee 91 3d
       0.07206841 0.053942222 -0.03477739 0.07125476
000130 2c 1c a5 bd 47 e5 a1 bd aa 36 b3 bd 55 ae a4 bc
       -0.08062014 -0.07905059 -0.08750661 -0.02010266
000140 fe df 83 bd 26 12 71 3d 15 2e 52 bd a5 72 df 3c
       -0.064392075 0.0588552 -0.05131348 0.027276346
000150 19 2f 1f 3d ee cd 82 bd 0b c4 e7 3c 62 3b 84 3b
       0.038863275 -0.06386934 0.028291723 0.0040353993
000160 4d b6 8e bc 35 9b 1c 3c d1 7f ae 3d 71 05 36 bd
       -0.017420912 0.009558489 0.08520473 -0.044438783
000170 02 47 52 3d 3a a7 88 bd 78 a9 aa 3d 29 56 4d bd
       0.05133725 -0.06672521 0.08333105 -0.050130997
000180 36 53 15 3c ec 78 42 bd b8 c6 8d 3d 36 6f 13 bd
       0.009114077 -0.0474786 0.06922668 -0.03599473
000190 e9 f5 85 bd fb 9b 90 3d 4a 01 ce 3c ec 3c 1f bc
       -0.06541044 0.07061001 0.025147099 -0.009719115
0001a0 4f 3b 62 bc 6e d0 85 bc a4 63 72 3d 3e 74 a1 3d
       -0.013808086 -0.016334739 0.059177056 0.078834996
0001b0 44 65 9f bd 99 de 96 3d de f1 48 3d 83 d7 8f 3c
       -0.07782987 0.07366676 0.049058788 0.017558819
0001c0 6d ec 1a bd 2c 07 93 3c 7d f1 e8 bc ff 4c ac bd
       -0.03782313 0.017947756 -0.028435463 -0.08413123
0001d0 f0 47 f4 3c 28 1c 18 3d 3e 3f b2 3d 8b ae f5 bc
       0.029819459 0.037136227 0.08703469 -0.029990455
0001e0 d4 d8 ad bd 4f f3 63 bd 19 c6 05 3d 42 af 85 3d
       -0.08488622 -0.05565196 0.032659624 0.065275684
0001f0 44 f6 30 3d 8d ad 82 3d 0c dc be 3b 9a 53 7c 3c
       0.043203607 0.063807584 0.0058245715 0.015400792
