data_models/anneal_128/experiment_1/checkpoints/params.pt (torch, 745638 bytes, 42 tensors)

numerical_encoder.weights f4 [6, 128]
0.2525769 -0.67468166 0.6350925 -0.87660855 0.09886345 1.1187971 -1.344533 -0.9167669
1.4184432 0.97364485 0.3343469 -1.0253309 -0.75527704 -1.3412684 2.2567844 0.61399096
0.9320991 -0.19706379 -0.8887441 -1.674152 0.23628068 1.0878288 -0.7966008 0.8292331
1.3928341 0.63091 1.6575202 -0.46478528 0.6529823 0.5992289 -0.09912869 -0.19649199
-0.5987141 -0.62555474 1.0247782 0.79617345 1.0978514 1.6785579 -0.75681716 -0.038101893
-1.4989629 0.7254249 -0.18235624 -0.07098382 0.76055765 0.047771156 0.18008803 0.13252304
-0.2228417 -0.403519 0.23097752 -1.6865935 -0.38911986 0.6533938 -0.90083236 0.8294999
-0.028449437 -0.34238642 -0.30782846 0.79242325 1.6700892 -0.2926196 0.97622186 -0.27347353
-0.9116655 0.6022157 0.5993541 -0.81489146 -1.1869451 1.1976254 0.89116657 -0.02184908
0.36714384 -0.17901823 -1.7201581 0.017413104 -0.36192372 0.4107826 0.21701695 0.18203071
0.8019227 -0.22522545 -0.28480887 0.7104442 1.3294075 0.21099417 0.32826144 -0.7785089
0.15652476 1.4477985 0.8201987 0.6747292 1.0577295 -0.19750145 0.3103449 -1.0043802
-1.258774 -0.95659405 0.13472763 0.14595552 0.11775373 -1.0899582 1.2231869 0.90605783
-0.6735364 -0.5423287 -1.8368183 -0.10811052 1.2237587 -1.3045458 0.6988927 -0.8404296
-1.1251955 0.18899594 -1.602467 -1.0438921 -1.0378596 0.086200975 -0.6848582 1.0383307
-0.30157655 -0.18892978 0.8052858 -1.5171205 1.5520912 -0.828655 -0.19328418 -1.275628
0.124943934 -1.294825 -0.45213115 1.1443799 -0.44037348 -0.5291545 -1.199746 -0.43905297
0.9675921 0.5397733 1.7955279 0.616695 -1.3963 0.7689338 -0.8563236 -1.1188062
-0.90761113 -1.79709 -3.498705 -0.9302827 -1.2797467 -0.013054291 -0.11575914 -2.0883713
-0.43510637 -0.5063771 0.6216699 -1.6535338 -0.74752456 -0.5274325 0.17847179 -2.2665524
-1.2882023 -1.071368 0.28725928 -1.1798797 1.4543574 -2.41633 -1.446951 -0.02043203
0.9751963 1.8748933 -0.4176914 0.982814 -1.4281445 -0.56376517 0.51773554 1.5564094
0.76365405 0.26638559 2.4003751 -0.25146592 -0.74159217 -1.8487715 -1.0795437 0.21414652
-0.5309158 0.8708686 -1.5312524 -0.060492966 -0.92521894 -0.19427678 -0.33674845 -2.366915
-0.3778984 0.5962797 -0.3509011 -0.043356128 -0.99545074 -2.0436966 0.8696151 1.3277326
2.1067467 0.62630296 -0.6353039 -0.5794559 0.4629401 0.058614846 0.10959146 0.5698412
-1.6436191 0.31633487 -0.5989807 0.6519257 0.81950337 -1.3238635 1.822002 1.6529665
-0.42917702 -2.155441 -1.2715575 -0.5265749 -1.0122169 -0.71197677 1.8769381 -0.050396066
-0.2387353 -0.12784219 1.2386378 0.43150765 1.0809 -0.09297403 -0.5946774 -2.4370575
-0.8844396 0.24449699 0.81955725 0.32477272 -0.78673375 -0.6268819 -1.3631384 -1.7797437
-0.06722311 1.470042 -1.0600283 -1.7734399 -0.68917793 -0.33437556 0.47992066 0.062427763
0.33586377 -1.4935538 -0.015553684 -0.871151 0.99040055 -0.81459415 -1.6974062 -1.1205479
00000000: c251 813e f0b7 2cbf 6c95 223f 6b69 60bf
00000010: ec78 ca3d be34 8f3f a819 acbf 3cb1 6abf
00000020: 8c8f b53f ca40 793f 842f ab3e 0b3e 83bf
00000030: d659 41bf afae abbf 286f 1040 832e 1d3f
00000040: 0c9e 6e3f 17cb 49be bc84 63bf 9d4a d6bf
00000050: 90f3 713e f93d 8b3f 08ee 4bbf 9f48 543f
00000060: 6348 b23f 5183 213f 9f29 d43f 56f8 edbe
00000070: d929 273f 1167 193f fc03 cbbd 3235 49be
00000080: 5445 19bf 5b24 20bf ef2b 833f 06d2 4b3f
00000090: 6586 8c3f fcda d63f c5be 41bf bb10 1cbd
000000a0: 04de bfbf 72b5 393f 98bb 3abe f75f 91bd
000000b0: e8b3 423f b0ab 433d ff68 383e 1fb4 073e
000000c0: 9d30 64be 0b9a cebe 5f85 6c3e 4ce2 d7bf
000000d0: b83a c7be d144 273f f39c 66bf 1b5a 543f
000000e0: cb0e e9bc 464d afbe b19b 9dbe 40dc 4a3f
000000f0: 7cc5 d53f 3cd2 95be ade9 793f b904 8cbe
00000100: e962 69bf cf2a 1a3f 456f 193f ba9c 50bf
00000110: d1ed 97bf ca4b 993f 7e23 643f d8fc b2bc
00000120: 47fa bb3e 8e50 37be 242e dcbf eda5 8e3c
00000130: 114e b9be 1952 d23e b139 5e3e 4266 3a3e
00000140: ce4a 4d3f 80a1 66be 78d2 91be acdf 353f
00000150: 062a aa3f db0e 583e e211 a83e 5c4c 47bf
00000160: 0748 203e 7651 b93f 8bf8 513f 0ebb 2c3f
00000170: ae63 873f d23d 4abe 87e5 9e3e 888f 80bf
00000180: 821f a1bf 59e3 74bf 0af6 093e 5d75 153e
00000190: de28 f13d c083 8bbf 6391 9c3f 68f3 673f
000001a0: e26c 2cbf 0ed6 0abf dd1c ebbf 0c69 ddbd
000001b0: 20a4 9c3f 5bfb a6bf a2ea 323f 6526 57bf
000001c0: 6806 90bf 2788 413e a31d cdbf 429e 85bf
000001d0: 95d8 84bf 238a b03d de52 2fbf 05e8 843f
000001e0: 3e68 9abe cf76 41be 3627 4e3f 0131 c2bf
000001f0: edaa c63f bc22 54bf 4aec 45be c747 a3bf
00000200: 9be2 ff3d d3bc a5bf bc7d e7be 0a7b 923f
00000210: a278 e1be ab76 07bf 4791 99bf 8dcb e0be
00000220: 1eb4 773f 952e 0a3f dcd3 e53f b9df 1d3f
00000230: f5b9 b2bf d8d8 443f 0638 5bbf 0b35 8fbf
00000240: 3459 68bf 0c07 e6bf c8ea 5fc0 0227 6ebf
00000250: bdce a3bf aae1 55bc 2113 edbd e0a7 05c0
00000260: 43c6 debe eea1 01bf c225 1f3f ffa6 d3bf
00000270: c55d 3fbf d105 07bf 4fc1 363e 320f 11c0
00000280: d0e3 a4bf 9622 89bf a613 933e 4c06 97bf
00000290: 6228 ba3f 27a5 1ac0 b135 b9bf 1361 a7bc
000002a0: 77a6 793f 81fc ef3f a6db d5be b399 7b3f
000002b0: 70cd b6bf ea52 10bf 518a 043f 6c38 c73f
000002c0: d57e 433f b163 883e bf9f 1940 24c0 80be
000002d0: fcd8 3dbf 8ba4 ecbf 7d2e 8abf 3a49 5b3e
000002e0: 19ea 07bf 3ff1 5e3f 1400 c4bf 79c7 77bd
000002f0: 26db 6cbf 7ef0 46be 4b6a acbe 897b 17c0
00000300: e67b c1be c9a5 183f 4fa9 b3be 3296 31bd
00000310: dcd5 7ebf edcb 02c0 189f 5e3f 24f3 a93f
00000320: f0d4 0640 6455 203f 47a3 22bf 3957 14bf
00000330: 7c06 ed3e 1f16 703d 7d71 e03d 1de1 113f
00000340: 1c62 d2bf a5f6 a13e cd56 19bf 9ae4 263f
00000350: f9ca 513f 5c74 a9bf 5d37 e93f 6894 d33f
00000360: 17bd dbbe bff2 09c0 65c2 a2bf 9dcd 06bf
00000370: 5390 81bf 1c44 36bf 823f f03f 1b6c 4ebd
00000380: 0777 74be 10e9 02be af8b 9e3f 92ee dc3e
00000390: ee5a 8a3f 2b69 bebd c73c 18bf c0f8 1bc0
000003a0: a26a 62bf 6b5d 7a3e 81ce 513f 9c48 a63e
000003b0: 6267 49bf 557b 20bf 527b aebf a4ce e3bf
000003c0: 45ac 89bd 562a bc3f 02af 87bf 1400 e3bf
000003d0: f76d 30bf 4633 abbe 29b8 f53e 41b4 7f3d
000003e0: 56f6 ab3e c52c bfbf e1d4 7ebc c003 5fbf
000003f0: e48a 7d3f 3e89 50bf 9b44 d9bf 1d6e 8fbf

numerical_encoder.biases f4 [6, 128]
0.087801024 0.689349 0.09217618 1.4671068 -2.115823 1.7973466 0.6753062 -0.40138152
0.8532106 0.990451 -1.2047646 -1.0182797 1.3836248 -0.22967911 -0.81979585 2.110373
0.11861486 0.47099623 -1.225893 0.41205564 0.069875956 0.4739895 1.8622499 -0.15638855
1.4613634 0.47611088 0.90846616 -0.34825006 -0.352961 -0.42724207 -0.49511954 0.09310766
-0.38552493 -0.2716424 1.6334891 1.1165552 -0.48140514 -1.5190792 -0.6615116 -1.6194136
-0.39877126 0.08438568 -2.1140702 0.5250902 0.6573301 0.5242368 -2.054271 0.12172901
-1.7238405 -2.292744 -1.3350782 -0.6227789 -0.28189 2.3777342 1.9855337 1.4737755
0.6447128 -1.3192999 0.64138925 0.80536467 0.93720883 -0.79511636 -1.4257905 -0.13857774
-0.22940615 0.8681857 0.9511692 0.926745 -1.0855699 0.9162449 -1.324283 1.7083377
-0.40757373 -1.062259 1.1712477 -1.4406574 0.8554218 0.47700143 0.601485 0.27969766
-0.5258508 -1.1711621 1.071226 -1.5259172 -0.5056695 -0.95316994 -1.5606285 0.9037899
-0.4022253 0.22503756 -1.1549813 2.319834 -1.1610249 0.39163384 0.6315192 0.028275117
0.14924362 -0.9725672 -0.7110812 -1.8629949 0.07705759 -0.26981997 -0.57503825 -0.92322034
-1.4620193 0.51709044 0.48092294 0.5749644 -0.0809928 -0.552118 -0.7964587 -0.07911402
1.8883803 -0.8525624 -0.39781687 0.029047942 0.40623027 -1.639838 -0.95013255 1.6789638
1.1042451 0.55627424 1.8882372 -0.06790762 -0.6084448 0.34215382 0.22349122 0.45440856
1.792236 -1.0495392 -1.2751126 1.7827486 0.8165841 -0.64971626 -0.7907209 0.66979295
-0.4538893 1.0223179 0.0853557 -0.55131 -0.70924646 -0.43213537 2.6682668 1.1833434
-0.8794516 0.3720289 -1.203271 -1.1305752 -0.0026243913 -0.54738957 0.34435254 -0.48201284
-0.6711778 -1.0583192 -0.4120311 -0.9884737 -0.2164597 -1.2234309 0.06718328 0.53832835
1.1752741 -1.6643889 0.5397951 0.63546824 -0.9927564 0.17223997 -1.9584682 -0.89670324
-0.17435525 -1.6257578 -2.1084507 -0.8707027 -1.3019025 -0.981709 0.087023005 0.119141415
0.53730226 0.09704519 1.0606651 0.48279452 1.5246137 0.107796274 -1.6014833 -0.9386596
-0.35326082 1.6217254 1.0863394 -0.5465891 1.0547422 -1.1810161 -0.7542159 -1.0251925
1.3948498 -0.69119126 -0.29691243 -2.3859925 -1.6527336 -0.022983775 -1.7546024 1.688607
-0.017096093 2.2096252 1.2576201 1.1587334 0.37031588 -1.171003 -1.1489578 0.35757327
-0.8223512 -0.011774926 -0.024001764 -0.3290987 -0.21770528 0.29392594 -0.07221607 -0.49719834
1.7731743 1.2039242 1.2922494 -0.25013527 -0.40146363 -0.48477814 1.3952451 -1.3729589
1.1649386 0.3199268 -2.2986164 0.23185702 -1.7519693 -2.4997494 1.2757609 -0.90500903
-0.8931398 0.029963331 0.7703792 -0.8206544 -0.5151731 -0.42127055 -1.0082175 0.36195704
1.587407 0.10796298 0.6332113 2.1435893 -1.0830953 1.8202212 0.70122296 -0.19200076
-1.1204836 1.0366428 -1.0370834 -2.8712993 -2.2587366 0.4032783 1.7508388 -0.18830277
00000000: 06d1 b33d 2d79 303f ddc6 bc3d 28ca bb3f
00000010: a569 07c0 740f e63f dee0 2c3f e181 cdbe
00000020: 036c 5a3f 328e 7d3f ba35 9abf fd56 82bf
00000030: 9e1a b13f 0031 6bbe 24de 51bf 5a10 0740
00000040: 59ec f23d 6b26 f13e 10ea 9cbf f5f8 d23e
00000050: 201b 8f3d c0ae f23e 345e ee3f 5224 20be
00000060: f50d bb3f cec4 f33e 3d91 683f d54d b2be
00000070: 4eb7 b4be 79bf dabe 4f80 fdbe 3baf be3d
00000080: 8663 c5be b614 8bbe 2c16 d13f 48eb 8e3f
00000090: bc7a f6be 3071 c2bf d358 29bf f248 cfbf
000000a0: bf2b ccbe 66d2 ac3d ed4c 07c0 506c 063f
000000b0: c946 283f 6234 063f 2d79 03c0 0f4d f93d
000000c0: cea6 dcbf 51bc 12c0 d8e3 aabf 706e 1fbf
000000d0: e353 90be cc2c 1840 f825 fe3f ada4 bc3f
000000e0: e60b 253f d2de a8bf 1632 243f 612c 4e3f
000000f0: ebec 6f3f bf8c 4bbf 4e80 b6bf 53e7 0dbe
00000100: 72e9 6abe 6b41 5e3f d37f 733f 293f 6d3f
00000110: f4f3 8abf 078f 6a3f 1b82 a9bf cfaa da3f
00000120: 81ad d0be 1af8 87bf 72eb 953f 7667 b8bf
00000130: ecfc 5a3f 8839 f43e ecfa 193f 8834 8f3e
00000140: 289e 06bf a4e8 95bf ef1d 893f 4151 c3bf
00000150: 8e73 01bf f202 74bf adc2 c7bf c65e 673f
00000160: 79f0 cdbe 3f70 663e 6dd6 93bf 2978 1440
00000170: 779c 94bf 3b84 c83e 3eab 213f 38a1 e73c
00000180: 52d3 183e 2afa 78bf 6b09 36bf 9e76 eebf
00000190: 5fd0 9d3d d825 8abe b535 13bf 2b58 6cbf
000001a0: 7323 bbbf 0a60 043f 883b f63e de30 133f
000001b0: 8edf a5bd 9b57 0dbf b8e4 4bbf 8806 a2bd
000001c0: 72b6 f13f 8841 5abf a7ae cbbe f3f5 ed3c
000001d0: 6afd cf3e 36e6 d1bf e33b 73bf 49e8 d63f
000001e0: e757 8d3f fd67 0e3f c2b1 f13f 2613 8bbd
000001f0: 0ac3 1bbf c92e af3e e2da 643e 3da8 e83e
00000200: fd67 e53f 4d57 86bf e436 a3bf 1b31 e43f
00000210: a80b 513f ce53 26bf af6c 4abf 8d77 2b3f
00000220: 2e64 e8be 50db 823f f8ce ae3d a722 0dbf
00000230: 2d91 35bf d940 ddbe e2c4 2a40 cc77 973f
00000240: bd23 61bf 927a be3e c904 9abf b0b6 90bf
00000250: fbfd 2bbb b921 0cbf fa4e b03e 63ca f6be
00000260: 4fd2 2bbf 0177 87bf bef5 d2be 9d0c 7dbf
00000270: 9da7 5dbe 6299 9cbf 6397 893d e3cf 093f
00000280: 626f 963f b20a d5bf 0330 0a3f 0cae 223f
00000290: 4925 7ebf ad5f 303e 16af fabf 588e 65bf
000002a0: 2f8a 32be d518 d0bf dbf0 06c0 5fe6 5ebf
000002b0: bea4 a6bf 4851 7bbf 1e39 b23d 6a00 f43d
000002c0: a48c 093f a1bf c63d e0c3 873f d830 f73e
000002d0: 8b26 c33f 4bc4 dc3d 68fd ccbf ff4b 70bf
000002e0: 9ade b4be b394 cf3f 2b0d 8b3f 43ed 0bbf
000002f0: cb01 873f 892b 97bf 4b14 41bf 8239 83bf
00000300: 708a b23f e9f1 30bf e804 98be 1ab4 18c0
00000310: c68c d3bf 7848 bcbc d096 e0bf 4624 d83f
00000320: 1b0d 8cbc 806a 0d40 b2f9 a03f 6051 943f
00000330: 0b9a bd3e 6de3 95bf 0d11 93bf d813 b73e
00000340: 9c85 52bf 9feb 40bc 599f c4bc a07f a8be
00000350: 22ee 5ebe 767d 963e 05e6 93bd c890 febe
00000360: 60f7 e23f 301a 9a3f 6e68 a53f bb11 80be
00000370: a48c cdbe d734 f8be 6497 b23f 1ebd afbf
00000380: b51c 953f 72cd a33e 881c 13c0 ed6b 6d3e
00000390: 8840 e0bf e5fb 1fc0 224c a33f acae 67bf
000003a0: cfa4 64bf a975 f53c 9237 453f 6816 52bf
000003b0: 62e2 03bf c6b0 d7be 450d 81bf 6f52 b93e
000003c0: 2730 cb3f b21b dd3d 231a 223f 9130 0940
000003d0: dea2 8abf 02fd e83f 5983 333f d99b 44be
000003e0: 026c 8fbf b6b0 843f 26bf 84bf 5ec3 37c0
000003f0: 248f 10c0 7e7a ce3e 7c1b e03f 71d2 40be

transformer_encoder.layers.0.pre_norm_1.weight f4 [128]
1.021361 0.9950664 1.0111015 0.9987659 1.0180491 1.0058783 1.0185025 1.0320855
1.0271575 0.9687113 1.0382429 1.0282123 1.0198913 1.0344863 1.021694 1.0429448
1.0428232 1.0135413 1.0355152 1.0172553 1.0104566 1.0123996 1.04232 1.0002073
1.0362127 1.0169463 1.0316149 1.029297 1.0007945 1.0198438 1.0349996 1.0453271
1.0273211 1.0428866 1.0298274 1.0227185 0.98774284 1.0223486 1.0214138 1.0197328
1.0165082 1.0341767 1.0213468 1.0318897 1.0350289 1.0276861 1.0011817 0.9947985
1.0217209 1.0362968 1.0198661 1.0345614 1.0132083 1.0031378 1.0138134 1.0235403
1.0138175 1.0313355 1.0335631 1.0309583 1.0119308 1.0267178 1.0262165 1.026887
1.0184122 1.01304 1.0071679 0.9966536 1.0105047 1.0467602 1.0148243 1.0191683
1.0421165 1.030909 1.024814 1.0366251 1.0206106 1.0105023 1.0016559 1.053204
1.0329139 1.0153687 1.0410094 1.0044297 1.0290395 1.0218278 1.0239049 0.99943507
1.0229144 1.0239178 1.0616676 1.0132746 1.0021025 1.0397048 1.0308621 1.0018135
1.0193598 1.0311954 1.0184757 1.0314199 1.0153849 0.9959983 1.0161477 1.0240362
1.0033345 0.9974779 1.0061417 1.0107065 1.0363286 0.99677175 1.019028 1.0114553
1.0435709 1.0325581 1.0539533 1.0014664 1.0379845 1.0104771 1.0208352 1.0135128
1.0314543 1.0113798 1.0070887 1.0015955 1.0298723 1.0043861 1.0140613 1.041307
00000000: f5bb 823f acbc 7e3f c66b 813f 1faf 7f3f
00000010: 6f4f 823f 9fc0 803f 4a5e 823f 611b 843f
00000020: e679 833f 77fd 773f 25e5 843f 769c 833f
00000030: cc8b 823f 0c6a 843f dec6 823f 377f 853f
00000040: 3b7b 853f b9bb 813f c38b 843f 6c35 823f
00000050: a456 813f 4f96 813f be6a 853f cb06 803f
00000060: 9ea2 843f 4c2b 823f f50b 843f 01c0 833f
00000070: 091a 803f 3e8a 823f de7a 843f 47cd 853f
00000080: 427f 833f 4f7d 853f 62d1 833f 71e8 823f
00000090: b7dc 7c3f 52dc 823f b0bd 823f 9b86 823f
000000a0: f11c 823f e75f 843f 7ebb 823f f614 843f
000000b0: d47b 843f 388b 833f b926 803f 1dab 7e3f
000000c0: c0c7 823f 60a5 843f f98a 823f 826c 843f
000000d0: cfb0 813f d266 803f a3c4 813f 5e03 833f
000000e0: c6c4 813f cd02 843f cc4b 843f 71f6 833f
000000f0: f386 813f 7d6b 833f 105b 833f 0971 833f
00000100: 555b 823f 4bab 813f e1ea 803f b124 7f3f
00000110: 3858 813f 3dfc 853f c3e5 813f 1b74 823f
00000120: 1364 853f d3f4 833f 1b2d 833f 22b0 843f
00000130: 5ea3 823f 2458 813f 4336 803f 64cf 863f
00000140: 8636 843f 9af7 813f cc3f 853f 2791 803f
00000150: 91b7 833f 41cb 823f 510f 833f fada 7f3f
00000160: dcee 823f bd0f 833f b9e4 873f fbb2 813f
00000170: e544 803f 0c15 853f 4af3 833f 6d3b 803f
00000180: 627a 823f 36fe 833f 695d 823f 9105 843f
00000190: 22f8 813f bff9 7e3f 2111 823f 9e13 833f
000001a0: 446d 803f b65a 7f3f 40c9 803f d55e 813f
000001b0: 6aa6 843f 6f2c 7f3f 826f 823f 5e77 813f
000001c0: bb93 853f dd2a 843f f1e7 863f 0d30 803f
000001d0: addc 843f 5057 813f baaa 823f caba 813f
000001e0: b206 843f e574 813f 48e8 803f 4834 803f
000001f0: dbd2 833f b98f 803f c3cc 813f 8c49 853f

transformer_encoder.layers.0.pre_norm_1.bias f4 [128]
0.00852549 0.014090395 -0.006424201 -0.016510455 -0.012102454 -0.00086960365 0.0014650971 0.008865111
0.012941345 0.025807714 -0.007366718 0.019613862 0.017865365 -0.0021974123 0.011489401 0.010551177
0.0042746793 0.009452699 -0.029617544 -0.014805902 0.0017801651 0.013972014 0.02107516 0.012654039
0.011439454 0.018687274 0.0018229247 0.015413877 -0.010486637 0.007905348 0.031593803 -0.015265119
0.0035191316 0.01124927 0.026649417 -3.4300978e-05 -0.0037853243 0.0068063946 -0.020789258 0.0015613915
-0.014023628 0.010045851 -0.0074193864 0.027243108 -0.022223072 -0.01554946 -0.0073440196 0.0034097931
0.03858381 -0.0027641759 -0.008323305 -0.010922037 0.019209746 0.023509834 0.026784392 -0.0027070725
0.008869156 -0.010993437 -0.046070937 0.019831598 0.017899958 0.025615005 -0.00584951 -0.009362879
-0.017485913 0.021650076 0.0071575777 -0.0065456317 0.0024464452 -0.007249268 0.0031750803 -0.0033178849
-0.01387637 0.020026354 -0.0008080307 -0.02582893 -0.025121974 0.007163924 -0.011989232 0.020322345
-0.016159957 -0.014269428 0.0074972217 0.0063488795 -0.0083784005 -0.02320461 0.0010145119 0.0012436298
-0.012577288 -0.0010236684 -0.036252435 -0.0033458078 -0.023944907 -0.03191213 0.017237091 -0.017674258
0.018265665 0.0030995994 -0.021790514 -0.01485906 -0.006024899 0.0058292677 -0.008317979 -0.034349956
-0.008379547 0.0007675083 -0.007823675 -0.006470427 -0.016372144 0.004746185 -0.006517931 -0.017001001
0.027744286 0.006789454 -0.018223442 0.015763726 -0.0013773948 0.014681116 -0.01886455 -0.02370329
0.0014975704 0.043344967 -0.015079995 -0.01558209 0.021407427 0.0011068926 0.005402106 0.0009151297
00000000: 7fae 0b3c 66db 663c 1b82 d2bb ef40 87bc
00000010: 5f49 46bc 1df6 63ba 8008 c03a f83e 113c
00000020: ef07 543c b36a d33c 8264 f1bb 40ad a03c
00000030: 635a 923c 7602 10bb 0a3e 3c3c d8de 2c3c
00000040: 9c12 8c3b 7edf 1a3c 7ea0 f2bc 7494 72bc
00000050: 6e54 e93a e0ea 643c d0a5 ac3c e352 4f3c
00000060: 8c6c 3b3c 0e16 993c 34ef ee3a 7c8a 7c3c
00000070: 25d0 2bbc 6f85 013c 8168 013d 8d1a 7abc
00000080: 3ba1 663b dc4e 383c e14f da3c 65de 0fb8
00000090: 3413 78bb 2d08 df3b 3c4e aabc 9ba7 cc3a
000000a0: 5cc3 65bc 5a97 243c 531e f3bb f02c df3c
000000b0: 290d b6bc 2ac3 7ebc 1aa6 f0bb d676 5f3b
000000c0: 0f0a 1e3d 2d27 35bb 795e 08bc 58f2 32bc
000000d0: c25d 9d3c b297 c03c f16a db3c 2469 31bb
000000e0: f04f 113c d11d 34bc e1b4 3cbd e075 a23c
000000f0: efa2 923c 8fd6 d13c 3fad bfbb c366 19bc
00000100: 9e3e 8fbc 805b b13c 1d8a ea3b bd7c d6bb
00000110: 8a54 203b 448b edbb 0215 503b df70 59bb
00000120: b759 63bc 4f0e a43c 06d2 53ba 3197 d3bc
00000130: 99cc cdbc 5abf ea3b 7c6e 44bc 0c7b a63c
00000140: e361 84bc 52ca 69bc 41ab f53b 430a d03b
00000150: 8f45 09bc 9817 bebc 5ff9 843a 4b01 a33a
00000160: f810 4ebc 9d2c 86ba 6f7d 14bd 5745 5bbb
00000170: 1c28 c4bc 4bb6 02bd cd34 8d3c 9bc9 90bc
00000180: e0a1 953c a622 4b3b 0582 b2bc 6a73 73bc
00000190: 846c c5bb 7103 bf3b 2248 08bc 8ab2 0cbd
000001a0: 5e4a 09bc 9c32 493a df2e 00bc e005 d4bb
000001b0: e01e 86bc e385 9b3b 5e94 d5bb af45 8bbc
000001c0: fc47 e33c 117a de3b 5449 95bc ee22 813c
000001d0: b389 b4ba 1089 703c d489 9abc 672d c2bc
000001e0: 204a c43a 7e8a 313d 1512 77bc 064c 7fbc
000001f0: a15e af3c 2715 913a 2604 b13b 51e5 6f3a

transformer_encoder.layers.0.pre_norm_2.weight f4 [128]
0.9956567 1.0097 0.99527174 0.99865687 1.0082865 0.9991697 1.0018628 1.0072418
1.0312127 0.9826703 1.0087214 0.9983061 0.9920958 1.008078 1.002682 1.0004786
1.013392 0.99051774 1.0078455 0.9830201 1.0076848 1.0274427 1.0099692 0.99377906
1.0082642 0.9788234 1.0063006 1.0081887 0.9915647 1.0188389 1.0091279 0.98742163
1.0027193 0.98238385 0.9994236 0.9881922 0.9838455 0.9835091 1.0028672 0.99683034
1.0138018 1.0207982 1.0316024 1.0151657 1.0238383 0.99861807 1.0105692 1.0223047
1.0332813 1.0064291 1.0102926 1.0051877 0.9947226 0.987561 0.9979346 1.012068
1.0199475 0.9857542 0.9982598 0.9910993 1.0072021 1.0085504 1.0052049 1.008676
1.010357 0.9843914 0.9761465 1.0071263 1.0009927 1.0103401 1.0028025 1.0071946
1.0048188 0.9916115 0.9929752 1.0163893 1.0106577 0.9984261 1.0048641 0.96842957
1.0057535 0.99906826 0.99797565 1.0046384 0.9943571 0.9802257 0.999242 1.0242082
0.9822684 0.9982233 1.0041137 1.0181957 0.9941132 1.0047253 0.9744285 0.9912138
0.9891342 0.9915644 0.9874067 1.0027438 1.001466 0.9893143 1.0071665 0.9890214
1.0074217 0.97871214 1.0164387 1.017164 0.9956426 0.99175805 1.0095143 0.99150676
1.0053275 1.0156964 1.0306451 0.9884047 1.0049207 1.0006213 1.0176579 1.0297779
1.004997 1.0018866 1.006525 1.0126832 0.9947591 0.9943941 1.0128019 0.9953442
00000000: 5ce3 7e3f d93d 813f 21ca 7e3f faa7 7f3f
00000010: 880f 813f 96c9 7f3f 0a3d 803f 4ded 803f
00000020: c7fe 833f 4890 7b3f c81d 813f fd90 7f3f
00000030: fef9 7d3f b308 813f e257 803f af0f 803f
00000040: d4b6 813f 9292 7d3f 1501 813f 35a7 7b3f
00000050: d1fb 803f 3e83 833f ac46 813f 4e68 7e3f
00000060: cd0e 813f 2c94 7a3f 75ce 803f 540c 813f
00000070: 2fd7 7d3f 5069 823f 1a2b 813f aac7 7c3f
00000080: 1b59 803f 827d 7b3f 3ada 7f3f 2afa 7c3f
00000090: 4cdd 7b3f 41c7 7b3f f45d 803f 4630 7f3f
000000a0: 42c4 813f 84a9 823f 8c0b 843f f3f0 813f
000000b0: 220d 833f 6fa5 7f3f 555a 813f e1da 823f
000000c0: 9042 843f abd2 803f 4551 813f fea9 803f
000000d0: 24a6 7e3f ccd0 7c3f a478 7f3f 728b 813f
000000e0: a48d 823f 635a 7c3f f48d 7f3f afb8 7d3f
000000f0: 00ec 803f 2e18 813f 8eaa 803f 4c1c 813f
00000100: 6153 813f 1301 7c3f bde4 793f 84e9 803f
00000110: 8720 803f d352 813f d55b 803f c1eb 803f
00000120: e79d 803f 40da 7d3f 9f33 7e3f 0b19 823f
00000130: 3b5d 813f da98 7f3f 639f 803f 00eb 773f
00000140: 88bc 803f f0c2 7f3f 557b 7f3f fe97 803f
00000150: 308e 7e3f 12f0 7a3f 53ce 7f3f 4119 833f
00000160: f175 7b3f 908b 7f3f cc86 803f 3d54 823f
00000170: 347e 7e3f d79a 803f 2574 793f 30c0 7d3f
00000180: e637 7d3f 2ad7 7d3f afc6 7c3f e959 803f
00000190: 0a30 803f b443 7d3f d5ea 803f 8230 7d3f
000001a0: 32f3 803f e18c 7a3f aa1a 823f 6e32 823f
000001b0: 6fe2 7e3f dbe3 7d3f c437 813f 63d3 7d3f
000001c0: 92ae 803f 5702 823f 2eec 833f 1708 7d3f
000001d0: 3ea1 803f 5c14 803f 9d42 823f c3cf 833f
000001e0: bea3 803f d23d 803f d0d5 803f 9a9f 813f
000001f0: 88a8 7e3f 9d90 7e3f 7ea3 813f e1ce 7e3f

transformer_encoder.layers.0.pre_norm_2.bias f4 [128]
0.01266295 -0.013061552 0.009784801 -0.0027517464 0.010475156 0.001497759 0.0058886004 0.009704876
0.006040226 -0.006195376 -0.002131075 0.01020828 -0.0090218885 -0.02376722 -0.00016788795 0.008529289
-0.0041611125 -0.00677774 -0.008401541 0.012959365 -0.025159882 0.0019254992 0.007691794 0.010356157
-0.011236562 -0.012091968 -0.0019712506 0.008511478 0.005732213 0.009270232 0.010506707 0.010513336
0.00023981718 -0.018076945 -0.0061264494 -0.005491839 -0.003946052 0.016650869 -0.0053686723 0.009055069
-0.009642497 -0.0027867134 -0.00921637 -0.009073391 -0.006772902 -0.0007077877 -0.0046610218 -0.007936497
0.01024391 -0.0050452487 -0.0045578755 -0.003961214 0.003296768 0.0045789396 -0.0001350509 0.015349425
-0.008267279 0.011683429 0.01284161 -0.011365107 -0.0016960537 0.008286777 0.00728712 0.010209194
0.005538244 -0.008000514 -0.013196102 -0.0066334386 0.009245747 -0.012950265 -0.008412916 -0.008722208
-0.0033834733 -0.007970295 -0.011643098 0.005471393 -0.0012731915 -0.011162883 -0.0065019727 0.0030658196
-0.008002212 -0.007937748 -0.010458071 0.0009212088 -0.0016034751 0.0073748594 -0.009070188 -0.0066234143
0.006221326 0.0061529307 -0.007496008 -0.0065051187 0.00069568877 -0.0049900943 -0.017480299 0.01217324
0.0021179079 0.0026203059 -0.0017973392 -0.00082508 0.00026231338 0.010554176 0.00020928938 0.009571585
0.01054042 0.0010413679 -0.023376789 -0.0042039733 0.016997425 -0.0046349796 -0.011586713 0.0087740915
0.0058596497 0.0058896793 -0.006930321 -0.001470904 0.007905702 -0.005078237 -0.0023214628 -0.0013873194
0.007294555 0.004856105 -0.009255445 0.0074504684 -0.009124501 0.01764068 -0.009582446 0.0060150037
00000000: 4378 4f3c 1f00 56bc 6e50 203c a556 34bb
00000010: fd9f 2b3c 7450 c43a 29f5 c03b 3301 1f3c
00000020: 17ed c53b 9502 cbbb 81a9 0bbb a140 273c
00000030: 8bd0 13bc 79b3 c2bc 140b 30b9 6ebe 0b3c
00000040: f159 88bb ce17 debb 9ea6 09bc 8453 543c
00000050: 191c cebc 0861 fc3a 720b fc3b dfac 293c
00000060: 8f19 38bc 641d 46bc 1930 01bb ba73 0b3c
00000070: 4ad5 bb3b 2ce2 173c 5324 2c3c 2140 2c3c
00000080: 6f77 7b39 1a16 94bc 62c0 c8bb e2f4 b3bb
00000090: e24d 81bb 6767 883c b0eb afbb b65b 143c
000000a0: 90fb 1dbc 4ba1 36bb 4200 17bc 8fa8 14bc
000000b0: 38ef ddbb d48a 39ba 7cbb 98bb 1508 02bc
000000c0: 13d6 273c 9d52 a5bb 3b5a 95bb 12cd 81bb
000000d0: 970e 583b ee0a 963b 739c 0db9 287c 7b3c
000000e0: 7b73 07bc da6b 3f3c 9e65 523c b734 3abc
000000f0: 1e4e deba 43c5 073c cbc8 ee3b 7744 273c
00000100: 287a b53b 9614 03bc 7734 58bc 515d d9bb
00000110: 797b 173c 592d 54bc 54d6 09bc 98e7 0ebc
00000120: 43bd 5dbb d795 02bc b1c2 3ebc 5f49 b33b
00000130: 38e1 a6ba 86e4 36bc 800e d5bb ebeb 483b
00000140: b61b 03bc 540d 02bc 5458 2bbc 477d 713a
00000150: b22b d2ba cea8 f13b 209b 14bc 3a09 d9bb
00000160: 44dc cb3b 869e c93b 13a1 f5bb e428 d5bb
00000170: e25e 363a f283 a3bb d832 8fbc 4572 473c
00000180: 99cc 0a3b 70b9 2b3b b294 ebba 2e4a 58ba
00000190: 1b87 8939 6ceb 2c3c b174 5b39 23d2 1c3c
000001a0: bab1 2c3c 827e 883a ae80 bfbc 7cc1 89bb
000001b0: 2f3e 8b3c 07e1 97bb 32d6 3dbc 35c1 0f3c
000001c0: 4e02 c03b 36fe c03b bf17 e3bb 59cb c0ba
000001d0: eb86 013c 5767 a6bb af23 18bb b7d6 b5ba
000001e0: 2a07 ef3b f61f 9f3b 26a4 17bc 0f23 f43b
000001f0: ee7e 15bc 3083 903c b1ff 1cbc 8219 c53b

transformer_encoder.layers.0.self_attn.in_proj_container.query_proj.weight f4 [128, 128]
-0.014426116 -0.019326814 0.021620043 0.018652672 -0.08010374 -0.026967257 -0.013364532 -0.09361691
0.019410178 -0.10050413 0.08487713 -0.10058637 -0.07049032 0.042423118 -0.016384838 -0.08322476
-0.05477594 -0.03335687 0.10319762 -0.0037545378 0.080689386 0.03296001 -0.07868315 0.014036724
-0.045963597 -0.06085499 -0.09403136 -0.11335748 0.013191411 0.14873956 -0.11106302 0.11121304
0.10290888 -0.04934777 -0.085018 -0.00049450225 0.0469426 0.11536613 -0.0042127836 0.075325765
0.077995144 -0.059748556 0.0861421 0.0037026973 0.052367706 0.08853365 0.094222546 -0.105488636
-0.061115153 0.03445822 0.09232288 0.09693122 -0.1079668 0.032746922 -0.04898367 -0.031963557
0.032870624 -0.041573692 0.04292343 -0.12733905 0.044351593 0.023980835 0.012130718 0.03312371
0.027540129 -0.08952387 -0.045231555 0.04596246 -0.056004778 0.032451473 -0.047361333 -0.014476844
0.057630543 0.01708716 -0.10997284 -0.020568484 0.084133424 -0.04521109 0.02735577 0.03520361
0.10503303 0.041403368 -0.11385029 -0.020477287 0.05141842 -0.04565429 -0.06997513 -0.020787124
-0.046508178 0.10104406 0.053576212 -0.09774954 -0.017085537 -0.008657769 -0.025560185 -0.07711374
-0.02302736 0.043441072 0.09534412 0.0403091 0.123329796 0.0055997637 -0.03753462 0.004787575
-0.048732035 -0.109482035 -0.011926372 0.05417376 0.0008803622 -0.068917975 0.07905088 0.11599282
0.026205255 -0.037777152 -0.06901702 -0.027342558 0.05892407 0.08335634 0.0483961 -0.010784571
0.030268306 -0.0063918177 0.001185767 0.008245991 -0.08477767 -0.07330186 0.06555309 0.092674725
0.02990114 0.068971016 -0.082668915 0.031390842 -0.064432554 -0.028767418 -0.0061742477 -0.030183628
-0.06114761 0.0256903 0.08893042 -0.052808158 0.038793392 0.02431335 -0.0266891 -0.07086182
0.0011365337 -0.080824584 -0.042097703 -0.06744492 -0.019061578 -0.0475784 -0.05467932 0.042797204
-0.026701896 -0.033063926 0.06059868 0.041504715 0.0068350895 0.011239557 0.006276609 0.10919375
0.049959894 -0.028773695 0.01143724 -0.06484553 0.01788588 -0.054527022 0.043412853 -0.011058074
0.10934641 -0.050118644 0.025994422 0.059989855 -0.012478389 0.07566053 0.08457095 -0.011855238
-0.046529397 0.08892775 -0.027969813 0.06782109 -0.020039463 0.030448774 -0.06554675 0.084291555
0.0837684 0.035575513 0.03671026 0.059466746 0.04057332 0.0704734 0.06961936 0.11915844
0.032016367 -0.07565341 0.083872646 0.021155793 -0.029103534 -0.06445424 0.07658792 -0.090930425
0.09632664 0.078557655 0.060290873 -0.035188433 0.085570395 -0.020639542 -0.053211056 0.07811457
-0.040907748 0.045731224 -0.030033967 0.08571247 -0.051501628 0.014351725 0.08271788 0.041385554
0.05363778 0.021040367 0.024585983 -0.06936992 -0.010839845 -0.04929003 0.010258348 -0.070472844
0.019403663 -0.0316436 0.0640305 -0.08570935 -0.031744074 0.06266218 -0.008883717 0.04286581
0.047905106 -0.023151541 -0.09384898 -0.08382098 0.070894524 0.012733961 0.08395757 -0.04238996
-0.06904146 -0.055794995 -0.02717938 0.00042055344 0.085364364 0.024614286 0.08431867 0.0016491199
-0.07253279 0.07550051 -0.040194318 0.03673198 -0.028600205 -0.080759645 -0.011177637 -0.07957788
00000000: 845b 6cbc 4453 9ebc 841c b13c 7dcd 983c
00000010: 6e0d a4bd 70ea dcbc e9f6 5abc 39ba bfbd
00000020: 1802 9f3c 1cd5 cdbd 10d4 ad3d 3a00 cebd
00000030: 3b5d 90bd ddc3 2d3d 7f39 86bc be71 aabd
00000040: bc5c 60bd 37a1 08bd 4659 d33d b10e 76bb
00000050: 7a40 a53d 1301 073d a224 a1bd 4afa 653c
00000060: 5344 3cbd 1543 79bd 8393 c0bd f727 e8bd
00000070: ca20 583c 2f4f 183e 0275 e3bd aac3 e33d
00000080: e4c1 d23d e320 4abd eb1d aebd 7ca1 01ba
00000090: e246 403d 1445 ec3d 640b 8abb 6544 9a3d
000000a0: ebbb 9f3d e7ba 74bd 456b b03d f4a8 723b
000000b0: 857f 563d 2151 b53d c0f7 c03d 6d0a d8bd
000000c0: e253 7abd 1024 0d3d c713 bd3d e083 c63d
000000d0: b31d ddbd a321 063d 1aa3 48bd 38ec 02bd
000000e0: 59a3 063d 2d49 2abd 7bd0 2f3d 2b65 02be
000000f0: 04aa 353d 7573 c43c ebbf 463c baac 073d
00000100: d69b e13c 4a58 b7bd b944 39bd 2243 3c3d
00000110: 4465 65bd d6eb 043d f5fd 41bd 4930 6dbc
00000120: 010e 6c3d 5ffa 8b3c 7139 e1bd 3d7f a8bc
00000130: 254e ac3d 442f 39bd 3519 e03c a931 103d
00000140: 8f1b d73d 9496 293d 572a e9bd fcbf a7bc
00000150: 1f9c 523d feff 3abd 1f4f 8fbd c249 aabc
00000160: 5c7f 3ebd 30f0 ce3d bb72 5b3d e930 c8bd
00000170: f8f6 8bbc 51d9 0dbc 9863 d1bc cfed 9dbd
00000180: e0a3 bcbc 44ef 313d c743 c33d 281b 253d
00000190: 5594 fc3d 397e b73b e7bd 19bd 17e1 9c3b
000001a0: 3e9b 47bd 1e38 e0bd d466 43bc 4ee5 5d3d
000001b0: 1bc8 663a de24 8dbd 6ee5 a13d a58d ed3d
000001c0: 67ac d63c 37bc 1abd cc58 8dbd 80fd dfbc
000001d0: 5e5a 713d bbb6 aa3d fd3a 463d c5b1 30bc
000001e0: 3df5 f73c 7472 d1bb bd6b 9b3a 311a 073c
000001f0: ea9f adbd 491f 96bd b340 863d 3fcc bd3d
00000200: 3cf3 f43c ad40 8d3d 524e a9bd af93 003d
00000210: 37f5 83bd a6a9 ebbc 5851 cabb a843 f7bc
00000220: eb75 7abd 7774 d23c 2721 b63d 5e4d 58bd
00000230: d2e5 1e3d ca2c c73c 19a3 dabc 0020 91bd
00000240: bef7 943a 5c87 a5bd a46e 2cbd 9020 8abd
00000250: 0727 9cbc 91e1 42bd 6cf7 5fbd 1f4c 2f3d
00000260: efbd dabc 0a6e 07bd 5236 783d d900 2a3d
00000270: e3f8 df3b 1e26 383c 03ac cd3b f9a0 df3d
00000280: bfa2 4c3d d0b6 ebbc 4363 3b3c bccd 84bd
00000290: 6985 923c ba57 5fbd add1 313d ed2c 35bc
000002a0: 03f1 df3d 3549 4dbd 41f2 d43c ecb7 753d
000002b0: 2872 4cbc e8f3 9a3d 8933 ad3d 793c 42bc
000002c0: 9c95 3ebd c11f b63d f320 e5bc c9e5 8a3d
000002d0: cd29 a4bc b56f f93c 603d 86bd 0da1 ac3d
000002e0: c48e ab3d a1b7 113d 7f5d 163d 6793 733d
000002f0: 3630 263d 5c54 903d 9894 8e3d 5709 f43d
00000300: 9823 033d 2df0 9abd 6cc5 ab3d ea4e ad3c
00000310: 896a eebc 9600 84bd 21da 9c3d bb39 babd
00000320: e746 c53d d6e2 a03d 90f3 763d bf21 10bd
00000330: 883f af3d 4214 a9bc d6f3 59bd 88fa 9f3d
00000340: e28e 27bd aa50 3b3d cb09 f6bc 058a af3d
00000350: 5ff3 52bd 7f23 6b3c fe67 a93d e683 293d
00000360: 4ab3 5b3d d95c ac3c 8b68 c93c d111 8ebd
00000370: 9b99 31bc 58e4 49bd a112 283c 1154 90bd
00000380: 6ef4 9e3c b89c 01bd 6c22 833d 6288 afbd
00000390: 1306 02bd 0755 803d 028d 11bc 0f94 2f3d
000003a0: 2538 443d 4da8 bdbc e533 c0bd 55aa abbd
000003b0: 2631 913d 1ba2 503c f2f1 ab3d 18a1 2dbd
000003c0: 9c65 8dbd 4b89 64bd 4ba7 debc ba7d dc39
000003d0: 83d3 ae3d e6a3 c93c 44af ac3d 4827 d83a
000003e0: 128c 94bd 03a0 9a3d cca2 24bd 4674 163d
000003f0: fa4a eabc 5065 a5bd 6822 37bc baf9 a2bd

transformer_encoder.layers.0.self_attn.in_proj_container.query_proj.bias f4 [128]
-0.09687288 -0.09808091 0.09260455 -0.06811437 -0.062085256 -0.03953637 0.0620578 0.06371457
0.030859364 0.0087320935 0.059762865 0.032485187 0.009762604 -0.066219255 -0.014292982 0.10492189
0.07429311 -0.082849614 0.07667475 -0.08255657 -0.01183763 0.097343504 -0.058584385 0.12596181
0.02136708 -0.05893522 -0.031149885 -0.065169215 -0.12401418 -0.0765417 0.028418535 -0.024304999
0.016028158 -0.06683562 -0.048986673 0.03484139 -0.03958133 -0.0038129003 -0.008276879 0.04467062
-0.022197034 0.07609065 -0.033983327 0.04701319 -0.010736549 0.037572116 -0.00037296358 0.021521866
-0.07445268 0.023383249 0.048641346 0.059980523 -0.12929194 0.05355523 -0.018501744 -0.08651367
-0.0035711438 0.09233738 -0.02403748 -0.039694972 0.040793456 -0.10499826 -0.07980264 0.022896787
0.0052977777 0.09731935 -0.015454112 -0.08298123 0.04752722 -0.021365467 0.054379888 0.021546144
-0.06192938 -0.029567892 -0.043209556 -0.07483735 0.09150869 -0.0023774111 -0.021972565 0.08142933
0.07209245 0.057068914 -0.00746565 0.025313629 -0.108276986 0.02558295 -0.07521885 -0.032806743
-0.003502523 0.011543807 0.012116721 0.04065627 -0.030461922 -0.0031594862 -0.110824175 -0.116300836
0.053890537 -0.03277728 -0.06753262 0.026359564 0.0030850251 0.039517164 0.06473895 -0.024257595
-0.021195093 -0.015522776 -0.09610318 -0.06776376 -0.05796093 0.04017257 -0.031385373 -0.030272558
-0.06150531 0.014319533 -0.03129256 0.009167827 -0.07215583 -0.002402942 0.04373111 -0.054124057
0.07713351 -0.039892886 -0.07292944 0.028332904 0.05030745 0.039427537 -0.042767204 0.04497838
00000000: 4a65 c6bd a5de c8bd 74a7 bd3d 8c7f 8bbd
00000010: 1c4d 7ebd e4f0 21bd 5230 7e3d c97c 823d
00000020: c7cc fc3c 0e11 0f3c e8c9 743d 300f 053d
00000030: 54f3 1f3c f69d 87bd 1d2d 6abc 4ae1 d63d
00000040: fc26 983d 0fad a9bd a707 9d3d 6b13 a9bd
00000050: 9ef2 41bc 085c c73d 2ef6 6fbd 22fc 003e
00000060: 040a af3c 0f66 71bd 0b2e ffbc 7077 85bd
00000070: 25fb fdbd e5c1 9cbd fdcd e83c 471b c7bc
00000080: 7c4d 833c 1de1 88bd 40a6 48bd d8b5 0e3d
00000090: 0820 22bd dae1 79bb bf9b 07bc 8af8 363d
000000a0: 8ed6 b5bc 6ad5 9b3d 1a32 0bbd e790 403d
000000b0: 5ae8 2fbc 38e5 193d 538a c3b9 a04e b03c
000000c0: a67a 98bd 3a8e bf3c 263c 473d 23ae 753d
000000d0: 1b65 04be bb5c 5b3d f890 97bc 142e b1bd
000000e0: da09 6abb 611b bd3d 40ea c4bc 3297 22bd
000000f0: 0a17 273d 5409 d7bd 916f a3bd 0b92 bb3c
00000100: fb98 ad3b 5e4f c73d 3e33 7dbc 10f2 a9bd
00000110: e7ab 423d a206 afbc 72bd 5e3d 8a81 b03c
00000120: a9a9 7dbd 5d38 f2bc 81fc 30bd 5344 99bd
00000130: e868 bb3d 57ce 1bbb cfff b3bc 6cc4 a63d
00000140: 35a5 933d 18c1 693d 69a2 f4bb 875e cf3c
00000150: 53c0 ddbd 5693 d13c 570c 9abd 5d60 06bd
00000160: 968a 65bb 3c22 3d3c 3685 463c 3087 263d
00000170: 488b f9bc 620f 4fbb c9f7 e2bd 222f eebd
00000180: 53bc 5c3d 7841 06bd 8b4e 8abd 03f0 d73c
00000190: 222e 4a3b c0dc 213d db95 843d ddb7 c6bc
000001a0: 55a1 adbc 3e53 7ebc bed1 c4bd bac7 8abd
000001b0: 7168 6dbd fe8b 243d f38d 00bd 28fe f7bc
000001c0: feec 7bbd 799c 6a3c a12c 00bd a734 163c
000001d0: 70c6 93bd ad7a 1dbb 641f 333d 30b1 5dbd
000001e0: 2cf8 9d3d b966 23bd 085c 95bd 681a e83c
000001f0: 2f0f 4e3d c57e 213d aa2c 2fbd 403b 383d

transformer_encoder.layers.0.self_attn.in_proj_container.key_proj.weight f4 [128, 128]
0.054033637 0.044826258 -0.05059019 -0.04944903 -0.08255962 0.060812794 0.023359485 0.008107157
0.075279914 0.059056118 -0.058491413 -0.011776786 0.05338428 -0.09224856 -0.004970473 -0.07557011
-0.05106762 0.06947925 0.041941274 -0.06552439 0.10214487 0.072908096 -0.100297995 -0.07539845
-0.09657088 0.075590394 -0.0470586 0.03542934 0.03384248 0.061886054 0.111892864 -0.065493844
0.014914713 -0.00022232151 -0.022715488 0.008905727 0.059268363 -0.041754216 -0.05203312 0.024205197
0.040519916 0.03089975 -0.002067211 -0.024640307 0.03967508 -0.023610462 0.09392135 -0.08975164
-0.063278444 0.036695328 -0.058330785 -0.10264874 0.04499657 -0.017490314 0.024275111 -0.044857092
0.033896085 0.025316307 0.052819908 -0.10518898 0.03764731 -0.035352584 0.06139722 -0.055561606
-0.09780311 0.03683156 -0.11614136 -0.01627068 0.045769364 -0.05268463 0.050780974 -0.011017088
-0.04690528 0.083443135 -0.029409679 -0.0130665805 -0.084471345 -0.06202753 0.026206743 -0.034601007
0.10537282 0.09416317 0.016271213 -0.06312418 0.09895731 0.020783503 -0.0055748336 0.06658183
-0.01924148 0.0043624616 0.0772321 -0.09931786 -0.039563097 0.0074862987 -0.0041211033 -0.0926758
0.036272004 -0.07196269 0.029600104 0.09828709 -0.09723774 0.04662793 -0.037978936 0.10230463
0.034595843 -0.007503395 0.03694696 0.059506096 -0.040053952 0.030817153 0.12156194 0.004993652
0.045225818 0.007891381 0.061073843 0.020028707 -0.10389959 0.052188877 -0.0723984 0.028409742
0.11532065 0.021754071 0.017264577 0.009971018 -0.06087968 -0.0011676649 -0.016026055 0.06666084
-0.02828692 0.002456075 0.003954823 0.043076664 -0.040203344 0.03550287 -0.048244294 0.02083812
0.086318664 0.029830124 0.020204974 0.058061432 0.04190262 -0.1477415 -0.05492515 0.09329791
0.04376312 -0.007308878 -0.06409339 -0.034958255 -0.025667148 0.06867907 0.0017407978 -0.021533983
-0.060924277 -0.058801185 -0.047287684 0.07750424 0.023328697 -0.05369653 0.0732569 0.080390744
-0.0979064 0.016661441 -0.033937655 -0.02229924 0.03715598 -0.058851577 -0.097807825 0.10105568
0.020840196 0.05167588 -0.035477974 0.06168098 -0.038818814 0.11036996 0.06963109 -0.036250647
-0.05768011 0.0006086916 -0.08312321 0.0025295594 -0.044478912 -0.055489033 0.013659233 0.082243405
0.050422132 0.097556666 -0.011272363 0.06839385 0.054356173 -0.058188293 -0.0471314 -0.03697687
-0.06287088 -0.091938846 -0.054111514 0.06308347 0.027826414 -0.096302845 0.0868018 0.01600476
-0.020359138 -0.05192821 -0.0818763 0.01910211 -0.045094706 -0.05763008 -0.0783371 -0.07997715
0.106660925 0.087589815 -0.074239574 -0.019916223 0.045259595 0.06485478 0.07891635 0.05913813
0.073027104 -0.05080915 0.070735656 0.0003034015 0.04212 -0.07334825 -0.016140308 0.046014827
0.028744003 0.031459525 0.015652265 0.027018344 0.034747936 0.033311337 -0.044099882 -0.0058729234
0.07577874 0.06508349 -0.060191557 -0.0048693153 0.043679632 0.00229797 0.028415175 0.04574089
0.07223405 -0.101956084 0.040750846 0.019011805 0.014570608 0.054918133 0.020398151 -0.018337112
0.031235762 -0.004881824 -0.036292166 -0.016573131 0.038646307 -0.07714422 0.067697816 0.040535524
00000000: 6052 5d3d bd9b 373d a937 4fbd 118b 4abd
00000010: 0515 a9bd d616 793d 645c bf3c e2d3 043c
00000020: 5b2c 9a3d d4e4 713d b194 6fbd 6cf3 40bc
00000030: 7aa9 5a3d d0ec bcbd 59df a2bb 80c4 9abd
00000040: 482c 51bd 234b 8e3d 9dca 2b3d a731 86bd
00000050: 5431 d13d d750 953d 0969 cdbd 816a 9abd
00000060: f4c6 c5bd 23cf 9a3d 85c0 40bd 5b1e 113d
00000070: 6a9e 0a3d 3b7c 7d3d 1628 e53d a321 86bd
00000080: d75c 743c fa1e 69b9 d515 babc 54e9 113c
00000090: 62c3 723d 7806 2bbd ae20 55bd fa49 c63c
000000a0: 36f8 253d 7921 fd3c 0c7a 07bb 78da c9bc
000000b0: 5682 223d ba6a c1bc d659 c03d b5cf b7bd
000000c0: 2198 81bd d74d 163d 43ec 6ebd 8139 d2bd
000000d0: 534e 383d d947 8fbc 99dc c63c 12bc 37bd
000000e0: 9fd6 0a3d 2564 cf3c b059 583d 526d d7bd
000000f0: 1134 1a3d dfcd 10bd a77b 7b3d 9194 63bd
00000100: ff4c c8bd b1dc 163d 85db edbd 174a 85bc
00000110: a878 3b3d d7cb 57bd b6ff 4f3d 0481 34bc
00000120: c01f 40bd 3ce4 aa3d 91ec f0bc 3615 56bc
00000130: 50ff acbd 9410 7ebd 86af d63c c9b9 0dbd
00000140: b4cd d73d 9fd8 c03d 354b 853c 4047 81bd
00000150: 21aa ca3d 2a42 aa3c 18ad b6bb 0e5c 883d
00000160: 4fa0 9dbc fbf2 8e3b dd2b 9e3d 2a67 cbbd
00000170: ea0c 22bd a04f f53b 520a 87bb cfcc bdbd
00000180: f491 143d 2d61 93bd eb7b f23c be4a c93d
00000190: 9524 c7bd eefc 3e3d cd8f 1bbd 1785 d13d
000001a0: 5fb4 0d3d 0adf f5bb b255 173d aabc 733d
000001b0: 9d0f 24bd 4174 fc3c 77f5 f83d caa1 a33b
000001c0: b53e 393d da4a 013c 9128 7a3d 3e13 a43c
000001d0: 4fc9 d4bd 01c4 553d 9d45 94bd 8cbb e83c
000001e0: 3c2d ec3d 9835 b23c 716e 8d3c 7b5d 233c
000001f0: f95c 79bd 550c 99ba 1349 83bc 7a85 883d
00000200: f9b9 e7bc 1af6 203b 7697 813b 2871 303d
00000210: 43ac 24bd 756b 113d cf9b 45bd b4b4 aa3c
00000220: d7c7 b03d 4e5e f43c e784 a53c d3d1 6d3d
00000230: 15a2 2b3d 8c49 17be 32f9 60bd fa12 bf3d
00000240: f540 333d 507f efbb 6543 83bd 6330 0fbd
00000250: e943 d2bc 9da7 8c3d 7b2b e43a 0968 b0bc
00000260: bc8b 79bd 83d9 70bd bbb0 41bd 8bba 9e3d
00000270: d31b bf3c e5f0 5bbd b707 963d e7a3 a43d
00000280: 2783 c8bd 937d 883c 3602 0bbd e5ac b6bc
00000290: de30 183d 5a0e 71bd 784f c8bd 48f6 ce3d
000002a0: 0fb9 aa3c 16aa 533d 5a51 11bd 32a5 7c3d
000002b0: 7a00 1fbd a509 e23d bf9a 8e3d 8f7b 14bd
000002c0: fb41 6cbd 9a90 1f3a 803c aabd f7c6 253b
000002d0: 852f 36bd 7848 63bd faca 5f3c 3b6f a83d
000002e0: 7087 4e3d cacb c73d b8af 38bc 1312 8c3d
000002f0: 94a4 5e3d d956 6ebd db0c 41bd 0f75 17bd
00000300: 73c2 80bd 6f4a bcbd 09a4 5dbd e831 813d
00000310: 38f4 e33c 6d3a c5bd 24c5 b13d 6a1c 833c
00000320: 35c8 a6bc adb2 54bd c3ae a7bd 077c 9c3c
00000330: 3ab5 38bd 850d 6cbd 346f a0bd 0fcb a3bd
00000340: 0b71 da3d 4a62 b33d eb0a 98bd 5927 a3bc
00000350: 2062 393d 95d2 843d e59e a13d d33a 723d
00000360: 3c8f 953d 411d 50bd dbdd 903d dc11 9f39
00000370: 0586 2c3d 9b37 96bd ae38 84bc 0b7a 3c3d
00000380: 8b78 eb3c b4db 003d 2e39 803c 9355 dd3c
00000390: da53 0e3d 7871 083d 14a2 34bd a771 c0bb
000003a0: e231 9b3d 7e4a 853d 6c8b 76bd c78e 9fbb
000003b0: 6ae9 323d 8a99 163b f1c6 e83c cd5a 3b3d
000003c0: 72ef 933d 5ace d0bd 5cea 263d a5be 9b3c
000003d0: 8fb9 6e3c d6f1 603d 061a a73c b637 96bc
000003e0: 24e2 ff3c b5f7 9fbb 18a7 14bd 60c4 87bc
000003f0: 974b 1e3d cafd 9dbd 27a5 8a3d 9408 263d

transformer_encoder.layers.0.self_attn.in_proj_container.key_proj.bias f4 [128]
-0.08576458 -0.050210018 -0.025627468 0.014638904 -0.031011896 -0.03138688 -0.06601138 -0.08343117
0.019884631 -0.050168715 -0.043659348 -0.045751154 0.023881868 -0.028473208 -0.020162642 -0.08452043
-0.06878684 0.056177475 0.023694906 0.023574982 0.051660936 -0.06866482 0.0038461285 -0.010019183
-0.06670712 0.04039412 -0.031716626 -0.018861482 0.0493188 0.013227318 -0.027115572 0.056509558
-0.044319503 -0.07570209 -0.075083815 -0.08446766 0.07914528 0.08064995 -0.016235393 0.024605392
-0.081401505 0.012825639 0.048411466 -0.027497897 -0.018349625 0.011593799 0.020778814 0.02326612
0.02628871 0.013689088 -0.0067189345 0.0029844625 0.084771805 -0.010359921 -0.051242895 -0.0655752
0.019798616 -0.068410754 0.0548037 0.02861233 0.007068448 -0.03646156 -0.07739475 0.03423372
-0.0652033 -0.037398335 0.033744942 -0.04574976 0.05748793 0.013621538 -0.05844343 0.054101106
-0.059487015 0.0176229 -0.048387043 0.0014212851 0.048441213 -0.0031793248 0.081251375 0.032091152
0.0786594 -0.030635627 -0.03592987 0.07227951 -0.022372449 0.07731061 -0.042928517 -0.058245063
-0.009259705 0.03998688 -0.061452042 -0.033871654 5.368073e-05 -0.048537727 -0.08260227 -0.048098274
0.028436033 0.06321236 -0.066304445 0.07259257 -0.023887789 0.052978072 -0.06639985 0.018564865
0.0053626727 0.013603159 -0.031118304 -0.07174556 0.015411231 0.07843379 -0.05737728 0.0019420059
-0.050169002 -0.036402147 -0.066160545 0.08825704 0.015034164 0.058549453 0.07815568 -0.05236953
0.06720428 -0.03499867 -0.02617487 -0.05699881 0.009497287 -0.035942852 -0.018276073 -0.00556685
00000000: 57a5 afbd 05a9 4dbd b2f0 d1bc 03d8 6f3c
00000010: a90c febc 878f 00bd f930 87bd f6dd aabd
00000020: 18e5 a23c b67d 4dbd 25d4 32bd 9065 3bbd
00000030: e8a3 c33c a540 e9bc 202c a5bc 0c19 adbd
00000040: 1de0 8cbd 5a1a 663d d21b c23c 5220 c13c
00000050: 6b9a 533d 24a0 8cbd 540f 7c3b 8027 24bc
00000060: be9d 88bd 4e74 253d 4be9 01bd 6583 9abc
00000070: 8302 4a3d 65b7 583c 7a21 debc 9176 673d
00000080: 5e88 35bd b309 9bbd 8bc5 99bd 61fd acbd
00000090: ec16 a23d cd2b a53d 1600 85bc 3f91 c93c
000000a0: d5b5 a6bd a122 523c 1a4b 463d 4543 e1bc
000000b0: f451 96bc ebf3 3d3c 5538 aa3c 9798 be3c
000000c0: 6c5b d73c 3248 603c 822a dcbb f996 433b
000000d0: d79c ad3d a8bc 29bc 12e4 51bd 4a4c 86bd
000000e0: b530 a23c f01a 8cbd d879 603d 6864 ea3c
000000f0: 709e e73b b758 15bd 2481 9ebd a838 0c3d
00000100: 4f89 85bd ff2e 19bd 2338 0a3d 1a64 3bbd
00000110: 7778 6b3d df2c 5f3c 6162 6fbd 1f99 5d3d
00000120: a8a8 73bd e65d 903c 7e31 46bd 6a4a ba3a
00000130: 4b6a 463d 385c 50bb 1f67 a63d 0372 033d
00000140: 2e18 a13d 91f7 fabc 332b 13bd 4807 943d
00000150: 6d46 b7bc 0655 9e3d d0d5 2fbd 6092 6ebd
00000160: 05b6 17bc 48c9 233d 23b5 7bbd 01bd 0abd
00000170: 3f27 6138 7fcf 46bd 612b a9bd b202 45bd
00000180: aff2 e83c 7b75 813d a0ca 87bd 6aab 943d
00000190: 53b0 c3bc 89ff 583d a5fc 87bd 5815 983c
000001a0: 5cb9 af3b c9df 5e3c d0eb febc 56ef 92bd
000001b0: 637f 7c3c e5a1 a03d 7004 6bbd e88a fe3a
000001c0: 037e 4dbd 6b1a 15bd 2e7f 87bd 1bc0 b43d
000001d0: db51 763c 8dd1 6f3d 1610 a03d 6f81 56bd
000001e0: 66a2 893d c45a 0fbd ae6c d6bc 9677 69bd
000001f0: 829a 1b3c d038 13bd b4b7 95bc 1f6a b6bb

transformer_encoder.layers.0.self_attn.in_proj_container.value_proj.weight f4 [128, 128]
0.04189619 0.055389002 -0.02910459 -0.081233956 0.09421359 0.083260395 -0.088671386 0.028057897
-0.02157914 -0.08265754 -0.08982669 0.09183309 0.048967864 0.0031683047 0.015064666 -0.092463896
0.0015367568 -0.017029842 0.072538614 -0.012499726 0.08436103 -0.03851717 -0.017786905 0.115010746
-0.024038378 -0.06438013 -0.06702038 0.017123995 0.019875063 0.018813211 0.07421817 0.059687305
0.094376534 0.019067755 -0.039693806 -0.0031919822 -0.061351866 -0.0015035432 0.04837382 0.08775012
0.055672806 -0.024634829 -0.04667868 -0.012123341 -0.001968518 -0.017171154 0.08851152 -0.026442986
0.037562776 -0.037433058 -0.0448457 -0.05191795 0.072732925 -0.09732717 -0.042563353 -0.06669195
0.021035234 0.019235699 -0.06132436 0.043862857 0.0035502191 -0.05550091 -0.0677003 0.078118086
-0.042032152 -0.039237294 -0.042154584 -0.02066184 0.018841667 -0.12912609 0.01461493 -0.06681486
-0.05362897 0.1185203 -0.07383865 0.086180225 0.0653275 0.034277074 0.035506513 0.0754578
0.028069044 0.023201462 -0.07835516 -0.05459316 -0.02592645 0.011436868 -0.09006785 -0.09234321
0.07410047 -0.006691881 0.015915105 -0.08844326 0.082873665 -0.06673483 -0.092013985 -0.045941185
-0.039803524 -0.052121148 0.049310505 0.106081136 -0.06476762 -0.06510103 -0.07039427 0.021184923
0.06780553 -0.09489984 0.016296325 -0.06560552 0.021579212 0.109683804 -0.07042547 0.026922008
-0.07500483 0.043196544 0.0053268876 0.015135026 -0.07539803 -0.038633805 0.0059876954 -0.029944912
-0.08843304 0.06231889 -0.02322645 0.056310415 0.03672515 -0.037992537 0.020731965 -0.021945724
0.094911546 0.011544889 0.10575655 0.01624197 -0.0069287205 -0.029568527 -0.053107638 -0.016695082
0.129484 -0.019977009 -0.12583281 -0.087557934 0.071255416 0.110124804 -0.03429209 -0.02242705
-0.035130005 -0.003175219 0.07271532 -0.011117918 -0.010215007 0.03389416 -0.04724004 0.014372656
0.0039670523 -0.0788875 -0.04924337 0.10864883 -0.08504106 -0.020189706 -0.1253315 -0.01013504
-0.05757062 -0.038766652 -0.0112580545 0.04891309 -0.022521466 0.08693165 0.004126857 -0.020602169
0.019927721 -0.119153515 -0.04946484 -0.005222984 0.015735501 -0.053642914 0.076437876 0.053515133
-0.09201927 -0.104955144 -0.06564148 -0.05193469 0.051346093 -0.0053713038 -0.036059752 -0.029809972
0.008317072 0.039578836 0.008732149 -0.009247086 -0.03870643 0.03292085 0.017675603 0.0765937
0.023442283 0.052291736 0.05586058 -0.04871008 0.0934047 0.06634177 -0.069065034 -0.03123868
-0.10686272 0.0023988457 0.01165066 -0.0014676889 0.05635441 -0.10029254 -0.092190005 -0.0132438755
-0.036388952 -0.1190939 -0.048353963 0.079398386 -0.12058604 -0.079360865 -0.07936929 0.10447648
0.07620791 0.00078503985 0.04228684 0.009181034 -0.045596376 0.14853704 -0.10890397 0.0072575496
-0.079864524 -0.08409672 -0.10529449 -0.073313855 0.05067385 0.027271403 0.021548338 0.085016996
-0.015973682 0.079382 0.017944688 0.047142833 -0.06089838 0.08954501 0.007815977 -0.025798917
-0.004554532 0.07480073 0.014492569 0.03359002 -0.06382794 0.0281643 -0.00010693158 -0.118610665
-0.14917843 0.054530602 -0.04991413 -0.049376406 0.017869 -0.01971238 0.07653387 -0.0053126705
00000000: 579b 2b3d 94df 623d c06c eebc fd5d a6bd
00000010: 0ef3 c03d 6d84 aa3d 5899 b5bd add9 e53c
00000020: bdc6 b0bc 5b48 a9bd 0ef7 b7bd fd12 bc3d
00000030: 8792 483d 55a3 4f3b cad1 763c b65d bdbd
00000040: 006d c93a 2b82 8bbc 208f 943d a7cb 4cbc
00000050: 7ac5 ac3d 2ec4 1dbd d8b5 91bc c18a eb3d
00000060: 22ec c4bc bbd9 83bd fb41 89bd 9f47 8c3c
00000070: 07d1 a23c 2a1e 9a3c b2ff 973d ad7a 743d
00000080: 7c48 c13d fb33 9c3c f995 22bd 9330 51bb
00000090: 184c 7bbd 8a12 c5ba a023 463d 56b6 b33d
000000a0: 2b09 643d fbce c9bc 2532 3fbd faa0 46bc
000000b0: 4002 01bb 85aa 8cbc 8745 b53d f69e d8bc
000000c0: 6ddb 193d 6853 19bd 20b0 37bd eba7 54bd
000000d0: 00f5 943d 7853 c7bd e956 2ebd ca95 88bd
000000e0: 1552 ac3c 2f94 9d3c 412f 7bbd 8aa9 333d
000000f0: cbaa 683b ec54 63bd 74a6 8abd 60fc 9f3d
00000100: e829 2cbd 49b7 20bd 49aa 2cbd 0543 a9bc
00000110: d759 9a3c a139 04be 7673 6f3c 3bd6 88bd
00000120: 0daa 5bbd c5ba f23d b838 97bd 427f b03d
00000130: 6dca 853d 1e66 0c3d 476f 113d 9e89 9a3d
00000140: 0df1 e53c fe10 be3c ac78 a0bd 149d 5fbd
00000150: b563 d4bc b461 3b3c 7e75 b8bd 701e bdbd
00000160: fdc1 973d 9147 dbbb 6560 823c bd21 b5bd
00000170: abb9 a93d 45ac 88bd d471 bcbd d32c 3cbd
00000180: 0509 23bd fc7c 55bd d0f9 493d 1141 d93d
00000190: e3a4 84bd b053 85bd df2a 90bd 018c ad3c
000001a0: a0dd 8a3d d95a c2bd df7f 853c 305c 86bd
000001b0: e3c6 b03c e7a1 e03d 3b3b 90bd 8b8b dc3c
000001c0: 229c 99bd dcee 303d 2c8d ae3b e6f8 773c
000001d0: 486a 9abd 7b3e 1ebd 6e34 c43b 084f f5bc
000001e0: 621c b5bd 1842 7f3d 6545 bebc c0a5 663d
000001f0: 1c6d 163d 109e 1bbd 15d6 a93c 85c7 b3bc
00000200: fc60 c23d c626 3d3c e496 d83d e10d 853c
00000210: 520a e3bb b239 f2bc 6587 59bd 20c4 88bc
00000220: 7497 043e d3a6 a3bc 51da 00be 9351 b3bd
00000230: 5cee 913d 1d89 e13d dd75 0cbd efb8 b7bc
00000240: 7be4 0fbd 5617 50bb c5eb 943d ee27 36bc
00000250: d85c 27bc 9ad4 0a3d c67e 41bd 4a7b 6b3c
00000260: 0cfe 813b c58f a1bd 6ab3 49bd 4783 de3d
00000270: 022a aebd e264 a5bc e756 00be 700d 26bc
00000280: 2ccf 6bbd c8c9 1ebd b473 38bc 1859 483d
00000290: f07e b8bc 3909 b23d 963a 873b e1c5 a8bc
000002a0: 763f a33c c206 f4bd a59b 4abd 9125 abbb
000002b0: bde7 803c acb8 5bbd 768b 9c3d af32 5b3d
000002c0: 9974 bcbd b9f2 d6bd 0a6f 86bd 78b9 54bd
000002d0: 4850 523d c301 b0bb 64b3 13bd 0b34 f4bc
000002e0: 5444 083c 6b1d 223d 4a11 0f3c 1781 17bc
000002f0: a28a 1ebd 03d8 063d 6dcc 903c 28dd 9c3d
00000300: 080a c03c dc2f 563d 10ce 643d 3984 47bd
00000310: f74a bf3d 32de 873d f871 8dbd 43e8 ffbc
00000320: d7da dabd f435 1d3b 69e2 3e3c 785f c0ba
00000330: e2d3 663d 2d66 cdbd 1dce bcbd d7fc 58bc
00000340: 950c 15bd 81e7 f3bd ce0e 46bd 9f9b a23d
00000350: d0f5 f6bd f387 a2bd 5e8c a2bd c4f7 d53d
00000360: e512 9c3d 22cb 4d3a f734 2d3d 0c6c 163c
00000370: 44c3 3abd 181a 183e 0b09 dfbd bdd0 ed3b
00000380: 0390 a3bd e73a acbd a3a4 d7bd 9325 96bd
00000390: 628f 4f3d 4768 df3c 2486 b03c 641d ae3d
000003a0: 3ddb 82bc 0893 a23d bd00 933c d818 413d
000003b0: 9470 79bd 6063 b73d 950e 003c 4058 d3bc
000003c0: 2f3e 95bb 2031 993d 3d72 6d3c b095 093d
000003d0: 39b8 82bd d1b8 e63c 7440 e0b8 26ea f2bd
000003e0: 3bc2 18be 7b5b 5f3d c272 4cbd ea3e 4abd
000003f0: 0262 923c db7b a1bc cabd 9c3d e915 aebb
