data_models/anneal_128/experiment_1/checkpoints/params.pt (torch, 745638 bytes, 42 tensors)

numerical_encoder.weights f4 [6, 128]
000000 8f ac 36 3d e8 84 b9 3e b6 8c 0b be 9b c3 94 bf
       0.04459816 0.36234212 -0.13627896 -1.1622194
000010 3c 69 c5 bf b6 11 f2 3e cb 23 e5 be bd 04 ce bd
       -1.542274 0.47279137 -0.4475387 -0.100594975
000020 90 be 6e bf a9 3a 7c 3f 59 a4 f0 3f 25 1a 53 bf
       -0.93259525 0.9852701 1.8800155 -0.8246177
000030 80 b3 89 bf 94 28 a8 bf 83 3b 13 3f 68 73 bd bf
       -1.0757904 -1.3137383 0.5751268 -1.4800844
000040 5c 79 07 c0 3a 0e af 3f 62 a2 1e 3e 33 5e 5e 3f
       -2.1167822 1.3676217 0.15491632 0.86862487
000050 52 24 83 bf 82 93 b5 3e a7 c7 2f 3e ed 51 49 be
       -1.0245459 0.35464102 0.17166005 -0.19660158
000060 f9 ca 19 3f 09 47 86 3e 08 49 cc 3f ce f0 08 40
       0.60075337 0.2622607 1.5959787 2.1396976
000070 da b2 75 bf 12 a4 f0 be 73 56 05 40 a4 55 cb bc
       -0.9597603 -0.47000176 2.0834014 -0.02482111
000080 95 94 2c 3d ef c8 db bf 29 db 10 3f 63 40 d5 3f
       0.042133886 -1.7170695 0.5658441 1.6660274
000090 bf d3 7c bf 25 00 ce 3e f6 c9 56 3f 58 a0 0c 3e
       -0.987606 0.40234485 0.8390192 0.13733041
0000a0 97 67 07 bf b8 85 54 3f 60 eb 06 bf 86 9e 83 3e
       -0.5289244 0.8301654 -0.52702904 0.2570688
0000b0 4f f6 2d bd 8a 7d 8c 3f b6 9b 7b 3f 08 3d a5 bf
       -0.042471226 1.0975811 0.9828447 -1.290925
0000c0 66 3e bb 3f 87 95 c3 bf 0a 4f a4 bf 7e 67 d1 3f
       1.4628417 -1.5280007 -1.2836621 1.6359708
0000d0 4d 66 f0 3e dc 11 7c c0 f9 bf 09 bf b2 60 0b bf
       0.4695305 -3.93859 -0.5380855 -0.5444442
0000e0 1a 78 fc 3e 6e 7c fb bf 74 85 24 40 26 b3 1c be
       0.4931038 -1.9647348 2.5706453 -0.15302715
0000f0 1c c6 db bf a8 37 0b bf 17 df b4 bd 46 f9 4a 3e
       -1.7169833 -0.543818 -0.088316135 0.19821653
000100 e7 c0 3c 3e fc 2f 84 be e4 05 b0 3f dd d6 1a bf
       0.18432961 -0.2581786 1.3751798 -0.60484105
000110 4f a7 ed 3e 1d 74 bc bd 28 d4 0f bf ec ba ce be
       0.4641671 -0.09201834 -0.561831 -0.40376985
000120 ee 06 65 3d ee e8 42 3f 62 fc c0 bf 13 a5 3e bf
       0.05591481 0.7613667 -1.5077021 -0.74470633
000130 c9 24 af be 05 43 96 3f 55 04 e5 bf fd b5 01 40
       -0.34207752 1.1739203 -1.7891947 2.0267327
000140 74 61 8c bf 52 d8 d1 be 29 fc 82 bf a8 2e ca 3f
       -1.096724 -0.40985352 -1.0233203 1.5795488
000150 71 64 29 3f 34 e9 96 be 85 0c 6b 3f da bd 0c 3f
       0.66168886 -0.29474795 0.9181598 0.5497719
000160 42 49 d6 3c 8b 29 56 3f 33 8d 2f bf 97 3a c2 3e
       0.026157979 0.8365714 -0.6857483 0.37935326
000170 38 4c 8c 3f 27 57 5a bf 35 3e 3e 3f 70 28 9e bd
       1.096076 -0.85289234 0.7431367 -0.077225566
000180 a8 1d 76 bf c1 a3 38 bf 79 ed 6c bf 84 6a 25 be
       -0.96139 -0.7212487 -0.92549855 -0.16153914
000190 c6 9d 1b bf d1 39 64 3f ce 97 bf 3e 39 79 28 bf
       -0.6078762 0.8915072 0.37420505 -0.6580997
0001a0 8e 2d 0c 3f 12 ac 6c 3f b8 dd df 3a 41 28 2b bf
       0.5475701 0.9245006 0.0017079627 -0.668583
0001b0 df 9b 4d bd e5 82 d0 be 51 96 06 c0 0e e1 80 bf
       -0.05019748 -0.40724865 -2.1029246 -1.0068681
0001c0 45 d2 ed bf 4d b9 a9 3f 54 b5 fb 3d cd cc c4 3f
       -1.8579794 1.3259674 0.12290445 1.5375
0001d0 30 b1 eb 3f 2f 3d 47 bf 0e 16 6d 3f 38 f7 75 bf
       1.8413448 -0.77827734 0.9261178 -0.9608035
0001e0 a9 2c ab bf 3b fb 71 bf 3a 7c ec be b9 ec d9 3e
       -1.3373004 -0.9452397 -0.46188527 0.42563418
0001f0 58 22 eb bf d0 2a 99 3e c4 c3 8a bf 77 71 91 bf
       -1.8369856 0.29915476 -1.0840993 -1.1362752
000200 b9 60 27 bf 70 71 d0 be a4 ce a9 3e 1f 49 3d bf
       -0.6538196 -0.40711546 0.33165467 -0.739397
000210 1f 08 4e bf e9 93 21 bf 6f 1f 2e 3d 37 7e 24 3f
       -0.8048114 -0.6311632 0.042510446 0.6425509
000220 cf 22 29 bf af e9 11 40 43 a6 1e be d7 9e 21 bf
       -0.6606874 2.279888 -0.15493111 -0.63132995
000230 ca 65 6a be bc d0 ed bd 87 fb 0b 40 26 23 59 3f
       -0.22890392 -0.116120785 2.187227 0.8481926
000240 18 f8 ff be 68 37 de bf b7 eb 5d 3f ce 24 24 3f
       -0.49993968 -1.7360659 0.866878 0.6411866
000250 90 c1 2c bf 49 de 62 bf 5f 58 91 bf 74 47 f0 3e
       -0.6748285 -0.8862043 -1.1355094 0.46929514
000260 11 e0 67 3f 58 80 b3 3f 15 08 85 bf 36 2e 25 bc
       0.90576273 1.4023542 -1.0393091 -0.010081818
000270 36 22 8b bf c9 0c c3 3e da 10 2f 3e f1 f5 d8 3f
       -1.0869815 0.38095692 0.17096272 1.6950055
000280 30 cb 6b be cf d5 03 3f 62 57 86 3f df d2 c4 be
       -0.23026729 0.5149812 1.0495417 -0.38442132
000290 3c b8 51 3f 24 8e 0f bf 8e a5 11 bf 68 1c 1b bf
       0.81921744 -0.56076264 -0.5689324 -0.6059022
0002a0 3a 42 aa bd 55 23 85 3f 85 08 12 3f d7 89 82 3e
       -0.08313413 1.0401407 0.5704425 0.25495788
0002b0 4b 16 6d bf 7b e9 49 3f c0 cb e3 bd 63 7f 67 be
       -0.9261214 0.7887189 -0.111228466 -0.22607188
0002c0 9f 9c 9d 3e 26 0b a3 bf 23 8a 5d bf 40 5f e4 3f
       0.30783555 -1.2737777 -0.86538905 1.7841568
0002d0 07 0f 76 3f b5 d7 56 3f de b1 a4 3e 0a bc f3 3f
       0.9611668 0.8392289 0.32166952 1.904176
0002e0 fe 07 1a bf c8 59 38 3e 14 2e c4 bf 26 16 02 c0
       -0.60168445 0.18002999 -1.5326562 -2.0326018
0002f0 ce 1b 36 be 0f b9 3b c0 e6 a0 6f bf 49 06 76 bf
       -0.17784044 -2.93317 -0.93604887 -0.9610334
000300 e4 b9 53 bf e4 54 3e 3f 81 ef 8f 3f 03 09 0d 3f
       -0.8270552 0.7434828 1.1244966 0.55091876
000310 09 09 41 3f 4f 74 00 40 84 14 84 3e a7 2a 97 3e
       0.7540441 2.007099 0.25796902 0.2952473
000320 90 d0 97 3e 1a 68 e0 bf 3d fb 4e bf a2 1c ea 3f
       0.29651308 -1.7531769 -0.8085211 1.8289988
000330 11 33 86 be 71 29 3c 3f f8 e2 5a 3d f8 80 56 be
       -0.26210836 0.73500735 0.05343911 -0.20947635
000340 87 0d ae be 6d 85 15 3f 51 a4 4b 3f f7 49 72 be
       -0.33994696 0.58406717 0.795476 -0.23661028
000350 53 17 00 bf 8c 20 ee 3d 5b a0 8c bf a1 80 15 3f
       -0.5003559 0.116273016 -1.0986437 0.583994
000360 a3 d4 3c 3f 27 7b 08 c0 2e e6 a4 bf 8a 84 1e be
       0.7376196 -2.1325166 -1.2882745 -0.15480247
000370 f4 0f 7d 3f 9f e5 d3 bf a6 f7 8e bf 59 81 ce bd
       0.9885247 -1.655445 -1.1169326 -0.10083265
000380 28 af 57 bf 81 3b c7 be 92 5b b6 3c 8b 9c 34 bf
       -0.8425164 -0.38912585 0.022260461 -0.70551366
000390 6e 8e 85 bf a1 60 ee 3e 42 98 71 bf c8 2d 6d 3f
       -1.0434091 0.46558097 -0.9437295 0.9264798
0003a0 12 6c 95 bf 59 7d 0d bf a6 98 bc bf 05 81 01 bf
       -1.1673605 -0.5526939 -1.4734085 -0.50587493
0003b0 fb 2f 0d 3f e4 ee ae 3d 32 f3 c5 3f e0 b7 c7 3f
       0.5515134 0.085416585 1.5464842 1.5602989
0003c0 49 63 a6 3e c4 fe a4 bf 42 7e b3 3d f1 f6 fc 3f
       0.32497624 -1.2890248 0.08764316 1.976286
0003d0 b6 67 ea 3f ed c0 1c 3f e2 9d 25 3d 5f f0 5f bf
       1.83129 0.6123188 0.040433772 -0.8747615
0003e0 25 41 cc bf f6 34 71 be af 94 fc bf c2 89 1d c0
       -1.595738 -0.23555359 -1.9732875 -2.461533
0003f0 8b 98 df be 80 d5 b4 3e 80 4f d0 bb d3 e2 1e bf
       -0.4367107 0.35319138 -0.0063571334 -0.62064856

numerical_encoder.biases f4 [6, 128]
000000 54 5e de bf 42 37 96 3f 3d a7 5d 3f d8 b1 13 3f
       -1.7372537 1.1735613 0.8658331 0.57693243
000010 2d 25 e7 3f d7 fd f6 3f f5 a1 09 3f ee 9c 1a 40
       1.805822 1.9296216 0.5376275 2.4158282
000020 84 42 c2 bd cf f4 af 3f 70 23 0e 3e 40 04 94 bd
       -0.09485343 1.3746585 0.13880706 -0.07227373
000030 62 b5 22 3f f3 c5 45 bf 81 08 97 3e 71 aa c9 bf
       0.6355802 -0.7725517 0.29498675 -1.575514
000040 32 5d 8c bf a3 95 d5 be 32 be d7 3e f8 bb c9 bf
       -1.0965941 -0.41715726 0.42137295 -1.5760489
000050 21 64 5d 3f 68 98 06 bf dc ac 03 bf a0 1b eb 3e
       0.8648091 -0.52576303 -0.5143564 0.45919514
000060 8f 85 79 3d 46 80 37 3d ec af 41 3e 74 60 c2 3e
       0.060918387 0.044800065 0.18914765 0.37964213
000070 6f ce 8b 3f 93 a9 8a bf f9 eb 74 3f d7 28 14 bf
       1.0922374 -1.0833 0.95672566 -0.57874817
000080 a3 02 ae bf 55 89 60 3f 31 04 4a bf ab b5 be 3f
       -1.3594555 0.8770955 -0.78912646 1.4899191
000090 44 fe 90 3f 9a ee 1b bf 0e 91 6a 3f 7b 42 a8 bf
       1.1327596 -0.6091095 0.91627586 -1.3145288
0000a0 40 52 e4 be 6c a7 e8 3e 3b 9c 69 3e d4 5a a3 3f
       -0.44594002 0.45440233 0.22813503 1.2762094
0000b0 4e d9 1a bf b3 df 29 be 57 78 3b 3e 69 a8 1d bf
       -0.6048783 -0.1658924 0.18307625 -0.615851
0000c0 fb b7 ab bf 67 e8 7c bf c9 9f ed bf 11 31 16 bf
       -1.3415521 -0.9879212 -1.8564388 -0.5866862
0000d0 12 7d 7a bf 8d 0f 60 3f 90 fb 8f be 1d 03 52 bf
       -0.9784709 0.8752373 -0.28121614 -0.82036
0000e0 42 b6 c9 3f 51 94 3e 3f 95 56 7e bf 1e fb 0f 3f
       1.5758746 0.7444506 -0.99350864 0.5624255
0000f0 b0 24 2a 3f ef 6a f0 3e 5d 30 dc 3e 1f 71 05 3f
       0.6646223 0.46956584 0.43005648 0.52125734
000100 37 45 89 3f b2 47 f2 bf 47 50 01 c0 a0 12 96 3f
       1.0724248 -1.892813 -2.0205247 1.1724434
000110 27 fa 15 c0 24 c8 ba bf c1 fe ba be df 71 3e be
       -2.343393 -1.4592328 -0.36522487 -0.18598126
000120 51 fd 04 3f d2 27 5b bf 64 8f 49 bf 4d fc d7 be
       0.5194903 -0.85607636 -0.7873442 -0.42184678
000130 e7 6a ce bf ca 83 19 3f 64 94 c7 be 43 06 d6 3f
       -1.6126374 0.5996672 -0.389804 1.6720661
000140 cc a4 1a 3d 4b 07 07 c0 d4 92 50 bf c2 20 cf be
       0.03775482 -2.1098201 -0.8147404 -0.4045468
000150 e3 f4 bf 3d 3e ef 12 be 8b 4c 48 3f 08 79 16 c0
       0.0937288 -0.14349076 0.78241795 -2.3511372
000160 51 2e a3 be 19 d7 a3 3f c6 f8 6b 3f 03 e3 8d 3e
       -0.31871274 1.2800018 0.92176473 0.2771226
000170 bc 5e 4c bf 22 92 d3 be 47 82 7d 3f ea 3c a6 3e
       -0.79832053 -0.41322428 0.9902691 0.3246835
000180 78 a2 32 bf 76 ef 40 3f fd 39 75 3f 89 67 cf bf
       -0.6977916 0.7536539 0.9579161 -1.6203471
000190 bd 6c c5 bf b0 db 33 3f 1c 19 93 3c 5a 18 1b bf
       -1.5423809 0.7025709 0.017956309 -0.6058403
0001a0 85 6c a2 3f 69 14 4f bf ed 4a 89 bf 01 d0 87 bf
       1.2689368 -0.8089052 -1.072599 -1.0610353
0001b0 98 9d 1a bf 5f ad 48 bf 69 27 51 3e c6 c9 80 be
       -0.6039672 -0.78389543 0.2042519 -0.2515394
0001c0 d5 05 b5 3e 63 0a cd 3e 10 da 7d bf 6b 6a c2 3f
       0.35356012 0.40046987 -0.9916086 1.5188726
0001d0 5e c7 82 be 06 04 88 3f 52 bd 17 40 b3 0d 7c 3f
       -0.2554273 1.0626228 2.3709302 0.98458403
0001e0 21 49 dc 3e 71 fd 9c be 3f f1 cf 3f fe 9f 98 3e
       0.43024543 -0.3066211 1.6245497 0.29809564
0001f0 b8 c7 78 3f 9b 0f 16 3c cf 9f 34 40 88 9d 87 bf
       0.97179747 0.009158994 2.822254 -1.059495
000200 2d e2 ac 3e bc 01 02 bf d3 de d0 be cd 58 10 bf
       0.33766308 -0.50783896 -0.40795 -0.563855
000210 bb 9b 18 bf 2d 04 e1 3f 54 eb 1e bf db 34 01 40
       -0.59612626 1.7579399 -0.6207783 2.018851
000220 73 31 23 3f 45 13 bc be 39 fd f7 be e5 bb 8d 3e
       0.6374733 -0.3673345 -0.4843538 0.27682415
000230 98 76 8b bf 98 32 22 bf 75 fe 12 3f 44 95 04 be
       -1.0895567 -0.6335845 0.5741952 -0.12947565
000240 3a f3 9c 3e 39 8c 04 bf a4 25 81 be e6 9c 11 bf
       0.30654317 -0.5177646 -0.2522403 -0.56880033
000250 38 58 63 bf ae 84 63 bf cf 71 5b bf be bb 86 3f
       -0.88806486 -0.8887433 -0.85720533 1.0526044
000260 0f c1 4c bf d6 3f 42 bf 58 fb a5 bf 24 c2 a9 3f
       -0.79982084 -0.75878656 -1.2967329 1.3262372
000270 52 5f 35 bf 4c ba 3b 3f f5 f2 91 bf 3e bb 82 3f
       -0.7084857 0.7333114 -1.140227 1.0213392
000280 56 6a 86 be 20 95 07 3f b4 ea 88 3f 88 be d0 bd
       -0.26253003 0.5296192 1.0696626 -0.10192591
000290 9a 67 de 3c 0e 5c 9f be 6a 41 e2 be e7 35 70 bf
       0.02714901 -0.3112492 -0.44190532 -0.9383225
0002a0 bd 4e 95 3f 2a 9c 36 3f 37 25 af bd b0 07 33 bf
       1.1664654 0.7133204 -0.0855202 -0.69933605
0002b0 56 df a3 bf 48 58 62 3f 21 97 2c c0 35 ec 21 c0
       -1.2802532 0.88415956 -2.6967242 -2.530042
0002c0 ae 45 9e 3f 30 bc 7b 3e 92 d1 02 bf a9 23 bb bc
       1.2365015 0.24583507 -0.5110103 -0.022844153
0002d0 7f 32 b5 3f 69 8a 92 be 88 14 d2 3f 78 3c 5d 3f
       1.4156035 -0.28621224 1.6412516 0.86420393
0002e0 4d d7 12 bf fc 94 0f 40 51 97 0d 40 e5 31 2d 3f
       -0.5735977 2.2434683 2.2123606 0.6765426
0002f0 45 a3 25 bf fa 39 cf bf 51 76 2e 3f 9c 58 44 3f
       -0.64702255 -1.6189568 0.68149287 0.7669771
000300 8d 52 bf be be d3 94 3f 1f 07 e3 be 43 7e 4f bf
       -0.3736767 1.1627119 -0.4434137 -0.81052035
000310 16 34 83 3f ba ef 8c 3f ef 3a 96 3f 14 c7 f3 3e
       1.025027 1.1010659 1.1736735 0.47612822
000320 96 47 b5 bf 11 1d 9b bf b1 47 bb 3e ab c1 1c bf
       -1.4162471 -1.2118245 0.36578134 -0.61233014
000330 2f c9 80 3f 5e f0 7a 3d 74 e7 15 bf 02 df 4a bf
       1.0061396 0.06126439 -0.58556294 -0.7924653
000340 a2 5e 6d 3e 8e 2e 22 3e a7 71 1f 3f 0f bf 50 be
       0.23180631 0.15838072 0.62282795 -0.20385383
000350 c8 b7 c5 bf 7c 29 22 3f cc 65 22 3f 92 a2 ce 3e
       -1.544671 0.6334455 0.6343658 0.40358406
000360 9b 7d b3 3e 3b a1 3d 3e bb 35 87 3e 43 cf cd bf
       0.35056767 0.18518536 0.2640818 -1.6078876
000370 d7 33 9f 3e e4 fe 21 bd f1 f4 8a 3f 86 b7 58 bf
       0.31094238 -0.039549723 1.0856 -0.84655035
000380 cf 52 14 3f 32 70 32 bf f4 bd f0 bd 41 a0 67 bf
       0.57938856 -0.69702446 -0.11754981 -0.90478903
000390 35 20 b6 be 7d 2d 68 bd ab b8 11 c0 9c 24 cb 3f
       -0.35571447 -0.056684006 -2.2768962 1.5870547
0003a0 05 98 85 3f 00 95 d7 3f 59 47 6e bf fb 4e 95 bf
       1.0437018 1.6842346 -0.9307762 -1.1664728
0003b0 14 f1 c3 be fa ee 47 3f d0 48 8e be fe fb 49 bf
       -0.38269866 0.78099024 -0.27789927 -0.78900135
0003c0 21 09 39 be b3 52 c6 bf 7c 35 d3 be 2b 7a c8 be
       -0.18069889 -1.5493988 -0.41251743 -0.39155707
0003d0 a0 64 42 3f 59 43 89 3f 36 2d b9 bf 2b 8d fc 3e
       0.7593479 1.0723678 -1.4466922 0.49326453
0003e0 94 e2 27 3f a2 a7 94 3e c3 07 81 be 0a 0e f3 be
       0.65580106 0.29034144 -0.25201234 -0.47471648
0003f0 00 66 26 bf f3 a7 21 40 58 3c 2c 3f 7a ec 8b be
       -0.6499939 2.5258758 0.6727958 -0.27328855

transformer_encoder.layers.0.pre_norm_1.weight f4 [128]
000000 44 a2 72 3f 8b 8b 77 3f a1 6c 83 3f 64 77 85 3f
       0.9477885 0.966973 1.0267526 1.042706
000010 27 75 72 3f d7 28 7a 3f 20 fb 7d 3f 01 cf 81 3f
       0.9471001 0.97718567 0.9921131 1.0141298
000020 db cf 79 3f 51 96 71 3f 29 33 7e 3f 19 7d 72 3f
       0.9758279 0.9436999 0.99296814 0.94722134
000030 c3 57 60 3f 14 2f 6b 3f a7 f5 6c 3f 16 7a 79 3f
       0.87633914 0.9186871 0.92562336 0.97451913
000040 78 1e 7c 3f 2f c0 71 3f 88 8f 76 3f fc 68 7a 3f
       0.9848399 0.94433874 0.9631276 0.97816443
000050 ec 22 6e 3f c4 df 76 3f 44 01 80 3f 1b b9 66 3f
       0.93022037 0.9643519 1.0000386 0.901262
000060 a7 26 62 3f 96 c6 65 3f 35 50 79 3f e2 5f 67 3f
       0.8834023 0.89756143 0.9738801 0.9038068
000070 a1 9b 67 3f 55 10 7f 3f bb bb 68 3f f5 b7 7c 3f
       0.90471846 0.99634296 0.90911454 0.98718196
000080 09 8f 6d 3f b1 00 74 3f 05 89 83 3f bc bb 81 3f
       0.9279638 0.95313555 1.027619 1.0135417
000090 9c 43 63 3f 89 aa 77 3f 60 21 7e 3f 28 13 6c 3f
       0.8877504 0.9674459 0.99269676 0.9221673
0000a0 db 18 75 3f ea 08 80 3f 11 13 7b 3f 93 c6 67 3f
       0.9574105 1.000272 0.9807597 0.90537375
0000b0 aa 06 77 3f 18 8e 80 3f 51 9c 7f 3f dd 84 81 3f
       0.96494544 1.0043364 0.99847895 1.0118672
0000c0 0d 2b 78 3f 64 a3 68 3f 50 a7 74 3f 71 3a 6b 3f
       0.9694069 0.90874314 0.955678 0.9188605
0000d0 53 5d 7a 3f f5 19 75 3f 67 b8 82 3f 61 b9 6a 3f
       0.9779865 0.9574273 1.0212525 0.91689116
0000e0 a0 e6 81 3f 04 45 6f 3f 8b 83 79 3f 9b 81 80 3f
       1.0148506 0.93464684 0.97466344 1.0039552
0000f0 45 ee 63 3f f9 6d 70 3f 41 ed 6c 3f ec 17 6a 3f
       0.89035445 0.93917805 0.9254952 0.9144275
000100 e2 69 67 3f 91 4a 68 3f 3d fe 73 3f 24 f5 71 3f
       0.9039594 0.9073878 0.9530981 0.9451468
000110 ec 6e 73 3f aa 47 7b 3f c9 56 7f 3f e7 31 75 3f
       0.9509113 0.98156226 0.997418 0.9577927
000120 23 c6 69 3f 20 60 72 3f 94 bc 82 3f 81 59 74 3f
       0.9131796 0.94677925 1.02138 0.9544907
000130 c9 79 70 3f cb 29 74 3f 1e 08 70 3f 56 e4 6c 3f
       0.9393583 0.9537627 0.93762386 0.92535913
000140 a3 b6 71 3f dd 24 73 3f 89 09 61 3f b5 6a 76 3f
       0.94419307 0.94978124 0.87905174 0.9625657
000150 ce 60 82 3f 0c e6 71 3f eb d7 73 3f 8c 02 69 3f
       1.0185792 0.9449165 0.9525134 0.9101951
000160 ce fd 79 3f 7e 0e 6d 3f 44 8d 73 3f 2d 7c 6b 3f
       0.976529 0.9260024 0.9513743 0.9198635
000170 9f b6 7c 3f 9c 0d 6f 3f 88 a4 80 3f 9a 57 6b 3f
       0.9871616 0.9338014 1.0050211 0.91930544
000180 f6 12 6b 3f 17 58 7e 3f 69 12 74 3f fa 98 80 3f
       0.9182581 0.99353164 0.9534059 1.0046685
000190 39 ce 79 3f f4 2c 6e 3f 3c c0 76 3f 9f d3 7c 3f
       0.97580296 0.93037343 0.96387076 0.9876041
0001a0 ca 9b 6f 3f ee 76 65 3f 45 71 74 3f 05 c9 75 3f
       0.9359709 0.896346 0.95485336 0.96009856
0001b0 f4 75 67 3f 6d 6d 70 3f c6 19 65 3f d3 ea 68 3f
       0.9041436 0.9391697 0.8949245 0.90983313
0001c0 8c 8c 62 3f 38 4c 80 3f d2 02 6e 3f 63 ef 7b 3f
       0.8849571 1.002326 0.92973053 0.9841215
0001d0 eb 0d 77 3f 00 57 69 3f 70 d1 7d 3f 8b 4f 6e 3f
       0.9650561 0.91148376 0.991477 0.9309012
0001e0 ab 8a 7c 3f fc 11 81 3f 80 42 85 3f a5 31 71 3f
       0.9864909 1.0083613 1.0410919 0.94216377
0001f0 e1 08 68 3f f8 a9 65 3f 60 0b 82 3f 26 02 67 3f
       0.9063855 0.89712477 1.0159721 0.90237653

transformer_encoder.layers.0.pre_norm_1.bias f4 [128]
000000 49 87 bb 3d ee 03 b8 bd 75 4e 61 bc 06 02 30 bd
       0.09156663 -0.089851245 -0.013751616 -0.04297068
000010 58 e5 9e 3d b8 4d 51 bc 7f 01 1a bc 94 ae 23 bd
       0.077585876 -0.012774877 -0.009399771 -0.039961413
000020 c8 47 8a bc 18 8f b1 3d 65 d4 43 3c 17 1b ab bd
       -0.016879931 0.08669871 0.011952494 -0.08354776
000030 f8 75 09 3e 21 cb 96 bd 87 c9 84 bd dd 07 52 3d
       0.13423908 -0.073629625 -0.06483751 0.05127703
000040 0d 7d f7 3c 8a c4 91 3d d3 3f b7 3d cd e2 46 3d
       0.030210996 0.07117565 0.089477204 0.048556138
000050 76 61 75 bc a1 22 da 3c fc 3d 65 bd e4 63 3c bd
       -0.01497685 0.02662784 -0.055967316 -0.0459937
000060 80 0d a4 3d ff 38 d4 bd c8 9f c1 bd f4 ce d2 bd
       0.080103874 -0.10362434 -0.09454304 -0.102933794
000070 cb 23 28 3c 88 87 a3 b8 cb 3c bb bd ab 09 61 bd
       0.01026244 -7.79769e-05 -0.09142455 -0.05494086
000080 1a cb b2 bc 24 db 24 3d c3 e1 95 bc e4 09 38 3c
       -0.021825362 0.04024805 -0.018296128 0.011232827
000090 93 24 c4 bd 7e ee 74 bc df f9 95 3c ae 98 9a 3d
       -0.095772885 -0.014949439 0.018307624 0.075486526
0000a0 fd ce 1f bc eb 97 3e 3c 9f 2e 23 3d c8 35 a6 bd
       -0.00975394 0.0116329 0.039839383 -0.08115727
0000b0 cf 67 ad 3c 6c ae 08 3b c8 b3 30 3d a0 c9 3b bd
       0.021167664 0.0020855917 0.043140203 -0.04584658
0000c0 f2 2e 07 bd f4 20 a0 3d 46 d6 e3 bc 07 53 e6 3c
       -0.033003755 0.07818785 -0.027812134 0.028115762
0000d0 eb d9 65 3d cc 29 a8 3d 66 3a 3f bd c0 7f b8 bd
       0.056116026 0.08211097 -0.046686552 -0.090087414
0000e0 8d a2 98 3a e6 cd 63 bd 51 f4 d6 bd fe af 5b bd
       0.0011645124 -0.055616282 -0.104958184 -0.053634636
0000f0 0b cd 05 bd fc fc 81 3d 71 d4 d7 bd 8c 3b 9f bd
       -0.032666247 0.06347081 -0.10538567 -0.077750295
000100 8d 56 ae 3d 8d 3e 8e bc bb cf a9 bc 62 98 a2 bd
       0.08512602 -0.01736381 -0.020728936 -0.07939221
000110 34 77 b9 bd 2b de 8e 3d 1f e1 29 bd 9f 64 a9 3c
       -0.09055939 0.06975969 -0.041474458 0.020677863
000120 c1 e8 e9 bd 37 b5 4c 3d 7b 99 5c 3d e8 fd 55 3d
       -0.114213474 0.049977507 0.053857308 0.052244097
000130 68 4c 2d bd ce 8e bf 3d 87 82 f7 3b fe 58 83 3d
       -0.042309195 0.0935341 0.007553402 0.06413458
000140 d7 4b bb bd 00 17 1c 3d 33 03 d0 bd 43 50 88 3d
       -0.09145325 0.038107872 -0.1015686 0.06655934
000150 ba f6 88 3d e9 f6 1b 3d 23 dd 82 bd 24 e2 b9 3d
       0.06687684 0.03807727 -0.06389835 0.09076336
000160 e4 7f 18 bd 46 18 8e bb f4 be 29 bd d9 84 5b bc
       -0.03723134 -0.0043363897 -0.041441873 -0.013398373
000170 a1 4c fc 3c c0 cc ae bd 1d c7 81 bd 51 89 92 bd
       0.030798258 -0.08535147 -0.06336806 -0.07155097
000180 17 15 88 bd 44 8f b0 3c f5 7e 90 3a 82 af a4 3d
       -0.066446476 0.02155269 0.0011024164 0.08041288
000190 2c 36 bd 3d 03 eb a8 3d 5d c9 8b 3c 62 a3 cd 3c
       0.09238848 0.0824795 0.017063791 0.025102321
0001a0 0c 79 2b bd fc b5 c7 3d 83 c3 70 bd c6 fa 3f 3d
       -0.041863486 0.09751508 -0.058780205 0.046870016
0001b0 0f 35 94 3c 64 74 5c 3d 28 c6 d9 bd 3a 30 cd 3d
       0.018091707 0.053821936 -0.106334984 0.10018964
0001c0 2a 9b 13 3d 38 1c 3c 3c 91 e8 18 bd b7 f7 dd bc
       0.036036648 0.011481337 -0.037331168 -0.027095659
0001d0 10 49 8e 3d 0a 5c a9 3d ab b1 bf bd f0 2f bd 3c
       0.06947529 0.08269508 -0.09360059 0.023094147
0001e0 f1 3e 16 bd 01 90 61 bc 06 ae 49 bd 9e 2a 17 bd
       -0.03668112 -0.013767243 -0.049238227 -0.036905877
0001f0 3f 40 97 3d 34 c5 12 bd cc ba d1 bd 25 3e a6 3d
       0.07385301 -0.0358326 -0.10240707 0.08117322

transformer_encoder.layers.0.pre_norm_2.weight f4 [128]
000000 1b fb 81 3f f4 3c 88 3f b8 ba 73 3f bb ab 7b 3f
       1.0154756 1.0643601 0.95206785 0.98308915
000010 5a 59 80 3f de 4f 6b 3f c1 21 6e 3f ce 04 83 3f
       1.0027268 0.9191874 0.93020254 1.0235841
000020 ff 8a 75 3f 82 1c 70 3f 98 ab 64 3f a8 b5 7e 3f
       0.95915216 0.937935 0.8932433 0.99495935
000030 0b ac 77 3f 19 1d 67 3f 9a 82 87 3f c5 be 6e 3f
       0.9674689 0.90278774 1.0586731 0.9325984
000040 2f 00 8a 3f 3a 99 80 3f 5f cf 75 3f a5 b2 6e 3f
       1.0781306 1.0046761 0.9601955 0.9324134
000050 a6 7e 78 3f aa ad 72 3f c6 7a 83 3f 42 25 7e 3f
       0.9706825 0.9479624 1.0271842 0.992756
000060 f9 8e 81 3f 70 0d 80 3f 87 4e 82 3f e9 da 84 3f
       1.0121757 1.0004101 1.0180215 1.0379306
000070 11 4e 73 3f 22 a2 7a 3f 73 71 82 3f 32 4e 70 3f
       0.95040995 0.97903645 1.0190872 0.93869317
000080 13 77 85 3f f3 1a 78 3f 39 88 7f 3f 1a b0 81 3f
       1.0426964 0.9691612 0.99817234 1.0131867
000090 cb a9 7b 3f 63 12 72 3f 22 17 88 3f 94 8f 80 3f
       0.9830596 0.94559306 1.063206 1.0043817
0000a0 d5 cf 87 3f bd 14 82 3f 27 0c 84 3f 14 5b 82 3f
       1.06103 1.0162579 1.0316209 1.0184045
0000b0 63 1c 7a 3f 2c 67 7c 3f 9a c7 7a 3f 85 6b 7e 3f
       0.97699565 0.9859493 0.9796082 0.9938281
0000c0 9b 82 76 3f ca de 79 3f 3e 50 81 3f 66 c3 83 3f
       0.9629304 0.97605574 1.0102613 1.0294006
0000d0 3f b2 6b 3f a9 4b 82 3f 27 c0 7b 3f 4d ec 86 3f
       0.92068857 1.017934 0.98340076 1.0540863
0000e0 89 d5 6f 3f 5b ff 70 3f 2b 00 6f 3f 08 7e 7e 3f
       0.93685204 0.9413964 0.9335963 0.9941106
0000f0 1c f4 75 3f 5c 40 66 3f 0b ce 75 3f 9e 5e 6d 3f
       0.96075606 0.89941955 0.9601752 0.927225
000100 f3 99 83 3f b5 22 85 3f 94 a9 87 3f 5a 6f 74 3f
       1.0281357 1.0401217 1.0598626 0.9548241
000110 f0 6a 74 3f fc ba 81 3f ae e3 75 3f b0 6e 70 3f
       0.95475674 1.0135188 0.96050537 0.93918896
000120 38 7c 6d 3f 0f 4d 73 3f 20 52 6b 3f c2 6c 7e 3f
       0.9276767 0.9503946 0.9192219 0.993847
000130 de 1e 80 3f 49 2d 71 3f 83 5d 82 3f 3d 41 6d 3f
       1.000942 0.94209725 1.0184788 0.9267767
000140 26 d2 77 3f 87 62 77 3f a7 79 81 3f 59 b4 81 3f
       0.96805036 0.96634716 1.011525 1.0133163
000150 32 13 79 3f 5e b6 85 3f 8c 06 88 3f 08 4e 7f 3f
       0.97294915 1.0446279 1.0626998 0.9972844
000160 2b c3 77 3f 84 90 8a 3f 9e 9c 6f 3f a7 13 6f 3f
       0.9678218 1.0825353 0.93598354 0.9338936
000170 d9 0e 6f 3f 65 c9 6b 3f 2d 0f 7b 3f f0 9d 6d 3f
       0.9338203 0.9210418 0.9807003 0.9281912
000180 82 fc 82 3f ea 1f 81 3f 78 95 80 3f c4 6f 7d 3f
       1.0233309 1.0087864 1.0045614 0.98998666
000190 a6 93 78 3f 22 22 6c 3f 31 74 69 3f 2f 50 71 3f
       0.97100294 0.9223958 0.9119292 0.94262975
0001a0 36 a7 84 3f da 1e 77 3f 46 0f 87 3f f6 95 89 3f
       1.0363529 0.9653145 1.0551536 1.074889
0001b0 5c 09 83 3f dd ca 82 3f b9 96 6d 3f 52 6d 78 3f
       1.0237231 1.0218159 0.9280811 0.9704181
0001c0 58 18 71 3f 43 1d 6a 3f c4 87 6c 3f 4d cd 6f 3f
       0.9417777 0.914509 0.9239466 0.9367264
0001d0 48 ec 7e 3f bd 46 7b 3f b0 58 6f 3f 49 5f 6e 3f
       0.99579287 0.98154813 0.934947 0.93114144
0001e0 c5 da 76 3f ed 4a 81 3f 34 74 7c 3f 09 cd 78 3f
       0.96427566 1.010099 0.9861481 0.9718786
0001f0 82 49 8b 3f 77 10 84 3f 81 67 6e 3f 57 07 76 3f
       1.0881808 1.0317525 0.93126684 0.9610495

transformer_encoder.layers.0.pre_norm_2.bias f4 [128]
000000 b8 cf c6 3c 84 ce 4d bd 46 3f da 3c 3f e9 e7 bc
       0.02426897 -0.050245777 0.0266415 -0.028309463
000010 94 75 5a bb 6a 0f 28 bc d9 2a b5 bd 49 48 fb bb
       -0.0033334242 -0.010257581 -0.08846063 -0.007668529
000020 49 83 93 bd b3 73 6b bb 95 b6 d2 bc 43 1c da 3a
       -0.07202775 -0.0035927116 -0.025721828 0.0016640503
000030 79 0a 1f 3d 04 59 a4 3a f6 ed 8b bc 95 90 a2 3d
       0.038828347 0.0012538736 -0.017081242 0.07937733
000040 3a d0 35 bd 5e 84 4c 3d fd 60 7d bc 9c b8 d8 bc
       -0.044388033 0.049930923 -0.015465018 -0.026455216
000050 5b 40 bc 3c 57 5f 44 bd f2 c9 15 3d 70 ba ef bc
       0.022979906 -0.047942486 0.036569543 -0.029263705
000060 8a 8a c7 3c 83 3d 8f b9 6b a9 9e 3b 86 2f 84 3c
       0.024358053 -0.00027320915 0.0048419735 0.016135942
000070 6c 5c 8f 3c 9c e6 62 bd 53 5f 09 3d a4 59 c2 bc
       0.017500125 -0.055395707 0.033538174 -0.023724385
000080 e9 0b 54 3d cc 13 c2 bb 81 d1 08 3d 39 17 90 3c
       0.05176917 -0.00592277 0.033402923 0.017589198
000090 02 c1 3b 3c 4d 0f 67 bd 43 f1 67 bd 9b ab 3f 3c
       0.011459591 -0.056411076 -0.05662657 0.011698629
0000a0 e1 57 d9 3c f7 e0 63 bd 6e df 86 bc 20 f5 18 3c
       0.026531162 -0.055634465 -0.016463961 0.009335786
0000b0 73 f9 e6 bc d1 ad d9 bc 0d 1e 6a bb 07 f2 10 bc
       -0.028195119 -0.02657214 -0.0035723478 -0.008846766
0000c0 69 a2 62 bc 25 af 0d 3d e3 af 4d bd 60 26 ad bc
       -0.013832667 0.03459086 -0.050216567 -0.021136463
0000d0 46 1f c7 3b 22 36 e5 3c a2 ad 48 3d 55 d4 b5 ba
       0.006076726 0.027979914 0.048993714 -0.0013872484
0000e0 3d de 85 3c 6a 6b 5c bd 16 d6 4d bd a0 a0 dd 3c
       0.016341323 -0.053813376 -0.050252996 0.027054131
0000f0 16 74 95 bc 65 98 1b bd e7 af 71 bd 13 c9 71 3d
       -0.01824383 -0.03798713 -0.059005644 0.05902965
000100 00 34 ac bd e6 57 b2 bc ea 0d 63 3c 79 fc f0 3c
       -0.08408356 -0.021770429 0.013858298 0.029417263
000110 84 d2 18 3d 6f 36 40 3c 73 08 c0 bc 2e 7c f4 3c
       0.03731014 0.011731728 -0.023441529 0.02984437
000120 a6 25 26 bd 9d 20 6f 3d 68 c2 4f 3d 82 73 97 3c
       -0.040563248 0.05838071 0.05072251 0.018487696
000130 d4 10 08 bd 0c de 5f bc 50 dd f2 3a e6 98 f5 3c
       -0.033219174 -0.01366378 0.0018529091 0.029980134
000140 41 26 6b 3b 58 72 8b 3c c6 b2 7d bd ce 61 96 bc
       0.0035880955 0.017022297 -0.06193807 -0.018357184
000150 28 36 c9 3c a8 01 f9 bb f6 73 1d bd 95 bc c6 bc
       0.024561957 -0.0075990744 -0.038440667 -0.024259845
000160 65 20 e7 3c b1 29 bd bc ef 8d 00 3d 31 db 97 3d
       0.02821369 -0.02309117 0.03138536 0.07414854
000170 5a aa 93 bc ce a7 9e 3d 98 48 c7 bb 48 e9 83 bd
       -0.018025566 0.0774685 -0.006081652 -0.06440979
000180 e0 3e 10 3c b2 36 2d bc 67 27 8f bc c4 65 d3 ba
       0.008804053 -0.010572122 -0.017474843 -0.0016128351
000190 b4 40 5e bc dd 2d af bb 09 71 ba bd 44 0b d5 bc
       -0.013565231 -0.0053460435 -0.09103591 -0.026006348
0001a0 96 2e e1 3c c2 d2 9e 3b a9 a5 1f 3d 2d d6 bf bc
       0.027488034 0.0048469016 0.038976345 -0.023417557
0001b0 bc 92 f3 3b a1 10 e1 bb c6 25 a9 3c 4d da 42 3c
       0.0074332636 -0.0068684374 0.020647895 0.011892867
0001c0 06 4c ae bc c6 15 fa bc 6f f7 77 3d 9d 8f 3c bd
       -0.021276485 -0.03052796 0.060538705 -0.046035398
0001d0 98 18 68 3c ba 1e a4 3d 8f 01 6e bd 11 da 42 3d
       0.01416602 0.08013673 -0.058106955 0.047571246
0001e0 67 b4 82 bd 01 50 9c bc 42 01 8e 3d fe ca f2 bc
       -0.06382065 -0.019081118 0.06933834 -0.02963781
0001f0 1a cb 51 bd f2 9f 9d bc b8 94 17 3d 60 df a6 bd
       -0.051219083 -0.019241307 0.037007064 -0.08148074

transformer_encoder.layers.0.self_attn.in_proj_container.query_proj.weight f4 [128, 128]
000000 19 8d 1b be 9c 4b 1c 3e 8d e2 d3 3d 7f 9e d7 bd
       -0.15190543 0.15263218 0.103459455 -0.105282776
000010 be b9 86 3d a1 a1 38 3d 41 dc 01 3d 6a b2 25 3e
       0.06578396 0.045076016 0.03170419 0.16181341
000020 ef 86 fd bd 68 d0 87 bd 69 f5 38 be 45 94 d4 3d
       -0.12379252 -0.06631547 -0.18062367 0.10379843
000030 26 fe ff bc 0f 7d c8 3c b0 12 8a bc db 75 c2 3d
       -0.031249117 0.024473695 -0.016854614 0.094951354
000040 b5 f6 c3 3d d8 24 f5 bb e3 0a 45 bc 77 f3 10 bd
       0.0956854 -0.0074811988 -0.012026521 -0.035388436
000050 0a c8 bd 3d 61 45 1d bd 3e 8f 2a be 41 2b 9c 3d
       0.0926667 -0.038396243 -0.16656205 0.076254375
000060 e1 b5 98 3c be 0b b0 bd 20 47 03 be e5 70 43 bd
       0.018641414 -0.0859599 -0.12820101 -0.047715086
000070 e0 bc ad bb 17 f0 e7 bd a8 70 3b bd 8a ff 0f 3d
       -0.0053020567 -0.113250904 -0.045761734 0.03515581
000080 bf 97 d7 bb 28 01 00 ba c3 56 c0 bb b4 b6 fa 3c
       -0.006579369 -0.0004882985 -0.005869718 0.030604698
000090 65 98 b4 3d c3 f8 d0 bc 66 90 19 3d ec 22 bd 3c
       0.088181295 -0.025509244 0.037491225 0.023087941
0000a0 ab 7d 1c 3c 5f 3f d1 bd 3f a5 3a bc 83 70 bd bd
       0.009551446 -0.10217165 -0.011391937 -0.092499755
0000b0 c9 af 19 be 5f 92 84 3b 81 47 aa bd ff e2 0d bd
       -0.15008463 0.004045769 -0.083144195 -0.03464031
0000c0 21 50 e3 3d a9 e1 20 3e 92 27 b1 3d 86 c2 46 bc
       0.11099268 0.15711083 0.086501256 -0.012131339
0000d0 b5 00 d9 bd 01 ef 1b 3c 0a 70 bf 3d 2e db ab bd
       -0.10595838 0.009517432 0.09347542 -0.083914146
0000e0 12 90 84 3c 41 61 fc bb 54 9f f3 bd 72 68 75 bd
       0.01618198 -0.0077020233 -0.11895624 -0.05991406
0000f0 5c 4a c0 bc fd 84 db 3c 64 8a d0 bc f8 bc f9 3d
       -0.023472957 0.026796812 -0.025456615 0.12194246
000100 01 30 0b be 70 42 10 3d 31 bb c8 bc fb ca 25 be
       -0.13592531 0.03521961 -0.024503322 -0.16190712
000110 ad df 22 be ee 7d 0a be 60 79 86 bd c8 5b 2f 3b
       -0.15905638 -0.13524601 -0.06566119 0.0026757587
000120 fa 19 78 bd 71 a4 ec bb 95 83 28 3d b7 b0 33 3d
       -0.06057165 -0.0072217514 0.04114111 0.0438697
000130 1d a4 6c 3d 89 3f 2e 3d 7d 96 71 3d 83 e1 79 3b
       0.057773698 0.04254106 0.058981407 0.00381288
000140 a1 0a 17 3e 17 a0 20 bc f9 90 a1 bd 75 77 c1 3d
       0.14750148 -0.009803793 -0.078889795 0.09446613
000150 a5 16 08 3e 87 7d a7 3d f8 a6 48 3e 8a a0 cb bc
       0.13289888 0.08178239 0.19594944 -0.024856824
000160 7a 77 3b bd b6 20 8b bd 09 fc 15 3d 16 70 c3 3d
       -0.04576824 -0.067933485 0.036617313 0.09542863
000170 da c0 b3 bd 84 93 52 3d 89 64 32 3e 9f 6f a4 3d
       -0.08777018 0.051410213 0.17421164 0.080291025
000180 93 e0 1b be 82 19 ca 3d 82 0a 26 3e 45 26 a4 bb
       -0.15222387 0.098681465 0.16214946 -0.005009445
000190 c6 cf c2 bc a1 b5 02 3d 02 26 af bd e4 8c 75 3c
       -0.023780715 0.031911496 -0.08552171 0.014987204
0001a0 a0 df 09 3d 87 91 39 bd ce ea e9 bd 0a 57 f3 3d
       0.03366053 -0.0453048 -0.114217386 0.11881836
0001b0 67 d0 7d 3c a7 d8 e9 3c 93 67 c7 3d a8 4c b1 bc
       0.0154915815 0.02854569 0.09736552 -0.021642998
0001c0 eb 4f d5 3b b4 9f d8 3d 94 b4 df 3d 95 ea 3b bd
       0.006509771 0.10577336 0.109231144 -0.04587801
0001d0 cf 30 28 be 15 89 84 3d 39 14 c5 bd 66 89 aa 3d
       -0.16424869 0.06471459 -0.09622998 0.08326988
0001e0 03 fd 58 bd cf 77 e2 3d 42 b2 7c 3d 39 31 51 3d
       -0.052975666 0.11058008 0.061693437 0.051072333
0001f0 2a bc 06 3e 23 16 94 3d be 05 1c 3e c9 b9 93 bd
       0.13157716 0.07230785 0.15236565 -0.0721317
000200 a1 f7 4d bc 3a 8a ff bc 81 5e 2b bd e0 b9 8d ba
       -0.012571246 -0.031193841 -0.041838173 -0.0010812841
000210 39 02 a2 bc 3c 3e 39 bd 49 ad 7f 3c c1 c7 ae bd
       -0.01977645 -0.045225367 0.015605279 -0.08534194
000220 5b 67 ae 3d 9d 80 f3 bc c8 54 2c 3e 07 42 e1 bd
       0.08515807 -0.029724414 0.16829216 -0.10998922
000230 4c f4 2d 3d 7a 6e b6 3d ed f7 50 bd f4 e7 92 3d
       0.042469308 0.089077905 -0.05101769 0.07173148
000240 63 c6 e1 bd 4c d2 a5 3d cc 2e 5b 3d d0 e4 f4 3d
       -0.110241674 0.080967516 0.053511426 0.11957705
000250 c7 c9 a6 bd 09 ce 53 3d f7 86 e8 3d a3 7a df bc
       -0.08143955 0.051710162 0.113538675 -0.027280157
000260 9e 44 c1 bd 19 23 bb bc db d0 d7 3d 4e 80 b5 3c
       -0.09436916 -0.022843884 0.10537883 0.022155907
000270 9b 3d 24 3d 02 96 4d bc f1 49 15 bd cd 06 8a bd
       0.040097814 -0.012547972 -0.03644747 -0.067395784
000280 72 07 ec 3d f6 df b4 3d 04 c4 b1 39 1b 2f 85 bd
       0.115248576 0.0883178 0.00033906114 -0.06503125
000290 68 c9 ab 3c 5b 02 fd 3d 89 c6 1b be fe 95 22 bd
       0.020970061 0.12353965 -0.15212454 -0.039693825
0002a0 3c 84 9d 3d 3c f5 9d 3d 8f 9d 12 3d 69 1f c3 bc
       0.07691237 0.0771279 0.03579479 -0.023818688
0002b0 90 a7 91 3d 48 2d b6 3d 02 91 f0 3d 51 40 34 3d
       0.07112038 0.088953555 0.11746408 0.04400665
0002c0 18 28 f4 bd 1c 9e f0 bd 52 8d 40 3c bf 28 91 3d
       -0.1192171 -0.11748907 0.011752443 0.0708785
0002d0 40 9a 95 3c b4 0d 23 bc 81 da 3b 3b 85 3c 41 3d
       0.018262029 -0.009951998 0.0028664174 0.047176857
0002e0 a4 d9 ce bc 77 83 f3 3d 12 0d 02 3d 2c 09 c0 bd
       -0.025250264 0.11890309 0.031750746 -0.093767494
0002f0 66 c2 9a bd 48 9e 0d bd fb a2 50 3d 07 01 cb bc
       -0.0755661 -0.034574777 0.05093668 -0.024780763
000300 18 5e 98 3d a3 cc a8 3d 1f 1f e2 3c dd 06 a4 bc
       0.07439822 0.08242156 0.02760273 -0.020022804
000310 68 f1 e7 3c e0 4a 6d bc 42 9a e0 3d d5 3a 64 bd
       0.028313354 -0.014483184 0.10966922 -0.05572017
000320 e3 04 d3 3c c7 62 1d 3d 56 54 fa bc 12 3c 63 3d
       0.025759166 0.03842428 -0.030557793 0.05547721
000330 33 f6 64 3d ca 9d 28 3c 7d 9e 81 bd c7 f8 ef bd
       0.055898856 0.010291526 -0.06329057 -0.117173724
000340 b1 aa 7b bc ce fd f7 3d e0 0f 42 3c 5c b9 c6 bd
       -0.01536052 0.12108956 0.011844605 -0.09703323
000350 04 91 52 3d 8d d1 ed 3c c5 d9 27 be e2 4f bd 3d
       0.05140783 0.029030586 -0.16391666 0.09243752
000360 8d ca a7 3c 5b d3 23 bc bd c9 1c be 59 1e 58 3c
       0.020482326 -0.009999122 -0.15311332 0.013190829
000370 b1 ac c8 3d c0 85 5f bd 3d f8 1e be 60 e2 95 bc
       0.09798563 -0.054570913 -0.15524383 -0.01829642
000380 0e 66 ef bb 0b 53 34 bd f9 cd 18 be 2b 2e 9c 3c
       -0.007305867 -0.04402451 -0.14922322 0.019064983
000390 e4 27 73 bd 1b 43 fe bd 3c 58 3a 3d fe 46 d0 3b
       -0.059364215 -0.12415143 0.045494303 0.006356119
0003a0 de aa 9b 3d 9d 91 72 3d 90 12 72 bd 92 cb 16 bc
       0.0760095 0.0592209 -0.059099734 -0.009203808
0003b0 dd 51 9f 3c be 3d 09 bd de ff 68 3d e4 d3 e5 3c
       0.019448215 -0.033506148 0.05688464 0.028055139
0003c0 99 db a1 bd 18 1a 27 3d a3 2e 34 bd 74 0c 10 3d
       -0.07903213 0.04079637 -0.04398979 0.035168126
0003d0 8e 14 96 3d a0 76 ef bc a3 ae 15 bd e2 e1 96 bd
       0.07328139 -0.02923137 -0.0365435 -0.073673025
0003e0 cf ab ee bc 78 15 04 be 5d d1 f7 bc 03 6f 89 3c
       -0.02913466 -0.12898815 -0.0302512 0.016776567
0003f0 82 fc d3 ba d4 b7 66 3c b2 50 c1 bb 2b 7e ad 3d
       -0.0016173276 0.014081914 -0.005899512 0.0847133

transformer_encoder.layers.0.self_attn.in_proj_container.query_proj.bias f4 [128]
000000 13 44 4c 3d 72 51 78 bd 71 0b 02 3e 9d 41 2f 3d
       0.049869608 -0.060624547 0.12699677 0.042787183
000010 32 23 0b 3c 0a 3b 3b bc 19 28 a2 bd 21 45 14 bc
       0.008492278 -0.01142765 -0.07917804 -0.009049685
000020 89 58 a1 3b 14 d0 cc 3d 11 f8 00 bd b6 07 f5 bc
       0.0049238843 0.10000625 -0.031486575 -0.029910903
000030 55 c4 61 3c a4 44 06 3e 5b 8a b2 3d c0 fe 10 3a
       0.013779719 0.13112122 0.087177955 0.0005531125
000040 d7 17 ad bc 0e 30 fe 3c b9 cd 94 3d b1 e5 d2 3b
       -0.021129532 0.031028774 0.07265801 0.0064360728
000050 a3 ca 9c bc 9b c6 c1 bd 98 41 c4 3c 86 e4 c0 3b
       -0.019139593 -0.09461709 0.023957059 0.005886617
000060 13 a8 f1 bd 8d 76 80 3c 5b b5 c9 bc 9a 94 d5 bd
       -0.11799636 0.01568153 -0.02462261 -0.10428734
000070 4a f9 37 bd 79 ae b4 3c 34 29 2a 3d 84 52 99 3c
       -0.044915475 0.022055851 0.0415432 0.018716104
000080 bb 50 7f 3d be 8d 87 bd 18 3b 16 3d 0c ba c5 bd
       0.06233285 -0.06618832 0.03667745 -0.09654626
000090 83 9f f8 bd ea 2d ca bd f6 9c 0c be 31 81 57 bd
       -0.121397994 -0.09872039 -0.13731751 -0.05261344
0000a0 ee f3 49 3d ca 14 76 bd 2e 54 78 bb 8b da 6a 3d
       0.049304895 -0.06007842 -0.0037891972 0.057337325
0000b0 9b 98 49 3c ac aa ee bb 75 4e 94 bb 43 9a af 3d
       0.01230445 -0.0072835293 -0.0045259544 0.08574345
0000c0 e7 1d ac bc fb 3b 1b be 94 80 84 3c f9 00 88 bb
       -0.021010352 -0.151596 0.016174592 -0.0041505066
0000d0 34 23 19 bb a8 e0 45 3c 98 03 f9 3b 59 62 c8 3c
       -0.002336693 0.012077488 0.0075993054 0.024460958
0000e0 b1 18 20 bd 20 ed c5 3d b2 0d 99 3c 74 a8 eb 3c
       -0.039086048 0.09664369 0.018683288 0.028766848
0000f0 81 70 75 3c a0 7b 9b 3d 8c 0f 22 3d 12 c9 51 bd
       0.014980436 0.07591939 0.039565608 -0.051217146
000100 df 4f f3 3c 76 70 8a 3d 6a 13 96 bd 09 1d f6 bc
       0.029701171 0.067597315 -0.07327922 -0.030043142
000110 69 7b 8d 3d 3a f9 dd bc c6 2f 21 3d f9 f0 d3 3d
       0.06908304 -0.02709638 0.0393522 0.10348696
000120 e4 be 3c bd c1 1b 8a 3d b0 da d3 bd 8f a5 5b bd
       -0.046080485 0.06743575 -0.10344446 -0.053624686
000130 27 e0 1c 3b ad 95 b2 bd e9 1a a5 bd fd aa 41 3d
       0.0023937316 -0.08719955 -0.08061773 0.047282208
000140 23 ef 58 3d 32 6f 01 bd 2b 2f b5 3d 6a d7 3f bd
       0.052962434 -0.031600185 0.08846887 -0.046836294
000150 cc 08 41 bd ad f7 2d 3d d5 fe 9c 3d 5a e9 40 bd
       -0.04712753 0.04247253 0.07665793 -0.04709754
000160 56 f4 25 bd 79 28 3d bd 0e ef 22 bd fe c2 0d 3d
       -0.04051622 -0.046181176 -0.03977876 0.034609787
000170 ee 83 03 3d 03 e5 2c 3d de 75 df bd ce d2 d2 bc
       0.03210824 0.04221059 -0.10911153 -0.025735285
000180 a4 59 45 3e 18 ff 4d 3c b0 bc 58 3e dc 16 a3 bd
       0.19272476 0.012573026 0.21165729 -0.079633445
000190 7a 25 64 3d c9 cf e1 3d c8 4a d0 3c 7d be d1 bd
       0.055699803 0.1102596 0.025426283 -0.10241411
0001a0 8b 07 e1 ba 71 ab 15 3e 39 37 2c bd 37 d6 ee bd
       -0.0017168386 0.14616181 -0.042044852 -0.11661952
0001b0 13 2f 49 3d 4d 20 ba 3d 60 29 21 bd 4b 1d 88 3d
       0.04911716 0.09088192 -0.0393461 0.06646212
0001c0 3f 2e 82 3c fa 43 59 3b 3e 3f c8 bc e8 34 b8 3d
       0.015891192 0.003315209 -0.024444219 0.08994466
0001d0 a3 e6 46 3d ee 85 32 3d 73 f3 37 bc e4 7e 7a bd
       0.048559796 0.043584757 -0.011227476 -0.06115617
0001e0 2b 0d 86 bd ae 5c 35 3d 83 54 3d 3e 60 da c8 bc
       -0.0654548 0.04427784 0.1848927 -0.024518192
0001f0 90 04 a3 3c 08 eb b1 3d c5 48 e6 bc 32 4c 61 be
       0.019899637 0.08687407 -0.028110871 -0.22001722

transformer_encoder.layers.0.self_attn.in_proj_container.key_proj.weight f4 [128, 128]
000000 f7 56 94 bd 0c ea 91 bd 74 c4 73 3c 49 db 10 be
       -0.0724315 -0.07124719 0.014878381 -0.1414615
000010 a1 87 14 be 58 63 83 bc 76 93 ce 3d 00 76 50 3e
       -0.14504863 -0.016038582 0.1008672 0.20357513
000020 a3 55 87 3d 2e 96 18 bd 3a 19 53 bd 6c 10 8e 3d
       0.06608131 -0.037252598 -0.05153773 0.06936726
000030 2f 5c a1 bc 16 df 02 be 91 7d fe bd 85 ae c0 3d
       -0.019697277 -0.12780413 -0.12426294 0.09408287
000040 13 53 f9 bc 89 ed 99 3d ef 87 ce 3d df d1 86 bd
       -0.03043512 0.07516009 0.10084521 -0.065829985
000050 52 5c c8 bd 45 f0 ce bc 29 4b f8 bd 52 9e 42 bd
       -0.09783234 -0.025261054 -0.12123711 -0.047514267
000060 8c 51 ee 3d d4 57 c2 bb 1d c6 a8 bd cd b0 6d bc
       0.116366476 -0.00593088 -0.08240912 -0.014507485
000070 40 16 06 be f5 3b 17 3d c2 d4 18 3d 5b 2d 25 3d
       -0.13094425 0.036922414 0.037312277 0.040326457
000080 e4 96 ba bd 81 6d d9 bd be 19 84 3c 59 c8 27 3e
       -0.09110811 -0.10616589 0.016125556 0.1638502
000090 a5 3d fd 3d 35 79 06 bd 8f 99 ce 3d 1a 56 ee bd
       0.123652734 -0.032830436 0.10087883 -0.11637516
0000a0 95 e9 b1 3c 1f d5 b4 bd 25 e8 2b 3d 7c d7 ea 3c
       0.021717826 -0.08829712 0.041969437 0.028667204
0000b0 38 5a ad 3d 44 65 60 3d 6e e7 a4 3d 48 96 c9 3d
       0.084644735 0.054784074 0.08051954 0.09843117
0000c0 7b fa 1e 3e 38 0c de bc 3c a7 91 bd 2c 6a a4 bd
       0.15525238 -0.027105436 -0.071119756 -0.08028063
0000d0 de a0 3a bd 3f cd f4 bd 32 e9 0c be 7d 0b 5b 3d
       -0.04556357 -0.1195321 -0.13760832 0.053477753
0000e0 4a 12 2a bd 99 b9 2c bb bf bc 89 bd 1f c6 1d 3e
       -0.041521348 -0.0026355742 -0.067254536 0.15407608
0000f0 a5 af e3 3d e5 19 4f 3d a4 92 34 be 0c 15 56 bc
       0.11117486 0.050561804 -0.17634064 -0.013066541
000100 f0 e2 17 3c c8 61 82 3d 82 98 29 bd 7b 74 96 bb
       0.009270415 0.063663065 -0.04140521 -0.0045915223
000110 aa 0d 71 3d 2f 8c e2 bc aa 4a fd bc 15 4d be bb
       0.05885092 -0.027654735 -0.030919392 -0.0058075287
000120 3f 18 f5 3c 6d 0d f7 bd ee 2f 8c bd a7 7c 26 3c
       0.029918788 -0.12063108 -0.06845079 0.010161555
000130 1c dd 0e 3e 14 db 8b 3c 10 66 6c 3d fa 5c 8d 3d
       0.13951534 0.017072238 0.057714522 0.069024995
000140 f0 0b 96 3d 33 06 a0 bd 8d 7c ac 3c ee d4 ff bb
       0.07326496 -0.078136824 0.021055484 -0.0078073656
000150 0f 34 91 3c db 97 d8 bc 37 44 0c 3c cc 07 ab bd
       0.017725019 -0.026439598 0.008561186 -0.083510965
000160 eb 45 96 bd 74 99 5e 3d cb 2e 5e 3d fd f1 56 bd
       -0.073375545 0.054345563 0.054243844 -0.05247687
000170 d7 af f1 3a 2f 68 cc bc f9 f8 53 3d 3e 41 42 3e
       0.0018439245 -0.024952022 0.05175111 0.189702
000180 70 d2 07 be f8 30 34 3e 28 9c 2b 3c bf 94 e8 3d
       -0.1326387 0.17596805 0.010474242 0.11356496
000190 bc 6f da 3d e9 89 7f bc c0 20 a2 3d 1b b8 0e 3d
       0.10665843 -0.015596845 0.07916403 0.034843545
0001a0 74 2d 3d bd 4a 51 70 3d e2 95 b9 3d 8c a7 97 3d
       -0.046185926 0.058671273 0.09061791 0.07405004
0001b0 46 05 b3 bd ab 40 22 bd 20 c0 6f bd a0 93 8f b8
       -0.0874124 -0.039612453 -0.058532834 -6.846269e-05
0001c0 50 c0 8f bc a0 c9 19 be 45 57 eb bb 44 53 94 3c
       -0.017547756 -0.1501832 -0.007182034 0.01810611
0001d0 e1 61 8f 3c 73 a8 e4 3b 86 10 af bd 5e 8a 00 3b
       0.017502727 0.0069780885 -0.085480735 0.0019613723
0001e0 15 1f 6a 3d 26 87 14 bb ae 18 bd 3d 9f 14 9e bb
       0.05715855 -0.0022663563 0.09233223 -0.0048242356
0001f0 1f 36 01 3e 5e a1 4d bd 0f b7 6c 3c 21 29 af bd
       0.12618302 -0.05020272 0.014447941 -0.085527666
000200 5e 2a 00 3d 80 42 92 3d 26 19 6e bd 55 c8 d7 3d
       0.031290404 0.0714159 -0.058129452 0.10536257
000210 a6 d8 df bc 6b c6 07 bb d8 98 9c bd 66 5e 4f bd
       -0.027324986 -0.0020717632 -0.0764634 -0.050627135
000220 78 ce fe 3d 27 7d 33 3c 18 11 cb 3d eb a3 95 bd
       0.124417245 0.010955132 0.0991537 -0.073066555
000230 b8 d8 3a 3d ba e6 f1 3c 8b c9 cb 3d ed 9c 7d 3d
       0.045616835 0.029528964 0.09950551 0.061917234
000240 78 91 a3 3d d3 c5 0b be 10 fb 8f bd 8b e4 0c 3e
       0.0798673 -0.13649683 -0.07030308 0.13759057
000250 a3 c6 fd bc 59 01 08 3e a5 e3 57 3c 3c f0 30 3e
       -0.030978506 0.13281764 0.013176833 0.17279142
000260 30 57 72 bd d7 ec bd bc c0 28 90 bd 34 70 3c 3d
       -0.05916518 -0.023184223 -0.070390224 0.046005443
000270 93 45 f2 3c 4d 6b ec bd a1 7d 08 bc 4e a5 e2 bc
       0.029574191 -0.115439035 -0.0083307335 -0.027666714
000280 26 86 d7 3d a6 89 be 3d 86 78 7f 3d d4 2e 02 be
       0.10523634 0.09303598 0.0623708 -0.12713176
000290 7d 6e 67 bc af 71 46 bc b9 6b 85 bd 57 38 0a 3d
       -0.014125464 -0.012112065 -0.06514687 0.033745136
0002a0 e5 c4 ab 3d 96 6b 69 3d bc 37 08 be e2 57 05 be
       0.08387164 0.056987368 -0.13302511 -0.13021806
0002b0 2f 70 a9 bb 83 00 43 bd de 28 d7 3c f6 a0 30 bd
       -0.005170844 -0.04760791 0.026264604 -0.043122254
0002c0 12 24 5d bb 38 c5 40 3d bc d2 2b 3d 72 de 84 3d
       -0.0033743423 0.047063082 0.04194902 0.064877406
0002d0 47 d4 78 3d dd 4c fb 3d 43 e0 03 3d 5b e9 07 be
       0.06074932 0.1227052 0.032196295 -0.13272612
0002e0 66 e7 b0 3d 3f 11 f1 3b ce 48 c7 3c 07 6b 1a be
       0.08637886 0.007356792 0.024326708 -0.1507989
0002f0 f6 c1 96 bd 1a 49 e0 bb 7f 48 a8 3b 4b 8d 50 3d
       -0.07361214 -0.006844652 0.0051355953 0.050915997
000300 61 0d c2 bd a3 fa 0a 3d c4 e3 00 3c 45 1e 7f ba
       -0.09475208 0.033930432 0.007866804 -0.00097319885
000310 8c f2 99 bd 06 79 35 bd 8e 1b 3f bb 53 77 37 3d
       -0.07516965 -0.04430487 -0.002916071 0.04479153
000320 1a 1b a2 bc c3 56 04 3e 34 9c 03 3b d2 fe f4 bd
       -0.019788314 0.12923722 0.0020082118 -0.119626656
000330 d6 1a cb bd 68 df 09 ba c2 3b 4f 3c 39 35 a3 bd
       -0.09917228 -0.00052594254 0.012648525 -0.07969136
000340 e6 96 6f bd 92 20 1b 3e bd 95 6a 3d cd 28 06 3d
       -0.058493517 0.15149143 0.057271708 0.032753754
000350 c7 06 89 bc ea 4f 16 3d 95 26 ae 3c 0d e6 dc 3d
       -0.016726865 0.036697306 0.021258632 0.10786066
000360 ea 5f 7c bd 30 fc 0d bd 44 ea 1b bc 5a de a0 3d
       -0.06161491 -0.034664333 -0.0095163025 0.0785491
000370 ba 64 f3 bc 6c c0 84 bc 26 24 8d bc f0 10 d8 b8
       -0.029711116 -0.016205035 -0.017229151 -0.000103028375
000380 47 82 e6 3d 88 79 10 3d e2 73 97 bd 0a 78 78 bb
       0.11255317 0.03527215 -0.0739515 -0.0037913346
000390 c6 e0 0d bb a7 0d 8b bc 97 25 1b bc b6 b3 96 bd
       -0.0021648868 -0.016974283 -0.009469411 -0.07358496
0003a0 b0 73 0c 38 ea 12 23 3d dc c6 a7 bc cc 5d 98 3c
       3.3486343e-05 0.03981296 -0.020480566 0.018599413
0003b0 31 f6 d5 3c e1 f6 0d 3e cb 95 04 3e 88 26 bc bd
       0.02611837 0.13863708 0.12947766 -0.09187037
0003c0 bb 17 94 bd 1e c0 22 3d 9e 23 08 3e 4f 49 1f be
       -0.07231089 0.039734 0.13294837 -0.15555309
0003d0 e5 9c 17 3e 8a 93 9b 3d ee fa fc 3d 14 43 17 3c
       0.14805944 0.075965 0.123525485 0.009232301
0003e0 f7 8e 4b ba c0 72 03 3d 8c ab 1a be c5 eb 9d 3c
       -0.0007765139 0.032091856 -0.15104502 0.019277463
0003f0 00 17 d0 bc 28 50 9f 3c 38 b5 10 bd 9b 4b b7 3d
       -0.025401592 0.019447401 -0.035329074 0.089499675

transformer_encoder.layers.0.self_attn.in_proj_container.key_proj.bias f4 [128]
000000 10 a5 80 bd 53 28 b0 bd 42 0c 68 3d aa fd 39 3c
       -0.06281483 -0.08601441 0.056652315 0.011351982
000010 70 db c5 bb fd b1 3f 3d 96 46 6c bd 49 68 80 bd
       -0.006038122 0.046800602 -0.057684503 -0.06269891
000020 01 b5 3b bd 10 22 84 3d 18 a0 6d 3d ab c3 d8 3c
       -0.045826916 0.064518094 0.058014005 0.02646049
000030 84 36 19 bd ed 0f 23 bd 49 6a 21 3d d9 ab 59 3c
       -0.037405506 -0.03981011 0.039408002 0.013285601
000040 af f4 b3 bc 81 79 a7 3d 6a 41 56 bb 62 84 95 3d
       -0.02196726 0.08177472 -0.0032692798 0.07300641
000050 74 09 9f 3b fe df 63 3d db dd 77 bd 02 63 3f 3d
       0.004853422 0.055633537 -0.060514312 0.04672528
000060 7c c1 88 bc c6 fb b2 bb 82 e3 8b 3d c2 b9 b6 3c
       -0.016693823 -0.0054621426 0.06830503 0.022305373
000070 67 9b a2 bd c4 f6 45 bd 15 f2 05 bd 49 76 34 3c
       -0.07939797 -0.048331037 -0.03270157 0.0110145295
000080 63 8a b2 3d a4 65 40 bd d5 af 25 3c f9 40 5a bd
       0.087178014 -0.046971932 0.010112722 -0.05328462
000090 93 c4 44 bb 3c 7c 17 3d 9f e8 c1 3c b5 84 a7 bd
       -0.0030024394 0.036983714 0.023670493 -0.08179609
0000a0 c3 f4 6f bd ad 18 08 bd ed 1f 4c bc 15 8c cb bc
       -0.058583032 -0.033226658 -0.012458784 -0.02484707
0000b0 44 d3 5e bb 80 61 3a bd c7 60 a2 bd 3e 99 84 ba
       -0.0034000436 -0.04550314 -0.07928615 -0.001011647
0000c0 23 40 98 bc 8e d7 43 3c 5f ff 3a 3d 7d fb 86 3c
       -0.01858527 0.011953248 0.045653697 0.01647734
0000d0 1e 91 aa 3c 2d fd cd 3c 65 fe 27 3d e0 e8 25 3d
       0.02082115 0.025145138 0.041014094 0.04050529
0000e0 89 9a b6 bd 24 00 a4 3c 6a 82 f3 3c 79 16 6c 3d
       -0.08916194 0.020019598 0.029725272 0.05763862
0000f0 0e 3a 61 bd d9 ed 9f 3d 6a 9f e3 bc 64 ed a0 bd
       -0.054987006 0.07809038 -0.027785975 -0.07857779
000100 9c 03 6f bd 91 1a 9b 3d d6 d2 a1 bd a4 1c a6 3d
       -0.05835305 0.075734265 -0.07901542 0.081109315
000110 a3 a6 3b 3d d9 c3 7a 3d f0 88 ab 3d e2 80 5b 3d
       0.045813214 0.06122193 0.08375728 0.05358971
000120 93 c6 a9 3d eb 8c a6 bd 45 ed fc bc 49 da 95 3c
       0.08289828 -0.08132347 -0.030874858 0.018292563
000130 89 d6 88 3c 84 02 77 3c d2 8a c6 3c 64 99 38 bd
       0.01670386 0.015076283 0.024236117 -0.04506816
000140 00 e4 90 bd e6 a8 a7 bd c4 6d 9b bd 09 51 7a bd
       -0.070747375 -0.08186512 -0.075892955 -0.061112437
000150 8c 1c 1f 3d 7c 7f e5 ba bf bf f5 3c b6 94 98 3d
       0.038845584 -0.0017509307 0.029998658 0.07450239
000160 ab e4 8b 3d 42 f4 97 3d 7c e8 84 bd da 31 10 bb
       0.06830724 0.07419635 -0.064896554 -0.002200237
000170 d9 92 c4 3b b5 af 48 bb 57 fe 46 bd 97 df 11 3d
       0.005998951 -0.0030622308 -0.0485824 0.035613623
000180 25 54 ae 3d 3a 5a b0 3d 38 fa 22 3d 99 ae 1c bd
       0.08512143 0.08610959 0.03978941 -0.038252447
000190 d7 4d cc 3c ca 8c 07 bd 64 bc d1 3b 5f 8e fb bc
       0.02493946 -0.03309325 0.0064006317 -0.030707536
0001a0 02 8c 89 bd d6 c6 02 3d 2f db ae bd f2 4b e4 bc
       -0.067161575 0.031927906 -0.085379 -0.027868245
0001b0 b0 75 a5 bd f0 88 a6 bd 42 eb ab bd 02 5f 14 bd
       -0.08079088 -0.081315875 -0.08394481 -0.03622342
0001c0 af 5e 33 3d d1 70 4f bd db a7 f9 3c d5 d8 b1 3d
       0.04379147 -0.0506447 0.030475548 0.086839356
0001d0 8e b1 32 bd ba 41 94 3d 73 0d 97 bd d2 b1 0e 3d
       -0.04362636 0.07239099 -0.07375612 0.03483755
0001e0 f0 ca 64 bc ff 62 53 3d 61 f7 fe 3c f7 71 3c bd
       -0.0139644 0.051608082 0.031123819 -0.046007123
0001f0 78 22 2a bd 7a a7 92 bd e5 34 27 3d 48 92 82 3c
       -0.04153678 -0.0716085 0.04082193 0.015938893
